weights/BASE.pth (torch, 89239 bytes, 82 tensors)

lstm1.lstm.weight_ih_l0 f8 [16, 16]
00000000: 48c3 5d0b ecaf 913f 8aca 692b da8e c9bf
00000010: d494 21c9 012c dc3f 1ebd 0723 4961 d2bf
00000020: 6ab5 90cf 039a d33f b42f 26e3 ff5e c1bf
00000030: a137 c0f5 9292 d33f 2d64 c4a9 0d26 d83f
00000040: d83f a552 764e e13f 1489 aff8 c68a c73f
00000050: c68a 706c 6931 b83f bd42 318b cdee db3f
00000060: 428b 7823 70ca d2bf 608f 103f 0742 babf
00000070: 3f84 24e5 9753 d83f 454e af4c 109f d6bf
00000080: 39a1 57d8 e227 d03f 51bb 59ec 5508 b03f
00000090: ac2f 06c2 89c6 c33f d723 afcd 1f04 c8bf
000000a0: ee66 aa95 0d58 b1bf 10da 69d2 15d4 c63f
000000b0: e17f a7ef 7701 d93f ddf8 5229 b602 dd3f
000000c0: 5b17 ebca 04e6 bbbf c7ea b9af 7dd7 db3f
000000d0: 773d f724 4c41 ba3f 89dd 1578 4602 df3f
000000e0: 13bb c3a9 72b5 e03f 9d60 931f 3904 da3f
000000f0: 6abf b0ac 3b28 d13f 5c27 5e63 3c86 d0bf
00000100: 2141 78f0 eb7b d73f 537d 8512 f76f c63f
00000110: 232c 436d a2c8 ccbf 41c6 a83d 76f2 de3f
00000120: 3b3c 4f15 89d8 d43f d8c5 d489 5ee1 d0bf
00000130: fbc1 7f2a c673 d73f 5ea7 66e2 a622 c83f
00000140: 274c 3509 a073 dabf 70a1 b24e 6a94 df3f
00000150: 59f0 2531 9157 cbbf 0f33 fdb2 d74e e03f
00000160: c5fa ea49 ee5b d0bf 6cf1 ba43 0b52 d7bf
00000170: 2f6c 9300 35aa d23f 89f4 f62e 4982 d4bf
00000180: 1715 5c99 c5c0 dabf ca20 bfa6 2131 d53f
00000190: da6c d73f 3033 bb3f e19b 1575 f5bf c0bf
000001a0: 8883 1cc4 166c bd3f d726 184d 22cb c93f
000001b0: ecfc c6da 6e44 96bf 9d54 dfbc ef55 c1bf
000001c0: 95c2 8b59 e7e7 da3f b4a0 3cea bf3a c03f
000001d0: fa9c e8d6 bfac b03f ed4a f6eb a840 853f
000001e0: 2332 5014 87e0 dcbf 0eda 2442 5fbb c23f
000001f0: 6693 59d6 76af dabf e35c 52d7 5feb bd3f
00000200: a648 5210 2d5e a2bf 5163 2c9e 854b d6bf
00000210: fabe 8043 5bc2 c73f ec8c dc5a 8c81 c5bf
00000220: 2062 e482 0423 a93f 9323 2046 ffe3 bb3f
00000230: cf68 a827 481b c2bf 9d88 416e a44a d7bf
00000240: 67f4 e6af 91b3 c3bf 621d e6f1 cf30 d93f
00000250: 62d3 cbb9 4d42 d43f 8760 aabf 9944 cfbf
00000260: 36ea d4d0 2441 d43f c766 cfe8 49eb dc3f
00000270: 0ecc 921e 4d73 a1bf 7fa6 acad b4e5 d23f
00000280: 4e28 f23a 961b d43f dd81 6758 f8f8 d5bf
00000290: a565 ed7c 4c06 a63f 7b75 ec1f 1307 d7bf
000002a0: 6e62 c1c8 ef3d d03f f298 b0d7 fc7b afbf
000002b0: cc02 ec75 61e5 c5bf 0502 4bf8 be42 d0bf
000002c0: 303c 2082 6246 d53f 85cf 0175 fbc7 ccbf
000002d0: b195 7dbc 2510 6e3f 7924 1c1d 6d4a dd3f
000002e0: bd92 9f98 2e05 a4bf 6811 fc4c 7b58 1bbf
000002f0: c778 46e5 5ba2 c3bf ebee 2ca0 fa2f cf3f
00000300: bf3e c12e 8fe3 cabf 53d8 bda3 603b b2bf
00000310: 956a 8c57 118f adbf c996 a493 a4c0 723f
00000320: ffaf 526d e528 c3bf 32c5 e651 b119 ddbf
00000330: aaf6 a8ec fec3 d6bf 9a9d d78a dc8d bebf
00000340: 0cfd d9fc 1f5f cdbf ce63 3171 4cf4 dabf
00000350: 0c3a 83b7 399a d3bf 8d7d f081 1d13 dfbf
00000360: ce79 20bd 4e8f c8bf 5bdb d7ba 6d30 de3f
00000370: be8d 1f48 26a6 c43f 8208 0a85 566c b53f
00000380: 0103 612c bb61 b13f 9e59 381b a538 d93f
00000390: 2bc2 d960 6cd1 d0bf 79ce f7e7 1bd5 cc3f
000003a0: f126 2564 9cd6 d3bf 61f2 7a05 b431 de3f
000003b0: ee82 6889 84de c33f bd5e dce2 05d5 83bf
000003c0: 9a37 7031 2dc8 d73f 83e7 7861 daa8 ca3f
000003d0: c886 c7d3 1d8c c43f f2f3 d6fa b4ef bc3f
000003e0: 8901 69af 57bc c03f 598c 6e24 797c cc3f
000003f0: d041 9865 dac2 bcbf 8cac a009 d5f5 ddbf
00000400: 71b3 ce74 c08b d5bf 62b4 459f 03bf d43f
00000410: 58ac be1b 7ecd abbf b0df af1d bf3d d13f
00000420: 9755 afda 9407 e03f 68aa 65e4 8280 7f3f
00000430: 60ae 6caf 0c2c 80bf 94c5 79ac 7b1c b7bf
00000440: 67e6 9403 fe8e d3bf 50d6 1258 dcb1 b3bf
00000450: 2838 9c41 9bb8 cfbf 63a9 6dc4 7679 c93f
00000460: 41ba 22fb 7fd2 73bf 2ddb 53b5 adfd c03f
00000470: 678d 2a8c fe72 96bf cbd1 e28b 55ca bbbf
00000480: b276 5b6b af58 d8bf f039 cdb1 b441 d3bf
00000490: 2058 a383 72e0 d1bf 9717 c14d b2a6 d43f
000004a0: ad18 621a b385 e03f 12fc f8a4 d48e df3f
000004b0: 8bee 7166 0a18 dd3f 5124 32ee 0b26 ce3f
000004c0: 632b 87ce 0447 b9bf be4c 503c 2e47 c1bf
000004d0: 9096 25fb 3d65 d7bf 1717 cb9a 4ae9 cf3f
000004e0: cf0b ce7a 5dc8 d63f 01b2 fa85 b970 db3f
000004f0: ba9e 27e5 ddfc db3f a2aa 310b 6f14 c9bf
00000500: 5e4a fead f5ec 9dbf f039 abb1 02bd d33f
00000510: 96bc 1524 3a67 d4bf 6f8d 1072 d1ff c4bf
00000520: 8e53 0a43 31e7 dbbf 0a13 6100 ed10 d8bf
00000530: 29b8 a3ad 6ffb b53f f363 c893 f059 60bf
00000540: 12d1 037b c538 db3f 7318 bab7 f3aa cc3f
00000550: 35cc 07aa 48e8 d43f 9c48 1d97 5551 c83f
00000560: 2296 30c9 b7d5 d43f 5d24 d69a 4f97 c9bf
00000570: 6ec3 6d67 0330 d53f 5207 807c cbf7 cdbf
00000580: 67ec ff72 3543 d33f 2aa0 e3e5 bded a53f
00000590: 7fb7 bc3b 9968 cfbf 9f27 a2df cc86 d2bf
000005a0: 5a6f 30f7 62fd c4bf 8309 88a3 85a9 b5bf
000005b0: 58c2 c9c9 eb44 aebf 01ea 411e 2255 d83f
000005c0: 70e7 e4d5 3f05 d13f fa16 e079 ce2f 7c3f
000005d0: c376 2fc4 32ef b23f 5e21 280a 02b6 113f
000005e0: ea7c f349 2a8f c03f 2af6 e9c9 add8 d03f
000005f0: c05e 1f5e 9118 b13f 22c8 1f9a c375 af3f
00000600: 5081 9411 63de e0bf fa5d de33 508a d3bf
00000610: 29b1 c3bb 5ec4 cbbf a593 ffcc 783f 93bf
00000620: 37b4 1423 df9b df3f 9c93 a2a1 5f6f dc3f
00000630: b7f5 2160 9302 d8bf d8d3 71c4 cef6 d2bf
00000640: a25f d50f 4c26 d9bf 1a14 36f2 62fb be3f
00000650: 4ad5 0733 e7fd d1bf 4853 f9c8 4fd8 cf3f
00000660: ff96 40f5 c52e d7bf cf00 e34b e1d0 cd3f
00000670: cf2f 7e3a a32c dbbf ea54 bca7 5822 d33f
00000680: d589 a7ba 90c8 c73f eca5 b0c1 1290 ccbf
00000690: f513 9a0c 32c8 c1bf b5da 44cd 9c0b c6bf
000006a0: 18aa 8d64 8bbd d8bf db8a 3e2c 59c0 d6bf
000006b0: 3baa 155a c8cf b13f 767a 2edf 8f38 a43f
000006c0: b66f c034 586c cc3f 1fe8 b7ca 5484 a83f
000006d0: 01ce 69d4 d9df e0bf b437 6472 1919 c2bf
000006e0: bb4a 9d61 6e0d d9bf 54e3 49e4 0c93 d93f
000006f0: 5991 c58e 6179 d13f 5700 3f27 188d debf
00000700: 63e0 3ebc 582a ce3f 342f 7609 03cc d3bf
00000710: 2ea7 8b81 da1b d43f 922e 78ec ae6b c13f
00000720: 377e 8701 5805 b63f 4d4f adac 6ce4 d43f
00000730: 0149 cd51 ac7c d43f 7721 5def 1231 cebf
00000740: 80e0 4f13 460a c5bf 75e5 6773 edc6 d2bf
00000750: d630 2fde 47fe b33f 47de 080d 742c c73f
00000760: 8c22 8c5a d68c d9bf 21b8 3b62 296f d63f
00000770: ac39 0218 4126 c4bf 42bf 50de ba90 d33f
00000780: f1e5 7f79 304a a63f 137c e18d 26b4 c73f
00000790: eec6 f973 8c88 7ebf c675 da56 0415 be3f
000007a0: 31d1 3e48 ce3c cd3f 5580 5a55 e9ab d2bf
000007b0: 3609 9a6d d5f4 d83f 5b05 2ccb 2e95 ac3f
000007c0: 9233 d468 f286 bc3f 8018 fb4c b492 dcbf
000007d0: 8acf bff0 5bfd d1bf 5173 b06b 505c dc3f
000007e0: c903 e87b 620c c13f b916 092e 5bce dabf
000007f0: bd94 a42c 35af dbbf 0195 a4af 4006 c6bf
0.01727265185712959 -0.19967200393474044 0.4401859726115849 -0.2871878473369679 0.30627532262845725 -0.13571165648715822 0.3058211707983621 0.37732259348701086
0.5408279050989178 0.18392264502387745 0.09450396439982986 0.43645037262926306 -0.2936058374781859 -0.10257001199403026 0.3801021325799105 -0.35345847595928986
0.25243445517709834 0.06262719173694832 0.15449640249096086 -0.18762586157961778 -0.06774983314462776 0.17834732793899422 0.39071463016261815 0.45329050097997287
-0.10897855714855835 0.4350275245739507 0.10255885984883216 0.4845138714512918 0.5221494022096941 0.40650775989116444 0.26808063377665425 -0.2581931085957103
0.36693857653973977 0.1752919044911133 -0.22487287840917344 0.48354869862950883 0.32571627694136723 -0.2637554498679413 0.3664412894277402 0.1885574918244925
-0.4133071985172045 0.4934335487874 -0.21360983753027332 0.5096243377571187 -0.2556110116819748 -0.3643825684955775 0.29163861328351265 -0.3204520186080307
-0.4180158612874307 0.33112374576422765 0.10624982412939535 -0.13085811821949192 0.11493055618167436 0.20151165737507057 -0.02174542627630853 -0.1354350731113855
0.42040427918167583 0.12679289758057666 0.0651359462432203 0.010377235127440676 -0.451204080426381 0.14634314279256028 -0.4169594853649897 0.11687277800443811
-0.03587475609050843 -0.34835949370021974 0.18561878963509298 -0.16801599918935695 0.04909528825573184 0.1089477106289805 -0.1414575761453478 -0.3639308048933659
-0.1539175137421893 0.3936042654317672 0.31654685157928075 -0.2442810235850212 0.316476062714773 0.4518608830963839 -0.034082803709132845 0.2952701278723921
0.3141837669032882 -0.34332092889056104 0.04301680588714455 -0.35980680577798524 0.2537803135396989 -0.06149282582218686 -0.1710626436033834 -0.2540738510834049
0.3324209471474573 -0.22485297406421637 0.0036698090588511358 0.45766761629835845 -0.03910203564718049 -0.00010431530540350664 -0.15339230246622135 0.2436517030818018
-0.21006955893471077 -0.07121852872464389 -0.0577321452494363 0.004578249814846288 -0.1496855529597951 -0.45469315527141696 -0.35571263419465515 -0.11935213460639318
-0.22946548315301418 -0.4211608033561419 -0.30628817483094006 -0.48554170312305517 -0.1918734000655164 0.4717058491364036 0.16132048150676143 0.08368435619380146
0.06789750894041548 0.3940823331662616 -0.2627821870619608 0.2252535708099577 -0.3099738100032559 0.471783643104379 0.15522820195567227 -0.009683652864210907
0.3715928061291095 0.20827798613919066 0.16052601662436516 0.11303263782515652 0.130747757577421 0.22254862097642805 -0.11234822254505805 -0.46812940540503045
-0.3366547718713298 0.3241585784333606 -0.05430215920144893 0.26939371012803814 0.5009254714192818 0.007690917298854495 -0.00789651785233686 -0.09027836762267888
-0.3056025538422546 -0.07693268919214202 -0.2478212423670254 0.19901928511837771 -0.004839420247817972 0.13274165490994375 -0.0219230435419723 -0.10855612435518151
-0.3804129169856011 -0.300885366091193 -0.27932417731551773 0.32267434685888347 0.5163207545563374 0.49309269056897265 0.45459232334517513 0.23553609018952895
-0.09873991052806512 -0.134984759759936 -0.36555432821328626 0.24930698927180892 0.355979318548802 0.4287551697150605 0.43730876329798785 -0.1959360890062572
-0.029224241966924296 0.3084112868354216 -0.3188004829780281 -0.16405695027888664 -0.43598586604030565 -0.3760330680564016 0.08586786259886083 -0.0019960116171771013
0.4253400517766447 0.22396704169313217 0.3266774807409008 0.1899821269858578 0.3255443062538196 -0.19993014393210987 0.3310554990812794 -0.2341245992575361
0.30097709875525996 0.04282945090545838 -0.24537959496359105 -0.2894775566024865 -0.16398274488244163 -0.08461795084443761 -0.05911957586511524 0.3801961226924107
0.2659453953561899 0.006881529376192347 0.0739623764961506 6.756198357760676e-05 0.1293690548982121 0.26322502821116933 0.06678112552560389 0.06144534355543409
-0.5271468489991467 -0.3053169733552462 -0.21693023842034023 -0.018796813499551885 0.49388864923350034 0.4442977026431494 -0.3751572073741402 -0.29631394561812163
-0.39296247049559885 0.12102335370407538 -0.28112201674897064 0.24878880799465208 -0.3622298140565902 0.2329370136776618 -0.4245994635791676 0.2989713323634776
0.18580826868044534 -0.22314676721116145 -0.13892198195767916 -0.1722293855943541 -0.38656887836137477 -0.35549001045926126 0.06957676123935468 0.03949403380760412
0.22205641341940713 0.04788460707273167 -0.5273255490014322 -0.14139097295304526 -0.39144477398546557 0.3996002416020492 0.2730335134749758 -0.47736171562792634
0.2356673163574242 -0.30932689594259277 0.3142000451176611 0.13609873339043027 0.08601903951011357 0.32644192564952307 0.3201094435545571 -0.23587261855778838
-0.16437602942437834 -0.29339157362081575 0.0780987660829767 0.18104410778481592 -0.3992210277797674 0.35053476899236286 -0.15741742775248946 0.3057086154030807
0.04353476985120242 0.18518526008389866 -0.0074544416853414685 0.11750819321101522 0.22841814544302388 -0.2917426427393413 0.3899434633568889 0.05582567434431481
0.11143412646579368 -0.4464541198507348 -0.2810888148371694 0.4431344081547666 0.13319045114624675 -0.4188449811521014 -0.4325688301053779 -0.17206581665337953

lstm1.lstm.weight_hh_l0 f8 [16, 4]
00000000: 3604 2a64 f27f db3f abb3 5f54 b42b c63f
00000010: 855f 5689 24a1 c13f 155a 885a bb57 c93f
00000020: 2738 d5e9 d3bc d13f c0d4 33b3 73fd b8bf
00000030: 019e 5527 4f86 d7bf 056f 63f7 64ce ce3f
00000040: cb5f 19a5 40cc dcbf eefa 3b8d 155e d3bf
00000050: fa39 878a d9cd d0bf d1fb 63ec 8c74 d93f
00000060: 8fdc 1cb6 cafa c1bf 29f5 ffc9 a1e7 ccbf
00000070: 473a 8376 c9ad d53f 42b8 edd7 f516 bc3f
00000080: 5526 c5ec c357 a5bf 8f2c c695 c678 b5bf
00000090: 9704 b22a 1b2d dabf 613e 6590 6d43 d6bf
000000a0: 0985 6b67 3a98 cebf 2b3e 6da8 ddbf bbbf
000000b0: 8742 bdda fb7d d93f 2a43 f85f c6ff c93f
000000c0: 779a b980 32bb b03f 9806 c56c 9af6 d7bf
000000d0: f427 b0d3 0125 cc3f 9382 39ee 34da c3bf
000000e0: e4a0 e611 834a bcbf 53b9 d11d 951b cabf
000000f0: 6ed3 a7ff accb d0bf 45a2 5963 7d72 d33f
00000100: a6b4 3979 af87 dcbf 1e08 485e a64f ce3f
00000110: 80fc 16f6 ccdb d1bf e9fa 35fb 96fc d33f
00000120: 7fd4 ea57 1d81 d7bf c1a0 e3b6 ad5a c0bf
00000130: 799f 3f0c 3ea4 d43f 82cc f153 3c30 d5bf
00000140: e223 249b 647f 9bbf acf1 0af8 3527 d1bf
00000150: 83ef df42 b097 c23f e034 c60b 3cfb c9bf
00000160: 74e3 0129 5b2a db3f 3f8e 6c16 5874 c13f
00000170: c51c 21ff b07b b43f 7ca3 25f0 19a4 c83f
00000180: 0857 68ef 618c d7bf d841 176f 2c79 da3f
00000190: 0e90 5760 1eb4 b5bf ea62 8808 b58c d93f
000001a0: b85a f364 8d80 d53f 179a 8c95 1d68 a83f
000001b0: a047 8212 360f a4bf 775a 851e 1fc5 d2bf
000001c0: 6738 7a1a 10ce 623f 9827 e800 0c11 7cbf
000001d0: 8edc b551 a87b d53f 98da 7f9a 4cce b93f
000001e0: aec0 5a41 c2b6 d2bf e146 36e5 0ef3 c5bf
000001f0: c811 0837 a029 e0bf 2d59 e03f ad7f cfbf
0.429684255425005 0.17320875282112289 0.13773018556525699 0.19798986359155948 0.2771501334690378 -0.09761736989078695 -0.367572582638303 0.24067365722191184
-0.4499665844245981 -0.30261744301235083 -0.26256407287738137 0.39773867688194026 -0.14046605961059241 -0.2258188473059957 0.3387321145391166 0.10972534677213822
-0.04168522134075362 -0.08387414127916969 -0.40900305909605933 -0.34786547757264513 -0.23902063417248368 -0.10839639055233678 0.39831444131144916 0.20311813055061495
0.06535640375805395 -0.3744264661982952 0.2198793681748722 -0.1550966418463032 -0.1105119627669669 -0.203966750679181 -0.26243138281215905 0.3038629026619087
-0.44578158224505626 0.23680572131712635 -0.27904056579786385 0.31229185612021 -0.36725553117441473 -0.1277672904027494 0.3225245589842341 -0.3310690707941789
-0.026853153199258524 -0.26801823828625504 0.14525416627281737 -0.2029795701495578 0.4244602108442941 0.13636303992199036 0.08001238087409764 0.19250797487191196
-0.36794327144285477 0.41364584778514546 -0.08477964260197288 0.39921308358456875 0.3359712110372288 0.04766933870842054 -0.039178552398097866 -0.29328134518201615
0.00229552407456084 -0.0068521946800589525 0.33567245463877604 0.10080412647207948 -0.2924047125079693 -0.17148004714959256 -0.5050812792620087 -0.24608388537371564

lstm1.lstm.bias_ih_l0 f8 [16]
00000000: 2c4c c025 9ca5 cd3f 1156 68b0 9adc d93f
00000010: 3a22 111b 4a1c d1bf e492 23c4 2fdd a43f
00000020: dd20 5047 131f dfbf 734f c50d 27e6 c1bf
00000030: e7ee 8ba2 3d4f d2bf f381 b6ab 0c53 cfbf
00000040: 4740 885c 5bf0 d33f 1df6 217f 3de2 bfbf
00000050: 36e5 a30a a174 d93f 2b28 341d 257b d73f
00000060: 7a1f e8ed f985 ac3f 9527 b8eb a578 d13f
00000070: 8867 5de5 bccb c53f b390 dd10 3cae cf3f
0.23161651461904975 0.40408961512852765 -0.26735165255789506 0.04075001973413864 -0.48627168621216105 -0.13983619854354465 -0.28608647226040634 -0.24472196945590916
0.31154521976805366 -0.12454590181183574 0.3977434734257089 0.36689117290427714 0.05570965794691936 0.2729887773463074 0.170280086512147 0.24750471900472845

lstm1.lstm.bias_hh_l0 f8 [16]
00000000: 1526 e0d2 1b08 d43f d153 2f1f 831c c4bf
00000010: 3c22 111b 2c4e d3bf 5d72 8438 d35d d83f
00000020: 48be 5f71 df98 c53f 774f c50d 8b46 cebf
00000030: 1811 749d 6464 d53f 03bf 24ea 1904 dc3f
00000040: 8a80 10b9 7c1d c63f 7a82 3720 4c82 d43f
00000050: d094 8f2a e977 b13f aeaf 9745 1aa1 c8bf
00000060: 22f8 8584 6c33 cabf 9527 b82b 5835 db3f
00000070: 3e4c 518d 243b dbbf 58c8 6e08 30ad dc3f
0.31299491494482484 -0.1571201231260191 -0.3016462578130221 0.380726628487343 0.1687278083404513 -0.23652780697249984 0.33425250412280283 0.4377503191526417
0.1727748778948846 0.3204527201287771 0.06823594369014363 -0.19241646192619782 -0.2046943327986251 0.42513088483303224 -0.4254847888998404 0.4480705339766522

lstm1.lstm.weight_ih_l0_reverse f8 [16, 16]
00000000: e12a 8692 33d6 a83f 818e 507d 0a01 d1bf
00000010: c324 b7a2 48ce dc3f aed0 45f9 69aa d33f
00000020: 8717 9395 0abf 47bf bcdc 55c6 8234 d2bf
00000030: b7d8 d694 1da8 db3f 0cd6 2c0c 883f dbbf
00000040: 6dd4 a031 cd3c d2bf 3570 d734 28e0 b6bf
00000050: 5839 0e3f 437d c03f ad4b 71ca 807a b93f
00000060: 0770 350c 13d1 d2bf c977 fb3e b357 c73f
00000070: fdab 6ea4 18a6 d43f 8e2f b3ed 843a d4bf
00000080: ca8e f3bd 4513 bb3f e4f3 bc75 a1fa ccbf
00000090: 5c65 a21f dfc0 aebf 0ca0 0c10 306b dcbf
000000a0: 3582 c252 9d3d d4bf 23a9 2f6e 0245 d7bf
000000b0: 84f7 0957 f012 debf 58b6 929f f48d 8d3f
000000c0: ccc8 fc70 f206 d83f 59b3 c6e6 35fe dfbf
000000d0: 3aab bea4 347e d9bf f933 c740 85d5 debf
000000e0: 7ecb 75be b363 b83f 89de 756d 320a debf
000000f0: 70df 985c fa15 d83f a7bb e40f fc29 d0bf
00000100: 42fc 4da8 5e99 a03f 6b11 439c 65e3 d53f
00000110: 2e54 8aff 38ea c7bf 6e15 808d c370 cbbf
00000120: c070 0458 7233 d0bf d852 8f5d 495e 8d3f
00000130: 6ad0 a541 941a 98bf 6905 91f0 688a b83f
00000140: bea6 f7e9 aca8 cc3f 0043 3732 33d2 d73f
00000150: 522a da86 a63c c4bf bad3 f7c6 8121 d8bf
00000160: d3b3 b2f1 ac6a c43f 8af1 e260 12fa 8bbf
00000170: e419 8182 9218 d23f 77c2 52e9 1d63 ba3f
00000180: e816 3693 11e6 b73f 81e7 397d 555d c6bf
00000190: 6404 5067 6293 cf3f 5985 cbc3 d82e d9bf
000001a0: b23c a850 0346 d4bf c3f5 f2fa 5154 b3bf
000001b0: d3e9 05ac f46f d43f 1da6 3016 f32d c8bf
000001c0: 9377 443d 4037 c5bf fbfd fc42 1b98 d6bf
000001d0: f030 3f51 39f4 9a3f 7ee0 1071 fa10 d43f
000001e0: 92b6 3d6b bc9e b93f 04c5 a903 a148 d0bf
000001f0: dd22 2406 e3d9 d2bf ef00 7d22 bda4 b43f
00000200: 7fef b4e3 4e6b d73f d1d9 52c5 500b c73f
00000210: 0aaf 56c8 6fa9 d53f 4a66 5fb2 0b6f cebf
00000220: 6cce e19e c827 cabf d277 7cbf f9d6 dbbf
00000230: bea0 36da ea74 b13f 2352 42f0 9303 ddbf
00000240: 2ddc 8fad af7c da3f 270a 5508 f68f d4bf
00000250: 8088 e33a 3478 c1bf 6619 8e0c 0312 d33f
00000260: 42fb 4830 7f0e e1bf 4c95 ff26 6117 d9bf
00000270: 63f4 76dc 7ff5 d03f 1662 dcc4 7469 d8bf
00000280: 588b 6a83 292a d83f 5cff 5f16 70bc c73f
00000290: 3b05 cf4e 90da d13f ebe0 7de8 4344 d9bf
000002a0: 0c4d 6b1c 9f25 ce3f b034 855c 26fb d5bf
000002b0: c239 465d 74e4 b4bf a14e 5ba1 f1bc c53f
000002c0: 28e0 2e74 8a59 ce3f 695b c212 bd6b bb3f
000002d0: 6205 8e6d e7d6 cd3f 1f84 d4b3 99a1 c13f
000002e0: 763a a0b4 dc72 9c3f 61ac 6e22 2f29 db3f
000002f0: f916 af7e 9ddd dfbf 856d b194 80fc d93f
00000300: e347 46d1 4566 cf3f ca81 a73e 4575 d3bf
00000310: 44c2 89c1 85c0 c2bf a7fd 78ed 7241 cc3f
00000320: bf52 ff3b beef dc3f a2a3 991d c8f8 d7bf
00000330: d740 90ce 57f3 c43f 075c 47d1 3a4d cebf
00000340: 00ac 757f a356 d8bf 1973 9d11 52bc b2bf
00000350: 955c 242a 87f4 c5bf 2fb1 47be 633c c53f
00000360: 5c6f c5ab c9e2 d93f d4f2 1b12 f8bc d4bf
00000370: 6000 342c 2b34 d63f a40e e7d6 718b d4bf
00000380: 9d61 0cdf 5e2a a43f f240 0361 d0ee c53f
00000390: 10ca 2f0d 98ec 83bf abd6 de2f 5126 d9bf
000003a0: 2734 37b5 4589 d23f 6aeb b30b 2ff2 d0bf
000003b0: 9c6c 869e 79bd bd3f bf86 53f0 2dcf cfbf
000003c0: c4ba 601f 5611 e0bf f308 857c a4a3 c83f
000003d0: e731 0f5f 1554 c23f 94e6 20d2 a1d9 d9bf
000003e0: 0b94 a6d3 cf3f a83f 7c25 d74e 01a7 ce3f
000003f0: b9c9 350c 2bd6 d23f d4a9 3593 d077 d73f
00000400: 6c6a 976e 3025 d7bf b8b2 d4b5 7dc3 c93f
00000410: cc30 56af 9f24 be3f b1e4 1b06 b760 debf
00000420: 95a8 a4eb 2a90 a4bf 3a3e 4603 47dc cd3f
00000430: d0e9 6bcd 7425 d7bf 84dc 4861 6c73 d93f
00000440: 58a5 eec8 2ddb da3f 1a9a de5a b9e6 c73f
00000450: 4d61 8d12 daba a1bf d837 b2e3 be1a d43f
00000460: ee1e 6a3d e070 aebf 57b9 8e67 c7c5 d63f
00000470: cbb0 1d2e 2554 dbbf a951 6e8d 8a1d c73f
00000480: 9755 4d52 ab46 c83f 860d bbfe 21f7 c33f
00000490: c05d 4bfa 8ada a23f 2f7a 2222 8fd2 d13f
000004a0: eda4 b433 b05f 69bf 0350 3c76 6156 ca3f
000004b0: e991 84bb 667c c13f 2367 c343 2666 cb3f
000004c0: 31b1 0d99 0f07 d33f 7bbb 6115 dae0 cf3f
000004d0: a8e5 ec2a a863 d7bf 9c5e c462 b8f1 cf3f
000004e0: 7e92 d9b3 0da8 d2bf ab41 b1cd 5af8 d4bf
000004f0: 8159 d3d3 d9c9 503f 2a58 98bc e548 d23f
00000500: 714b aee6 1f2a 8ebf 9c22 b9eb 5f8c c8bf
00000510: cf0e 563d 117a dbbf a274 1c99 f669 b53f
00000520: e5a9 5bbc 9f62 b63f 296b d0ff 0d7f b03f
00000530: 1ba8 dc44 0225 d63f bca7 22d4 d337 613f
00000540: 9dea 2fb4 e477 d3bf 0d0a a938 95fd d4bf
00000550: 93a4 31ae ed13 c1bf d5b1 9f42 304d bd3f
00000560: eac3 d35a 0ce1 c2bf 26fc b712 4b39 d6bf
00000570: 1a76 5e00 cd9a 82bf 75df c607 7c14 d3bf
00000580: 44c7 d974 59a9 d8bf ad78 6e2a faf9 b1bf
00000590: 59aa 9297 d022 e1bf 384c 9cd1 7d4f e03f
000005a0: 58ef a996 d5ce bf3f 5eb9 07f1 371b c13f
000005b0: d307 02c0 45cd d7bf 1410 d97d cfb8 ce3f
000005c0: c53e 9931 2b20 2c3f 350f d1c3 5812 c9bf
000005d0: 9b79 0fca 88ef d3bf 96d0 4252 21a0 b13f
000005e0: 33a6 cc39 5061 c23f 9429 1b6f 56bc dabf
000005f0: 4a15 b969 4caa d43f efc3 25fa 2fa5 d33f
00000600: fc4c 8b51 60aa d8bf f2f5 caf8 ca1a d6bf
00000610: 3f11 271d 3587 cfbf 2cc4 75b5 2f6b dbbf
00000620: 7a10 1483 e8d2 c53f c281 7d58 a817 db3f
00000630: 4e66 5f71 ecaf d03f c997 bb95 c01d a63f
00000640: e5c7 84ef 3272 dc3f ac2a 0285 7259 d2bf
00000650: 5ac3 f7ee 2feb dc3f 572a 2539 acbf b53f
00000660: ca31 e1dd 2bd8 d73f 9e9c 9e35 91ae d0bf
00000670: 3bef 1e15 ff33 dcbf 381c 5189 a9fc cf3f
00000680: a3a8 479c 6183 d3bf df2d cfe9 17ec b23f
00000690: ccd4 cb71 8afc d9bf 855e a698 19db c3bf
000006a0: f31c ce97 d601 ad3f facd 7f78 b823 d63f
000006b0: c45c bdc4 3b91 b2bf 9134 2fc8 fc49 cf3f
000006c0: 46af c8ca d574 ddbf bc5b 5f97 a094 d9bf
000006d0: dd4d 80dc b71a a2bf 1fa4 b5e6 433d a83f
000006e0: c3df 9e09 36dc d33f f899 b1b8 f986 b5bf
000006f0: 404d 0e20 67e9 dfbf 105a 9735 1cac cebf
00000700: a006 b473 d094 d7bf 9b41 c599 1b62 d83f
00000710: d7d7 3845 31bb a03f 7f98 ebdc 9e08 c1bf
00000720: ed50 480f 6b98 cb3f ca36 83f7 3ee7 dc3f
00000730: 78f7 47d6 5f74 7cbf 189d e45c 7ee3 d5bf
00000740: a8e9 7d02 4872 c63f fc94 70fa 879f debf
00000750: 3f77 7fc3 ed59 9abf 46f3 5081 ddf7 d03f
00000760: 29dc a031 8684 b8bf f152 fad9 5e99 d9bf
00000770: 4ed7 522f 328b c3bf 3c72 93f2 6b49 703f
00000780: 3727 5692 1ab0 c93f 9392 3082 02cd 973f
00000790: 8cb9 1773 fd03 a8bf e68a d7a0 d620 d03f
000007a0: a267 71f3 02bd c0bf b2ff 6c28 17af d23f
000007b0: 01a1 ca20 aab4 d3bf b332 de3c 875e ca3f
000007c0: 9afa 41a9 4df3 d13f 947e 6e41 1fb3 60bf
000007d0: e1c2 2e63 ad2f babf b7fc 3fa4 3877 a43f
000007e0: c827 9538 073d b9bf 17f1 8530 e598 d6bf
000007f0: 8f5e ed69 c3d0 c8bf fe20 be48 c4d8 a43f
0.04850922740577857 -0.26568853605042625 0.45009055986572494 0.3072762426666128 -0.0007246781998666443 -0.284455007254518 0.43213595900614216 -0.42575265110949156
-0.28496103140361734 -0.08935786523892449 0.1288227136505593 0.09952549879498802 -0.2940108889795287 0.18236389708812187 0.32263771112292244 -0.3160717316902656
0.10576282393918315 -0.22639864205294125 -0.060065243350616554 -0.4440422207576382 -0.3162606533242383 -0.36358700523728 -0.4699059343328076 0.01443091499308051
0.3754240134613951 -0.49989078079925303 -0.39832798088416477 -0.48178225828161164 0.09527133369355842 -0.46937237443442165 0.37634142916385027 -0.2525625376901481
0.032420118374823406 0.342004206275553 -0.18683540799671178 -0.21437878045268682 -0.25314005465930833 0.01433999363681819 -0.023538891321962664 0.09586196778493207
0.22389756607235783 0.37220458892720387 -0.15810090622501832 -0.37704510145641346 0.15950547982848082 -0.013660567838422084 0.2827497744041507 0.1030749029766954
0.09335431903863489 -0.17472332586822506 0.24668531460341392 -0.39348429794889267 -0.31677325131108625 -0.07550537468610856 0.31933323668604635 -0.18890226920602596
-0.16574862472128568 -0.3530338434393056 0.02632226522818909 0.3135362724456242 0.10007836931409944 -0.25443292005282125 -0.2945487556431042 0.08063871471404459
0.365924570436384 0.18003282198851747 0.33846659244839883 -0.2377638455353 -0.20433910139000788 -0.43499606799912016 0.06819026782489154 -0.45334337675856967
0.41386024426850804 -0.32128668607416205 -0.1364808356802918 0.2979743597610621 -0.5330196326320691 -0.3920519715159869 0.26498409776451676 -0.38143653130239963
0.3775733741151064 0.18543816654709644 0.2789650697341874 -0.39479158119458074 0.23552311790135894 -0.34345397029103264 -0.08161093976216363 0.16982860926383572
0.23710756943705857 0.10711271007526836 0.2331208500800513 0.13774415283936123 0.027781914257554573 0.42438867914706263 -0.4979013192317861 0.40603651543434466
0.2453086158607781 -0.3040326225145945 -0.1465003199587206 0.22074734301893992 0.4521327577506717 -0.3745594300331111 0.1636762388811863 -0.23673186510743013
-0.3802880043719483 -0.0731860440259421 -0.17152490194050488 0.16590544501321733 0.404467027421324 -0.32403375404809975 0.3469341212912749 -0.3210110281618006
0.039385761954864075 0.17135052430103986 -0.009728610899377294 -0.39296369242525014 0.289628436058424 -0.26478172438480974 0.11617241020433017 -0.2485101150005473
-0.5021162617539052 0.19249397354185013 0.14319102422304228 -0.40390820999491805 0.047361845575586946 0.23947159146909403 0.2943217868079518 0.3666879117578479
-0.36164484786937723 0.20127841356715748 0.11774633436852183 -0.47465301128938636 -0.04016241194251894 0.23328483257181337 -0.36166114865014 0.3976698827786509
0.4196276151875131 0.18672863900174336 -0.03462869144886103 0.31413242565110755 -0.05945492505730764 0.3558214675239432 -0.42701081756127895 0.18058902650649358
0.18965665358215908 0.15597939432164426 0.03682359986640504 0.2784765084597067 -0.003097385544283618 0.2057611300775762 0.13660892635483826 0.21405485447649494
0.2973059649146022 0.2490494350817832 -0.3654575747674138 0.24956421682940266 -0.29150717318979236 -0.3276583679881024 0.0010246875020150927 0.28569930474748395
-0.014728783824272647 -0.1917838955871688 -0.4293253993020984 0.08364812124314594 0.0874423823221729 0.06443870063268932 0.34600884175108754 0.002101815917815634
-0.30419271084216765 -0.32797747166856156 -0.13342066770136238 0.11445905329282564 -0.14749292788431428 -0.3472469027328223 -0.009084321569214505 -0.29812527427156194
-0.38533626948548183 -0.07022059951711652 -0.5354998550804552 0.5097035497623272 0.12424979141536363 0.13364314335872057 -0.3719038367345295 0.24001496930043287
0.00021458174960508315 -0.19587239800795833 -0.3114950154539657 0.06884964235615806 0.1435947687362372 -0.4177452168484248 0.32289419483671067 0.306957239422501
-0.38539894068999536 -0.34538530632184383 -0.24631370471446165 -0.42841713638978507 0.17049890899955128 0.42331894532801695 0.2607375247149307 0.04319574191849502
0.4444701518106043 -0.28670943249805236 0.4518546899480974 0.08495594401498728 0.37256905239044313 -0.2606547378185925 -0.440673609376734 0.2498981400005691
-0.30489387761793746 0.07391499956354818 -0.40603886711990067 -0.15512390092475328 0.05665464976396519 0.34593021171096405 -0.07252858689513447 0.24444541716221527
-0.46025605013959525 -0.3996964910742766 -0.035360093752526224 0.047342416680131054 0.31031561793815515 -0.08409081229329007 -0.49862077837424934 -0.23962738625296298
-0.36845790194647954 0.3809880258241038 0.03267816514964721 -0.1330755785667783 0.2155889343854435 0.45161413355968405 -0.00694692074148217 -0.34201010772308527
0.17536258813545413 -0.4784870095921432 -0.025733676011319814 0.265128494534839 -0.09577215873365276 -0.3999859932603576 -0.15268542586062 0.003976270361104425
0.200686761334788 0.023242987819815552 -0.046905441569708634 0.252004296371679 -0.13076817404617908 0.2919366736205077 -0.3079018898229294 0.20600977394169248
0.2804750588328858 -0.0020385370693956715 -0.10228999778224647 0.039972086000483235 -0.09858746653949801 -0.3530819867953751 -0.19387095138766994 0.04071629894230176

lstm1.lstm.weight_hh_l0_reverse f8 [16, 4]
00000000: ff9b 38be edfe d2bf 85ca f4cd 2345 d3bf
00000010: 4711 7090 a5a3 e13f 2791 a7c3 91ce ccbf
00000020: fc7a fe31 93e1 ce3f d2e5 1a9e 1cbc d6bf
00000030: 9102 e61b 19cb cbbf 3e39 d19b 7882 b23f
00000040: 8e48 df78 a0c0 9b3f 1049 14e7 9778 d1bf
00000050: 7569 6530 e496 ba3f 61fe ae6b 9057 c3bf
00000060: f153 a1dc d245 cbbf a0bc 43bd 7621 dc3f
00000070: e695 423f 1125 cabf b384 0198 7793 dabf
00000080: d26e 12db b878 c1bf a640 00c7 77b2 d3bf
00000090: e2f2 d2e2 1840 c53f 7e94 a847 3ce1 c23f
000000a0: bcf2 f4fb 10b5 813f 8a08 5207 0bc9 c9bf
000000b0: d23f 728c 1a5d d43f e4e6 3de7 cec0 83bf
000000c0: f788 0c1f ff58 d6bf d892 ae6c b8f1 c4bf
000000d0: ef98 2b8d c377 d7bf c07e f7d8 fdb9 d9bf
000000e0: 3f92 d711 b07d c7bf 532f 13bf 2dd4 d5bf
000000f0: 1ec7 2dfe de07 cdbf c7d5 41f0 7da7 a33f
00000100: 1f8f a9ba 1f3e 583f 1fd4 042c 9748 dabf
00000110: 403e 3cb7 8aac d7bf e2a7 fcc8 5a85 d7bf
00000120: 3e06 5468 2af9 bfbf e898 385f ef92 d0bf
00000130: 34ea eebb d222 d03f 86e3 4d4b 386e d43f
00000140: 9e4a 98bd 50de da3f 00d6 a4fc 9e66 96bf
00000150: fda8 6fbf c33b d3bf c470 f0fb f438 e03f
00000160: 0292 2d26 3bee d1bf 023f 8ccc a597 c9bf
00000170: 960e 554a 57b0 dc3f 0559 e01a 371f d3bf
00000180: 797f a41f 9b00 d93f 5ee4 d58c 33c7 b03f
00000190: d560 b109 449a babf 3696 fdde 530b d23f
000001a0: 88d0 2022 9a7c d5bf 73da e633 78f6 bcbf
000001b0: 854e a0ee a4d1 d8bf b70b 15c3 f10b c83f
000001c0: a1da 3c85 4c95 c1bf 08c8 28e9 14a4 ca3f
000001d0: 3ec6 fcb4 aa73 c63f 14a3 5796 8139 c23f
000001e0: 2458 7633 550c b63f 23eb bd08 7517 d63f
000001f0: 9dab 738e ea32 d33f 2a09 a19f ab6c bf3f
-0.2968096120479799 -0.30109496224319116 0.5512264081049033 -0.2250539975494885 0.2412590021239892 -0.355231432342035 -0.21713556158285433 0.07230333141453557
0.027102000596479096 -0.27298543516475693 0.10386491948648831 -0.15110974557863968 -0.2130683495803676 0.4395424698149757 -0.20425620640632686 -0.4152506813462182
-0.1364966458976285 -0.30776781495752414 0.1660185916461137 0.14749864100409477 0.008646137894737442 -0.20144784791415687 0.3181825992151036 -0.009645096237125235
-0.34918191940427284 -0.16362672144636892 -0.36668480669176423 -0.4019770258728208 -0.18352318640894968 -0.34107535991346544 -0.22680270587039159 0.03838723714663277
0.0014796552519777473 -0.41068057345120396 -0.3699061192901105 -0.3675143206370405 -0.12489571616244974 -0.2589682035344496 0.25212543824059996 0.31922728876048045
0.4198190547478279 -0.02187584321037228 -0.30052274413050367 0.5069527550399688 -0.28016546943970877 -0.1999404190796597 0.44826299914368783 -0.2987802278961598
0.3906619843492006 0.06553957165114485 -0.1039164088882701 0.28194138313697026 -0.3357301076205279 -0.11313582675107074 -0.38779567054118785 0.18786451364038978
-0.1373687410902749 0.20813237557155184 0.17540487134242427 0.14237994996008096 0.08612568384555225 0.34518171170900497 0.2999826804286217 0.12275192877954014

lstm1.lstm.bias_ih_l0_reverse f8 [16]
00000000: 1009 7103 ad47 e0bf 60f0 989a df98 d43f
00000010: 7161 56dd 98e5 99bf b295 f812 a07a d63f
00000020: a61e a91a 9687 993f 1f09 8212 bca5 d63f
00000030: 9ca3 bd10 79bb e03f 691c c7f1 dac2 b4bf
00000040: 0a3b 060c e013 64bf a039 4dba 6b9d d63f
00000050: cfeb efd9 8053 ccbf a6d9 dce2 f178 d3bf
00000060: e45c 7d09 a782 dcbf 9f3e 6dd1 9e38 db3f
00000070: 3bd2 b9a3 7d8d cdbf 94ab 38d2 ddb5 d43f
-0.5087494914262454 0.32183065507320485 -0.025289906033863333 0.35123445370330864 0.02493128335689101 0.3538656407109943 0.522884876915771 -0.08109825518396153
-0.0024508834760078634 0.353358203826156 -0.22129831925835083 -0.30425688890991365 -0.44547439505318054 0.42533083392934573 -0.2308804559176155 0.3236002495711372

lstm1.lstm.bias_hh_l0_reverse f8 [16]
00000000: 2512 e246 7563 ddbf 60f0 985a e164 d03f
00000010: e999 2ab2 c7fd d63f b295 f8d2 f470 d93f
00000020: e891 aa21 4de4 d33f e1f6 7dad 25a1 d9bf
00000030: 8a39 da0b a9fc a43f e638 8e03 62e1 dd3f
00000040: 8bf3 e73f d9d9 df3f 60c6 b205 cce6 d2bf
00000050: 9dd7 dfb3 220e babf 5f26 231d 3baa d03f
00000060: 1ca3 82b6 4064 da3f 407d da22 80ae c33f
00000070: 41d2 b923 868d c4bf 92ab 3892 290c d63f
-0.45919544145752617 0.2561572441807183 0.3592395057588918 0.3975193081153875 0.31080940520976563 -0.4004606432207379 0.04099014539416419 0.46688127848837124
0.4976714252550713 -0.2953367286346289 -0.10177819148506591 0.2603900703948962 0.41236894439002625 0.1537628336127259 -0.16056896919657684 0.34449233321600403

lstm1.lstm.weight_ih_l1 f8 [16, 8]
00000000: a32f f6cc 5ab3 d0bf b4bd 8e88 2362 cf3f
00000010: cf54 5e8c 065b 9c3f ffcc c64b fcb7 d03f
00000020: f823 1fd0 1ada d8bf c33d b08d c6f2 cdbf
00000030: 2331 7dee 0d4f c8bf c680 a998 69ea c13f
00000040: 890d 2846 5243 d2bf 7285 fefc 894d d43f
00000050: cb15 34d7 1550 a13f 7369 7232 8702 c83f
00000060: 9f95 e196 0617 d9bf d57d 95d1 6862 d33f
00000070: 6398 107b cc3f c53f e64e 1ded 9d94 a63f
00000080: c3d6 f985 e9c2 cabf 8af7 5615 8750 d0bf
00000090: 1cf8 33ec 14a7 dabf 79e6 ae05 e0da dc3f
000000a0: 7b34 6551 02d8 603f 6bb5 e3b2 c115 d43f
000000b0: 5833 c718 7db4 bd3f f6be 7085 3398 d83f
000000c0: 0110 f9c4 9cce bfbf a902 1c3d 1baa b4bf
000000d0: e54a 3f7b 8c4a d73f 1c50 2324 ee83 d33f
000000e0: f8eb dd21 5524 943f 6339 5ed2 c4f9 d53f
000000f0: ee61 b9b0 5345 c53f 0857 cfb1 59fc d6bf
00000100: 7a05 3568 2dce d03f 47c7 a58a 736a a03f
00000110: 1081 524c 5794 cc3f f1eb 9d4a dc45 ccbf
00000120: 8c99 629f 5f2b aabf 2d35 0c2b 4bef ddbf
00000130: 9529 b520 503d bbbf e2b4 1b64 d288 d23f
00000140: 6f5a 1765 a8f9 d6bf 3574 c535 a47b d33f
00000150: 3317 4c26 a11b c23f 2960 2613 8de5 d13f
00000160: 341d 387e 76e6 d23f a898 3aae 67f1 a2bf
00000170: 6967 d1c8 63bc b03f 0e3f 4778 71fa cd3f
00000180: ee30 a332 48bb ab3f a1de 51a7 eeaf da3f
00000190: ba1c a258 3377 d23f f185 68c2 b420 763f
000001a0: 530f 5035 b2b5 cdbf 2441 f4a3 9116 d53f
000001b0: 0526 d557 96bf dc3f 4b80 6db0 c67e d43f
000001c0: 6049 b479 d6db cdbf 2171 d411 e90c d33f
000001d0: e35f 07c6 1327 c83f 84a2 f234 1753 b83f
000001e0: 26d4 dde3 a845 86bf 66f2 baf7 d120 bcbf
000001f0: 6bc4 f181 178a dabf 8421 84dd 2505 c23f
00000200: e25a 4859 1b7e d0bf 343a 1638 09f1 c9bf
00000210: d260 efe0 bf21 b93f f560 d448 c143 c83f
00000220: 30ad 9b52 63be b9bf 1d28 caa5 88fc d3bf
00000230: 131d 606e 84e4 b9bf 61e0 b7f4 ce4a b2bf
00000240: f1b6 58b4 e31c ae3f c997 2c09 c93d bf3f
00000250: d42e d37e 69f1 d83f aa67 0152 0173 d83f
00000260: bf9f f241 dc4d d8bf 3399 e465 f241 92bf
00000270: 7cda 70a4 9ffa dc3f 59f7 1a7e d6e0 b1bf
00000280: fa21 62b3 8beb d5bf 4d3c 8c10 d578 b1bf
00000290: f438 9ee2 4462 d2bf 5d4b 5f29 6f6d bcbf
000002a0: 7ba8 6a5a c627 9fbf 1d9d 9e70 35aa d83f
000002b0: d0f2 b318 2810 d2bf a6b5 0d28 7345 a3bf
000002c0: eeca 3ea6 3307 8a3f 97b4 a29e ac0f d6bf
000002d0: ec3e 6f91 0014 65bf d4bd 15bd e13a cb3f
000002e0: d845 893e 78a2 c2bf 2416 fd49 278b bd3f
000002f0: 6613 4e2d 262e a93f 6c56 fa70 8480 6bbf
00000300: 0b6e 8283 44fd d03f 0a70 e3b7 248c d9bf
00000310: 4a79 8ad1 fd7e b43f cb63 b76e e343 d1bf
00000320: f7d5 228f 4d71 c83f 8352 fc01 e220 afbf
00000330: 9c8f 1e2b e17b cabf ee85 daff 7653 b3bf
00000340: 128d e531 88e7 d53f b90b 2915 004e d93f
00000350: 1766 3971 aa36 d4bf ee90 d2ff 5253 8f3f
00000360: 9ecc b2f4 3890 bfbf 1eb6 a110 72f7 d5bf
00000370: d68e 35b0 2c67 c1bf 3370 e0ba 2f61 c83f
00000380: 2727 4a95 5264 debf c1f3 5c55 8ccd d0bf
00000390: fc28 ab36 83f1 c5bf b844 109b ce4c dc3f
000003a0: 2199 75a7 7623 d1bf 4f65 1ad1 aa85 d9bf
000003b0: 6808 5eec 569c dd3f 3ece f897 d2c0 d13f
000003c0: 2ad9 dac1 07fd dd3f fff9 203f 179d b4bf
000003d0: 04db c2ab ba19 cd3f ebf3 4a2d d303 d1bf
000003e0: 59f4 0827 9f9f d73f f254 cb9c 399e da3f
000003f0: ef7f 499b 235e cfbf 7cb8 d66d 47d6 d83f
-0.2609469415262941 0.24518245857096377 0.027690985028660017 0.26122958564810966 -0.38831205677394065 -0.23397142332440354 -0.18991254944774835 0.1399662013454927
-0.28535897113052805 0.3172326059958187 0.03381412746424991 0.18757715190151777 -0.3920303796242823 0.3028814360349917 0.1660094834234683 0.044102606958998966
-0.20907324830812088 -0.2549150188823367 -0.4164478594465224 0.45085907511711515 0.0020561261436911594 0.3138279196708342 0.11603528838095423 0.38428962737360395
-0.12424640473278716 -0.0807206176941785 0.3639250949465079 0.30492738274665654 0.019669847671575952 0.3433696798682801 0.16617818955525315 -0.35915224422693415
0.26258406807399803 0.0320621592280888 0.22327700831102293 -0.22088197368051923 -0.051112163740344746 -0.46773032382846474 -0.1064043121197414 0.2896009423846647
-0.35898790237607775 0.30442147494415234 0.14146818513852963 0.27963568563564195 0.2953163368806202 -0.0369980240041497 0.06537459996016327 0.23420542118992
0.05416322343953249 0.41698805179428616 0.28852542548743154 0.005402284709391734 -0.2321074257198413 0.3295024968256419 0.449193559431109 0.3202378008772981
-0.23327141707029408 0.2976629900092736 0.1886925427377256 0.0950178627268859 -0.010875052884992863 -0.10987579629995423 -0.4146784562099756 0.14078210178582762
-0.2576969501400709 -0.20266833532919437 0.09817122689799199 0.18956771904118566 -0.10056134001540751 -0.3122884387054244 -0.10114314741814594 -0.07145398592536047
0.05881415916915767 0.12203651880244516 0.38973462472197906 0.38201935776089135 -0.3797522205372807 -0.017829692334225555 0.45279685076403786 -0.06983700350516865
-0.34250156896499073 -0.06825000432967095 -0.2872478688303908 -0.1110448337561087 -0.03042516638621649 0.3853887176323541 -0.28223612224955463 -0.037639235152578096
0.01270904875841469 -0.34470668308024116 -0.002573014363839712 0.21273442967092981 -0.14558318189169372 0.11540456348765155 0.04918021491088247 -0.0033571802849319734
0.26545822947238723 -0.39917867620329217 0.08006273618454887 -0.2697685795988575 0.19095773209635045 -0.060797751181017844 -0.20690550427854937 -0.07549232241083079
0.34225659249041585 0.3953857618945978 -0.3158365350442138 0.01529564707954775 -0.12329441045840148 -0.3432278788012314 -0.13596113780942315 0.19046589493598418
-0.47487320498531677 -0.26254566513290106 -0.17143287820210407 0.4421879305164782 -0.26778951981977356 -0.3987834016821425 0.4626672085070198 0.2773939594364697
0.4685687440027261 -0.08052201548796488 0.22734769236350172 -0.265858453971133 0.3691175347519838 0.4159072905725473 -0.24506039698007906 0.388078553451926

lstm1.lstm.weight_hh_l1 f8 [16, 4]
00000000: 4aad 84c8 4f09 d0bf 0228 344c 0a62 d23f
00000010: d65c 3df1 a22f b03f 1055 4fcc 4a50 b33f
00000020: cf09 ba76 f894 d8bf 5167 d18f bdfe da3f
00000030: 7d6f b525 d1bf af3f 5f6e ba01 a896 923f
00000040: 5390 3f2b 1389 c0bf eadb de85 7f22 ce3f
00000050: 3099 a299 c4b5 da3f 7636 75ad 34ce cb3f
00000060: 675d 75e4 70d1 d63f 025e b648 d193 d13f
00000070: 0e8a 120d 98a5 d9bf ee8b 7e01 3d5a c33f
00000080: 2481 af48 52e6 dd3f 96a6 96f3 5fd2 c5bf
00000090: 89d8 a2fe 2f31 8e3f d771 a8b4 1eac dd3f
000000a0: c8b1 1cd9 573e dc3f fa83 d8a4 4586 d73f
000000b0: cd24 5916 d066 cbbf dfb1 c3a2 ded5 c8bf
000000c0: 3c94 87f4 4b68 d93f a403 1a6d 457b d33f
000000d0: a8ce 29dc 50b9 d2bf 32bb c811 617c c6bf
000000e0: a49d 6b56 b54f d0bf 0e6f 0494 e247 923f
000000f0: b229 f2f7 e12f e03f 0f51 d03c c93c e03f
00000100: dafd 5cb2 32cc d73f 35d1 1933 0f3b c3bf
00000110: e255 fe39 b1e2 ddbf 691a 1859 c209 db3f
00000120: df8e 33d1 9581 cbbf ee3a e9e5 a229 d7bf
00000130: d0e1 53a6 0963 d83f b3dd ca1c d7a1 db3f
00000140: 67e4 6575 c419 d7bf 89c2 3a54 1369 c4bf
00000150: 4422 abfe b4e1 a23f 2db5 9b47 0ff5 82bf
00000160: deab 4893 e6a7 c1bf 3deb 18b4 f954 c83f
00000170: f1f3 cff1 1f13 d63f 9a45 ee4e 9eb2 d03f
00000180: cad1 f128 844d b9bf 9fa1 cc05 fe89 b33f
00000190: 5f8d 2b0e c38c d73f f5cc 521d dff5 c33f
000001a0: 0e15 5781 7dbb d23f a803 c90a cd18 d0bf
000001b0: 186d ce09 8db6 a83f 3696 5ffc 713c b33f
000001c0: 8a9f 9a46 3791 e13f 9ba3 e8b6 93ff a33f
000001d0: f623 556e 7ec1 63bf 19b7 f1a4 9ec3 d7bf
000001e0: ff35 874b fa4f bbbf dc0c 0846 568f debf
000001f0: 4186 1c75 a129 a9bf 4917 845f 019c 9bbf
-0.25056833822118973 0.28723390046855013 0.06322687520638523 0.07544391143831697 -0.38409244150548444 0.42179812473988415 0.062010322430722 0.01815283308552151
-0.12918319331868364 0.2354277995743524 0.4173442364066373 0.21723040074941807 0.35653326330562723 0.2746470651704557 -0.4007320525799124 0.1511913544937608
0.4671827039546932 -0.17048262971848221 0.014742255171182233 0.4636303676832347 0.44130512430527036 0.36757031534403917 -0.21407509890767643 -0.1940267843960006
0.3969907653793745 0.3043988767095078 -0.29256078243563843 -0.1756707512699563 -0.25486501159181274 0.01785234478403113 0.5058450548834144 0.5074201762932108
0.37183825891767486 -0.15023984904440515 -0.4669611994116548 0.42247065258599165 -0.21489212717926073 -0.36191627933742054 0.38104478114067053 0.4317529469658112
-0.3609477182831768 -0.15945664990205824 0.036878257834875444 -0.009256476757821897 -0.13793642226786934 0.19009324353995707 0.34491728414997086 0.2609020014579869
-0.09883905410408214 0.07632434503159978 0.36796642669488294 0.1559409039669856 0.2926934969985532 -0.25151372960322727 0.048267753073753805 0.07514107142886747
0.5489765528663935 0.03905927284024032 -0.0024116010050971816 -0.37131467922050515 -0.10668911308240324 -0.47749859656341953 -0.04914574198324973 -0.026962300734360487

lstm1.lstm.bias_ih_l1 f8 [16]
00000000: 9feb d906 cd63 c8bf 7971 596a 39c2 d2bf
00000010: 8be7 f0a5 74d2 d1bf 4a4c 3712 9b37 db3f
00000020: 42e7 5228 470b c4bf 135c 197d fd1f d83f
00000030: 5cba 3201 2054 d3bf e695 27d0 b4c3 a1bf
00000040: 391f 9247 1be3 e0bf bc66 2d8d e8d3 993f
00000050: 62f6 bc83 3886 ce3f 0a78 427e ac8f c0bf
00000060: 1335 ae45 fd33 d8bf 986a c68b 8f5f dc3f
00000070: 348b 8752 9301 d2bf 4d0a e691 8c60 d3bf
-0.19054568132909552 -0.29310450921709436 -0.27847019391230593 0.42526890543849005 -0.15659417599618491 0.37695252625184245 -0.3020095836354011 -0.034696245584011895
-0.5277229688517543 0.0252224289100471 0.23847109253431414 -0.12938457646390616 -0.3781731777642829 0.443332563876234 -0.2813461595489344 -0.30276788947972905

lstm1.lstm.bias_hh_l1 f8 [16]
00000000: d3f5 6cc3 4f73 dcbf 7971 59aa 90be d7bf
00000010: cd72 180f da11 5b3f b6b3 c86d d62d dabf
00000020: 9c73 2954 bf6d d8bf 2ab8 32fa b68e c13f
00000030: 5eba 3201 51a0 debf 7be5 0934 09ca c6bf
00000040: 6d3e 24cf 0907 d1bf bb66 2d8d 1c5e 973f
00000050: 3013 86f8 b949 bfbf 0c78 42fe 6509 cbbf
00000060: e4ae 1ca5 fb87 993f 2ed5 8c97 37a5 cf3f
00000070: 378b 8752 1bbc dabf 4d0a e6d1 af3f d4bf
-0.44453806004079616 -0.37100617061312097 0.001652205417833108 -0.409047705851488 -0.3816984483617547 0.1371678086920281 -0.4785349380207772 -0.17804064789724436
-0.2660545847765892 0.022819944493085425 -0.12221872632478603 -0.2112243167402429 0.02493279643310488 0.24722952747257793 -0.41773112353819236 -0.3163871335783924

lstm1.lstm.weight_ih_l1_reverse f8 [16, 8]
00000000: 9448 3d65 1b1a c43f d9ee b96d c65a d7bf
00000010: 8ad6 66df 42dd b5bf f7a5 9db4 026c d63f
00000020: 724f 2a1a d2ed af3f 4225 7e4a f056 d8bf
00000030: d76d 7605 0e4d b3bf b7fe ea00 13ad d63f
00000040: dbf2 8b40 3712 dd3f 890a 12a2 f49b dabf
00000050: 49cc 6f20 47ad d73f 1d18 f0b9 3a84 c73f
00000060: 73ea 7cb6 a225 d63f c448 711a 079c d7bf
00000070: 4ee8 a012 0367 a43f ac8a 077c 635c dbbf
00000080: 1de6 e82d 3087 c23f e0d4 3401 2e15 dcbf
00000090: af30 3688 753d e03f 5ad3 5fdd c05f c23f
000000a0: 3d0f 0dd5 bc24 d63f 84f9 af47 bef2 e0bf
000000b0: 7a65 168f 667a a4bf a24b a702 f03c d33f
000000c0: 4d93 667c b231 c23f 96e3 c88d 5504 933f
000000d0: 19d0 5f61 b172 c13f 1797 eb7e d767 d23f
000000e0: bc33 ffe8 4796 db3f 9178 0401 74f2 d2bf
000000f0: 620c e2f0 b52b 83bf f16d e5f5 ba4e d4bf
00000100: 20b1 0c05 b166 c23f 8d5c f759 d0f4 cfbf
00000110: 88ec 1d2f fea5 b53f 6b7c abbe 873d dbbf
00000120: 7d94 5d05 23ab d63f d01a 3b49 1d86 d2bf
00000130: 2609 e78f e75a b13f 1f50 0ed3 135c debf
00000140: 4fc2 c189 f279 dc3f 973e 4c7d da98 c3bf
00000150: 764c 0a72 8a96 d23f daca 3ec9 5a9a ccbf
00000160: 6fa6 4406 49f7 dabf 4432 d801 cd01 a5bf
00000170: 528e 724c 4f0e e1bf 2e1d 7fe3 3fb7 e1bf
00000180: 2562 af35 61be 903f 1460 79de 05b9 73bf
00000190: ac4b 58ad d55c 51bf 1e86 f661 ea58 ca3f
000001a0: e096 2e35 17d4 c7bf f9b3 b068 1ab1 b3bf
000001b0: 056c c3ea 92ea abbf 537c fa90 8af4 dbbf
000001c0: 3614 2a01 6100 e0bf e45f 28ad 1ecf 9ebf
000001d0: 2bba 19d4 e412 e1bf 9514 e772 83e8 ad3f
000001e0: 8077 8085 9013 dabf b0e8 781c b354 de3f
000001f0: 5baa 6c4d 8cd6 d3bf c8f9 39e1 72b9 babf
00000200: 6186 10e2 fbf3 d2bf 5b96 b3e5 c02a d4bf
00000210: 4719 c2e3 4973 d43f 6fc7 8fcf 0024 d73f
00000220: 0201 a190 9dd6 cfbf db98 b8c5 4de8 b23f
00000230: 0d16 4919 33ce cfbf 983f 50e8 af12 e03f
00000240: 400a e8bd d619 b73f a46f 8de8 5d78 d23f
00000250: 8730 d9b8 c0d5 d03f 0e1e 9844 27a0 bbbf
00000260: a731 3de0 2ca7 8cbf 2b7c eae3 f7c9 d4bf
00000270: 5eba bc42 a1f6 b6bf 2bcb 6250 828d 90bf
00000280: 696b 448d de94 c5bf 700e fa55 2af7 dc3f
00000290: 0bf6 dac7 4b7c dabf 708d 1e83 96be b0bf
000002a0: 89cb 28ce 9ee4 c83f 3dd0 bad9 3a0d b53f
000002b0: 02ae 8c11 3169 d33f 52ae 1576 87b3 813f
000002c0: de1d 5fea 6705 d93f 5afb beb7 7fb5 d83f
000002d0: adaa bdeb 8223 b03f 37eb eada 1db5 e1bf
000002e0: 6b7f c23b 16f2 d1bf 8c4f 7d5b bfeb 993f
000002f0: 9a89 28b3 33c5 d3bf a35d f859 c88a debf
00000300: 7f67 b8fd 5c23 d63f f01e 1659 04c0 b03f
00000310: 0279 7e32 f5d3 debf 3395 d903 5d17 c6bf
00000320: ddb9 d53e bf7e e13f c05a ab0d 801e c33f
00000330: 98e8 0d09 f01a dfbf ed13 4c86 7543 b3bf
00000340: d631 497d 6804 d9bf 424e 0006 b5f2 c1bf
00000350: 99f3 e3e2 b50a d2bf 43bd db0f 3061 c4bf
00000360: 41ac cf49 db2a acbf 091b f998 31e5 d43f
00000370: 53a6 1f35 652a d6bf 4c27 4e26 552b 8bbf
00000380: 4fed 3900 974b d03f c857 e16a 0870 acbf
00000390: c44e b885 5652 db3f f5c6 230a c864 c5bf
000003a0: 233d 8d46 dd15 d4bf 6a8c 49de 073c d9bf
000003b0: 6dc7 a86e bdf3 d33f e078 f719 6cb2 d63f
000003c0: 0fa4 2d0b 2aaa c23f 1029 59a2 6a40 c9bf
000003d0: 0fdc 77f3 6932 d53f 325a 9b25 4c22 cdbf
000003e0: d2ec 41a1 5fc9 a2bf 8da5 eaeb 061a c1bf
000003f0: efe5 2f2f e708 cd3f daa7 daef 791e c5bf
0.15704672282533194 -0.36491547313174305 -0.08540742830413187 0.3503424419237428 0.062361303037646545 -0.3803063132732697 -0.07539451249470318 0.3543136128391597
0.4542368059481256 -0.4157687742919412 0.3699510399594073 0.1837228210353609 0.34604709454621413 -0.3688981779315663 0.03984841921233394 -0.4275139533257668
0.14475061647117196 -0.4387927066594113 0.5075023327240354 0.14354716119091898 0.34599228673708976 -0.5296317482132484 -0.039996342627271766 0.3005943323052468
0.14214163851024822 0.018571221140721038 0.13631264929392797 0.2875879992919734 0.4310474181518733 -0.2960481653152636 -0.009360715306917015 -0.3173053170519032
0.14375889536439335 -0.24965862648852913 0.08456410074534138 -0.42563050861458035 0.3541953613660736 -0.28943569327786367 0.06779334319347594 -0.47436996088913647
0.4449430794984765 -0.1531022178464709 0.2904382814096559 -0.223460529579447 -0.4213430939877076 -0.04102936408535077 -0.5329967969050335 -0.5536193316737916
0.016351241017988145 -0.004815123487411217 -0.0010597311678608263 0.2058384874663241 -0.18615999314095344 -0.07692112975992406 -0.054524031789434026 -0.4368006149106282
-0.5000462553731555 -0.030086974447925643 -0.5335563795650321 0.058414562011912675 -0.40744412457740253 0.4739196565675554 -0.30996997414573507 -0.10439222334569032
-0.29614159657112366 -0.315109466855892 0.31953665964137595 0.36157245893183804 -0.2487370449252993 0.07385717465567458 -0.24848021254199218 0.5022811448452442
0.09023801933657527 0.2885966082592353 0.26304643680192225 -0.10791249680197998 -0.013990736573440922 -0.3248271680585641 -0.08970077399565343 -0.016164814144484268
-0.16860563180747626 0.452585777246191 -0.4138364268982008 -0.06540814114719296 0.19447693888068 0.08223312202136497 0.3032953902608996 0.008643205920370853
0.39095495117041235 0.38607781356761495 0.06304186110871042 -0.5533589626059897 -0.28040080867685074 0.025313367804599404 -0.3089112519829996 -0.47722061906957886
0.3459084012734976 0.06542994666062518 -0.48168687754686357 -0.1725879925535679 0.5467220523112776 0.14936829249810124 -0.4860191429539866 -0.07524809387912486
-0.39089405283882905 -0.14021933358218247 -0.28190371663350217 -0.1592159345086462 -0.055014469871672585 0.32648887575889823 -0.34633760631422666 -0.013266244155392258
0.2546136381349315 -0.0555422430485773 0.4269005113467126 -0.16713810439210133 -0.3138344944936355 -0.39428898532623313 0.31175170713969785 0.35464003120240584
0.14581800027670552 -0.19727833678400275 0.331202018510738 -0.22760917507430772 -0.03669260829425415 -0.13360678214420965 0.226834199944093 -0.16499256335856566
