weights/ENS.pth (torch, 94863 bytes, 34 tensors)

fc.layer1.weight f8 [64, 16]
00000000: 7165 5122 71da c1bf fe70 d438 e32e c23f
00000010: 8a47 ac22 3aa2 bd3f 1341 8c57 dd60 c4bf
00000020: 326b 204a 58be d13f 6e30 246a dfad cfbf
00000030: aa75 828a de39 b2bf 56eb 3c9f 51e0 c6bf
00000040: 2f58 b08a 49a0 cd3f 7a3f 2a69 802f b7bf
00000050: c860 fa21 ec46 a0bf 7e46 96ef 48d9 c93f
00000060: e5d1 3e5b 1c7b adbf 8b70 f581 7707 c83f
00000070: ed4a c458 c12b c73f 6b6c 67df d0aa c1bf
00000080: 77d3 3342 e400 9fbf d634 bec2 ffaa c13f
00000090: a572 9c2d 754d 8e3f 25e4 c37c ddc9 cf3f
000000a0: bcb4 6a9f d737 cd3f 7de3 e7e1 7a72 c23f
000000b0: 4c3e 6112 0a27 b8bf d523 fa9e 8432 a1bf
000000c0: bbf6 6321 bf3d c63f ee90 4734 a933 ba3f
000000d0: 4ea2 8338 4181 cdbf 7097 da08 5e5f c83f
000000e0: 9898 ac1b 93e7 be3f af84 fa92 c3de c63f
000000f0: ed3c 448d 910c 713f 39d4 cf65 3dab a73f
00000100: 4465 14e7 36d0 acbf 668b 1c1e 52b9 5abf
00000110: adc6 e12d 6f62 993f 78cf 9350 52ff c83f
00000120: 91ee 10e7 fcd0 b23f b3e4 b9d6 674f 943f
00000130: c27c 3ceb 9b0a c7bf c516 52ae ac24 a4bf
00000140: b46e e69b f09c cdbf bc43 47ef e517 cabf
00000150: 141c c27d 9096 cb3f 2caa 900b 5983 c63f
00000160: f0f4 070c 289b ba3f b084 f16b 6980 b53f
00000170: a5e3 3d06 6593 a9bf c05a ea76 32d8 a13f
00000180: 8d88 faeb 2316 c63f 13d6 3545 192b bbbf
00000190: 72cf bd23 0897 b0bf b2e6 82af 0723 c43f
000001a0: 93c9 c0dd b1fb aebf 76eb 3d41 8874 cc3f
000001b0: 2a5d 513d 4499 c53f 95bc 2d3f fc20 c2bf
000001c0: 71ca 631c 2070 c7bf d344 353b a455 bc3f
000001d0: 1f63 e5a0 3b9d b1bf fa2f 7377 0d3b d2bf
000001e0: ce8f f8fd d13a cc3f ad51 5328 214d c33f
000001f0: 614d ac1f ed33 c13f 66d0 26cf 2209 a73f
00000200: 0e50 8ab1 147b b83f 5dd5 bede 4e45 babf
00000210: 5c2e 9cdb 9eb3 b1bf 5a9a 0910 18f9 ce3f
00000220: c310 0d2e 8884 bb3f f39b b945 4b90 c83f
00000230: 391d ce81 f7be cfbf 41d1 4557 a3bc bb3f
00000240: ae9f 7933 5844 d33f 9180 0807 e8a5 c23f
00000250: 8069 98a6 8a5c cbbf 9422 bec6 0593 bf3f
00000260: 98c2 e10d adfc c53f 8610 f31e 89b7 c93f
00000270: 5748 a3db 2baf c8bf 9bb8 d177 da3f 93bf
00000280: 28de 8104 a7a8 b2bf 2f08 41d1 781f d0bf
00000290: e01b fb1f c666 b93f 7480 3822 b9e9 bfbf
000002a0: a407 2715 af0f bc3f e708 90ef 6fa2 a7bf
000002b0: 7df0 4db0 46cc bd3f 67d2 c15d f47a b93f
000002c0: 3deb 5b34 9cf5 c03f 0624 e7fe e717 b33f
000002d0: 49ad be40 7cbf c2bf 5617 d583 0482 c93f
000002e0: 128f 5304 783f c0bf 40ad 14dc 822f aabf
000002f0: b26e e4de b477 bd3f 8a9e f34e 3997 9d3f
00000300: 0903 dc4b 9f27 d03f 27e7 f9e3 5cba 5bbf
00000310: f93b 8fea 30f8 c4bf 9619 ac6e 47c8 74bf
00000320: 8a4e ecd0 8956 cebf e8ed b405 5e7c c4bf
00000330: e36e d051 ae1b be3f 3b8f a4cd 5f98 c53f
00000340: f0f8 04dc 6962 bbbf b3ef 7d8b c82b c6bf
00000350: b650 5578 5fb9 bc3f 8a22 849b d567 c7bf
00000360: 6603 11e0 202a bb3f e329 e684 e25d 7d3f
00000370: a91a bd18 0c6c 9d3f 4b4d e15d 6864 c93f
00000380: 74e7 78f2 269e bb3f b25a 823f 224b ca3f
00000390: 897f 833c a325 d3bf 1147 2a9e d858 c3bf
000003a0: 86d1 ae4a bd94 c83f afb2 939b e737 cc3f
000003b0: fe58 3093 64ca a5bf 2ed5 863f 340f cabf
000003c0: 1ad2 9b22 fdc5 afbf 47e8 d065 8126 453f
000003d0: 8831 3211 6156 a2bf a39a f8b1 b484 c13f
000003e0: b925 28b2 db31 cc3f c05e 4633 045a c63f
000003f0: b3a8 aab0 02cb b03f ca18 a42d ce65 b9bf
00000400: c114 6372 3daf b73f ba63 f38d 3915 c2bf
00000410: 51ab 70c7 6ba4 aabf e454 093c a4e5 ab3f
00000420: bc9a 9d40 8eee c03f 1c51 1a7a 2d5b babf
00000430: 1a2c e469 3d94 9d3f 5b7d e0f8 280a a8bf
00000440: e3e2 0b82 a182 a33f a325 bd02 2b45 d0bf
00000450: 8eac 0324 e8e2 b63f 9e59 84c4 8873 bfbf
00000460: 8c00 7a0b 2375 b73f a168 c327 6a7d c93f
00000470: 4f2a 1bda 1e74 ccbf 38f6 7ba8 c719 bbbf
00000480: ac0f 9b30 1c47 b63f 4414 bd46 0fd0 c93f
00000490: 0c73 0c62 ce2d c93f ff30 d2cd f5ad c63f
000004a0: e07a 2ecd 7f2c c9bf 532f 5943 575b c13f
000004b0: b2ee 0cf3 7f0c d3bf a649 a38e 059a ac3f
000004c0: 2c46 31ac 9bc3 a93f 764e 061d 446a b9bf
000004d0: 23c8 e50c f873 cdbf d489 4a9a 8f4f c63f
000004e0: 2ee1 75e5 5466 b93f 5553 0984 bcaa 94bf
000004f0: 35ef 25c4 c371 c03f f8d4 be5c 3821 9bbf
00000500: 7cc6 bc31 1b24 cb3f 2307 05e1 90ee d4bf
00000510: 1779 c82e 1280 b73f 9617 63dd 06c6 bebf
00000520: 4ff8 7120 e2ce d2bf 2986 1a84 993d c4bf
00000530: ecd9 3473 73bb bdbf 42a7 d5a3 daae 9dbf
00000540: 8221 5de0 15b7 c3bf 02b3 8ee1 78ac cb3f
00000550: 08bb d5f3 30d9 af3f 4caa 678c 7b91 c93f
00000560: d3f7 de7b db2c ca3f ed51 a78f 9f7e b83f
00000570: a2c8 1457 1d6e c8bf b37c 0def 72be b8bf
00000580: 6a8f 78ac a733 c5bf a65e 0056 093a c33f
00000590: eb04 5d3a 73dd c63f f82e 96a8 5c8a b8bf
000005a0: ce11 9f01 99f1 aabf e36a 0375 b5fc d23f
000005b0: ac98 fae3 e882 a53f 9d4a 3872 cd03 adbf
000005c0: ed17 2916 1696 c63f 27fb 277b aaf3 9e3f
000005d0: 1ecc baef 7cff a7bf 51e3 6eea 06b6 93bf
000005e0: 04fa f113 0df9 c43f 6bdd 089f 4788 96bf
000005f0: 2032 0744 92c9 a83f 6260 fd47 2802 99bf
00000600: 9e73 acf4 4c0b a6bf c07a c206 c4d7 babf
00000610: 33ad 1940 9a6e c53f baa9 c4a2 151b be3f
00000620: bf1a aba3 ac2c a6bf f59d 2269 54d9 a8bf
00000630: c79b 4c8f dec5 cabf 3f6b e415 3b27 cfbf
00000640: 91a2 5054 4e85 b9bf 6847 ce36 b913 c0bf
00000650: 4262 e0fd b9cd bd3f 7f60 450c 1a23 cd3f
00000660: 916f 3ded 4542 853f b6fa fcc9 c313 c13f
00000670: df51 b019 aef5 b13f b46e ba00 14c2 b53f
00000680: e396 6092 1abf c2bf da2d a939 913c b0bf
00000690: fc55 041d c39d b4bf c542 172a c9d5 c43f
000006a0: 824d 5e59 1257 c43f 0e28 fb02 8901 923f
000006b0: c997 5194 0983 afbf 203e d8e8 e658 843f
000006c0: e391 5715 1e1e 823f 2426 7347 a1c1 a73f
000006d0: ad8c df89 61d3 b53f 567a d67d 5198 c1bf
000006e0: 855a 21ca c3bc ce3f 7866 16f2 ca21 c5bf
000006f0: 257f edd1 5e17 be3f c01d b2f4 7435 cabf
00000700: 3619 c8c2 46e2 c6bf 81dc cb2f eb8a 87bf
00000710: 5fcc 45c4 4b8c bebf 53ae 201f 2ec9 c63f
00000720: 392a 2902 6273 c2bf 8557 33f4 057c c23f
00000730: 23ed 5f11 880b d0bf 46cc d3d6 c954 c63f
00000740: 22ad 1747 1a7e aebf b7dc 667f 1b57 a2bf
00000750: 91aa c3cc 60cd c23f 0aaa d99c 3c40 b63f
00000760: 1535 4d1b 62f9 ca3f deb1 8e1d 35f5 babf
00000770: d3cc e825 085c c43f 379f 42b2 2c6c 95bf
00000780: d3b1 641c dc65 b1bf 6468 853a 9842 b93f
00000790: 3fcc c390 4134 c7bf 50e2 82e1 4c0f 80bf
000007a0: 5958 3ead 793c a7bf d4d6 a5ed 707b cf3f
000007b0: dc88 85fa 3112 ccbf e2fe 691e 5554 b83f
000007c0: c074 99fe e045 babf b3d6 cf2b 0d74 babf
000007d0: a144 d94b fb29 84bf 0987 4217 ac2f 973f
000007e0: c989 7efe 31c2 c03f 791b 128c 2aa9 c3bf
000007f0: 5cd7 2c2e f776 a3bf 84e8 802d ad3d c2bf
-0.13947881866151193 0.14205589556593873 0.1157566389704511 -0.15920607352064362 0.2772427295582701 -0.247493674113119 -0.0711955154569838 -0.17872066760340982
0.23145407936016357 -0.09056856696611063 -0.03179109492083537 0.2019435090883696 -0.057579885614732075 0.18772786946908968 0.1810228045875059 -0.1380253878440699
-0.030276838818241694 0.1380309773343586 0.014796176390114832 0.24834793655443935 0.22826667102837017 0.1441186526351678 -0.09434569309927915 -0.03358854714048901
0.17375935678858476 0.10235078359943703 -0.23050704249841875 0.1904103797179988 0.12072104859962207 0.17867321659745047 0.00416237693958908 0.04622833125896659
-0.05627605028912311 -0.0016310979776299138 0.024789559531604045 0.19529179510538675 0.07350140229476156 0.019834158402294032 -0.1800112627615587 -0.03934230449617141
-0.23135192501364588 -0.20385431464685932 0.21553236141718968 0.1758834177465628 0.1039299992916829 0.08399065862023991 -0.049952656757290805 0.034852578178449445
0.1725506689300044 -0.10612638416008506 -0.06480456230729972 0.15731903142823495 -0.060514028853862055 0.22230628190649399 0.1687398242381531 -0.14163163266082238
-0.18310929666730005 0.11068178601751137 -0.06880543401838367 -0.28485428490671405 0.22054505253720297 0.15079130620018813 0.13439716383491443 0.04499157694536464
0.09562806448440161 -0.10262005746956988 -0.06914704190801885 0.24197674544412245 0.10749102711003204 0.19190350441496626 -0.24801534498349456 0.10834713822061294
0.30104641939987686 0.14568806022089523 -0.2137616456464677 0.12333713628880566 0.1717735593588443 0.2009135628815139 -0.19284580444815688 -0.018798268855271343
-0.07288593158761414 -0.2519208949562452 0.09922445565017268 -0.12466008267847589 0.10961431757371415 -0.04616117286060888 0.11639825634296304 0.09953238762848003
0.13249542767138137 0.07458353017058536 -0.14646866952294094 0.1992803233826474 -0.12693691455125894 -0.05114373146565265 0.11510782663065802 0.02889718574888759
0.2524183502974187 -0.0016923815855122788 -0.16382419064618128 -0.005073813469385865 -0.23701594067880577 -0.16004538801813273 0.1176098775617294 0.1687125925174032
-0.1069704210430904 -0.17321116267328093 0.1122035664350872 -0.18285627454340087 0.10611157865879547 0.007169613685969331 0.02873248005860299 0.19837669929493482
0.10788196010335388 0.20541790104899388 -0.29917221936738564 -0.15114886973292888 0.19203916689515327 0.22045607658892183 -0.04255976006258953 -0.20358899213685205
-0.062057409739200334 0.000645459349136298 -0.03581527075684493 0.13686236085887513 0.22027155112327337 0.17462208274513635 0.06559769452238377 -0.0992096768787604
0.09251770060207588 -0.14127273017109393 -0.05203568276950555 0.054486400917690664 0.1322801414018694 -0.10295376044297594 0.02888580282983009 -0.046952515011293904
0.03810600960236401 -0.25422168033090936 0.08939982299095758 -0.1228566627290548 0.09163111715497702 0.19913985196655395 -0.2222937169047605 -0.10586212027916353
0.08702255427038946 0.20166197732956637 0.19671039378672395 0.17718384313446475 -0.19667050856238344 0.13560000217909848 -0.29763792739297934 0.05586259237465478
0.05032049633940647 -0.09927774151429411 -0.23010159139408967 0.17430300744770355 0.09921770669996441 -0.02018255763899231 0.128471823478202 -0.026493912373287437
0.21203937462410127 -0.3270609090287612 0.0917979587761447 -0.12020914940793967 -0.2938771550033196 -0.15812987280246318 -0.11614152491242863 -0.028987327813786885
-0.15402482466948803 0.21620093358560416 0.06220391251087248 0.1997522769518859 0.2044939379538265 0.095682118007353 -0.19086043121348434 -0.09665602051016968
-0.16563888474876914 0.15020863246239918 0.17863312101147896 -0.09586123577008354 -0.052624494026108345 0.2966741221149915 0.04201438696809254 -0.05666963595662831
0.176455269642417 0.030226386801582763 -0.04687109400165233 -0.01924906545511657 0.16385043596160653 -0.022004241067603496 0.04841286735936401 -0.024422292131334074
-0.04305496680010566 -0.1048548237326754 0.1674378216733686 0.117600776899656 -0.04330958841233245 -0.048533094247712606 -0.20916349408181942 -0.24338472908933714
-0.09969033773871618 -0.1256019132238706 0.11642038772732469 0.22763372039003468 0.010380312254419074 0.1334156738539229 0.07015503050963144 0.08499264734057982
-0.14645702502564636 -0.06342418344245662 -0.08053225954457582 0.16277422480790996 0.15890721667947721 0.017583981329870872 -0.06154661117106703 0.009935192089897404
0.008846507097538264 0.046399154636287215 0.08525666824384599 -0.1374608864252475 0.24013564462321227 -0.16509377308539164 0.11754410386265286 -0.2047563738635585
-0.1787804080087853 -0.011495435138824785 -0.11932824651539552 0.17801453132539055 -0.14414620500095213 0.14440988944869218 -0.2507038278269695 0.1744625376664734
-0.059555836847574165 -0.03582082681844539 0.14689264295823937 0.08691767529823138 0.2107355721767951 -0.10530406924835442 0.15905858851474494 -0.020920465831891746
-0.06796050732800234 0.09867240360964186 -0.18128223007770036 -0.007841683036859198 -0.04538326492108586 0.24595462421318948 -0.21930527431965785 0.09503681175737769
-0.10262876716429314 -0.10333330459237793 -0.009845698597162946 0.022642792625112516 0.13092636991957665 -0.15360004271880337 -0.0380170101038135 -0.14250721666195798

fc.layer1.bias f8 [64]
00000000: fa26 243b d1e1 ba3f 8c1a 27a0 cc45 b5bf
00000010: 20d7 2d5b 55f6 b43f 2944 b7a6 b108 b83f
00000020: 1773 1b28 f82b c0bf bd28 70cc 16ed cf3f
00000030: 0234 c8ce 0cd9 c33f cc75 46b4 7857 91bf
00000040: 7158 d5b1 0d52 cb3f 0323 e3fc 5aab 9c3f
00000050: 781a f827 7584 babf 4b4a 436b 68de cabf
00000060: 96d1 2166 c1f7 cb3f 9768 30f5 2724 9bbf
00000070: b8a5 9036 ef45 a13f 6c6e 1622 cfb7 c33f
00000080: 4f37 6bcb 612c c33f 2263 bab6 0b52 b6bf
00000090: 7b06 248c 97b5 d23f 6da6 6204 4b3e a63f
000000a0: 396b 1f89 91b8 c0bf 894b fff7 cd82 c1bf
000000b0: 0b77 cda7 1b40 a4bf 4118 aad8 aef9 9e3f
000000c0: f391 c4e9 7faa c4bf 2732 af72 143a b6bf
000000d0: b886 6286 dcd9 b53f 86d2 3d34 7b4b b83f
000000e0: 9fe9 78f5 8adf 993f 60e7 a518 0886 c8bf
000000f0: 184b 672a 8c2f cc3f 2d2a 5c37 27bc b3bf
00000100: 3375 f892 37b0 afbf e8a1 0814 f7c2 b53f
00000110: 1273 1c9a a1b9 bf3f d1cb da36 eac1 cf3f
00000120: 0e14 8d67 54fd 7cbf 6b19 4305 7c6f c13f
00000130: 46f7 00f3 1624 c9bf 2b55 fa1d 6a5b 723f
00000140: 163b 3a8d e06d a2bf 16e7 a0f4 a512 c03f
00000150: ed66 6840 1d63 b1bf 8a24 f4d3 1d16 aa3f
00000160: 422e 13a8 5e38 a6bf 5eb7 0fb0 3db3 cf3f
00000170: f355 2606 f994 d1bf 4e12 fc19 c39a b83f
00000180: 4160 f552 8846 c63f 04e3 8db4 9b6c c93f
00000190: 1019 81a3 aba9 b2bf 61a5 8007 3bce b9bf
000001a0: f3ee 2d4f 2d69 bdbf 7e62 8c52 8364 84bf
000001b0: fa8c 5097 22f3 91bf c606 4dde abff bf3f
000001c0: e12e afc3 5db6 bcbf 5edb 5ad4 db11 a9bf
000001d0: b77e a131 290e 93bf 52f8 7f19 fff8 c3bf
000001e0: a542 c2b6 2387 ce3f cafa acb1 3ed1 c23f
000001f0: 7b22 87e9 aaa9 a3bf 4569 7e43 fc35 a6bf
0.10500819867970881 -0.08309630308131427 0.08188374973346102 0.09388265915119177 -0.12634183843956556 0.249422883818914 0.1550613412549922 -0.016935239794852383
0.21344157393713517 0.027997419056904792 -0.10358364320573255 -0.2099123500580212 0.21849839674872545 -0.026505112018732815 0.03373668232991228 0.15404690899309814
0.1497919314628526 -0.08718941889891288 0.2923334950029141 0.043444008145638736 -0.13063258357473176 -0.13680433854332488 -0.03955160544749788 0.03024934003271818
-0.16145323671766185 -0.08682372856055363 0.08535555153732843 0.09490175271441545 0.025266810638848388 -0.19159032062071457 0.22020103521807566 -0.07708973981440499
-0.06189130467485384 0.08500618208984856 0.12392625820616512 0.2481053130955773 -0.007077531533302496 0.13621473557413863 -0.19641386857431992 0.004481710929799913
-0.035994546165161775 0.12556909985306025 -0.0679186136480003 0.05094998562169291 -0.04339881707855088 0.2476575002360119 -0.27471757507859634 0.09611148247137999
0.1740274815626908 0.19862695995450264 -0.07290146581462786 -0.10080307896773412 -0.11488612349597442 -0.009957338291813441 -0.01752904938269937 0.12499498536365214
-0.11215768840264274 -0.04896437613699932 -0.01860870709822279 -0.1560362696181437 0.23849913047572105 0.14701064754077314 -0.038403836256809286 -0.043380625952709674

fc.bn1.weight f8 [64]
00000000: e287 889d 588e ed3f 6803 60a5 63ee ee3f
00000010: c451 cdd9 dc65 ee3f dd09 a754 c804 f03f
00000020: b0aa f70f e7eb ee3f 3216 1009 232d ef3f
00000030: 0a34 735a 9935 ed3f 5e21 1667 cc41 ef3f
00000040: c16e 1209 2307 f03f fc4a b827 2e23 ee3f
00000050: 4076 1f94 595a ee3f 9cf5 fdbe 77d9 ef3f
00000060: f3ca f2ee e3d7 ee3f d22d f4a1 77c5 f03f
00000070: 60b9 8c44 4bb9 f03f 83b3 a7c5 b804 f13f
00000080: c844 36b5 78de ee3f 0dfe a838 fde2 ed3f
00000090: 815c ad8f 52b6 ee3f 13ea 1992 4e02 ee3f
000000a0: c7d1 75da f064 ed3f 3425 0bcc d990 ef3f
000000b0: 37e4 202a 8458 f13f a934 0b7e 596e ee3f
000000c0: c889 799a 0bbb ec3f 9ab7 e33e 1ae2 f03f
000000d0: 66f0 2413 73d5 ee3f d1bc 530e 3f39 f03f
000000e0: a97d f1e6 ae17 f13f 91ac 3d68 9b3b ee3f
000000f0: 2db4 d59c b793 ed3f d146 92f2 3e5c f03f
00000100: 594d 8925 5ea5 f03f 919a a408 2e69 f03f
00000110: 3b50 dbeb 7b53 f03f 9895 3eee b416 ee3f
00000120: fbc4 c746 7cbd f03f d86f 4c04 2c2f ee3f
00000130: 6c6b 3775 86f0 ec3f 1bae cdf8 5491 ef3f
00000140: a60f b7c2 ab3c f03f 81a4 077d f12e f03f
00000150: 2c1c 4102 dfa6 ed3f 3b82 6909 4f27 f03f
00000160: 5b12 cba8 5f71 f13f 8a41 8dc5 bb51 ee3f
00000170: 7de6 952c 8934 ef3f f496 c7b6 e80c f13f
00000180: dfd6 9267 991c ef3f 22c8 9605 eb8a ee3f
00000190: 0ad2 3581 8289 f03f 2f79 2e42 4181 ed3f
000001a0: 43c9 4b16 38d0 ee3f ce1b ca7e b728 f13f
000001b0: daac 90ea 7fb5 ef3f 50ca 446e c53e ef3f
000001c0: fc1b 1383 8ee5 ee3f aff8 7104 6149 ee3f
000001d0: 34a2 4a60 56be f03f e303 e69c 0b37 ee3f
000001e0: e4a7 7722 0190 f03f cfb1 37df 4795 ed3f
000001f0: c17f 815b a7dc f03f cee3 87d6 223e ee3f
0.9236262394736026 0.9666002492887005 0.9499344114251973 1.0011676127183968 0.9662967025627349 0.9742598702438896 0.9127928511239827 0.9767820371062432
1.001742396771917 0.9417944694308455 0.9485290425324777 0.9952963571847024 0.9638538042985075 1.0482097936936623 1.0452377965662762 1.0636527748967814
0.964657167367613 0.9339586359637352 0.9597561651415988 0.9377816060580834 0.9185718790818606 0.9864319787240334 1.084110416950592 0.9509704076569011
0.8978326813779001 1.0552008110639464 0.9635558484947182 1.0139761504795397 1.0682820340369779 0.944776252360855 0.9242818892649943 1.0225209689564745
1.0403729883444923 1.0256786668411773 1.0203818524505681 0.9402718213283832 1.0462610974175834 0.9432582935291931 0.9043609895119125 0.9864907130663058
1.0148122411783134 1.0114607700327556 0.9266200107603075 1.0095968597089626 1.090179118488911 0.9474772318299511 0.975163065987729 1.0656516208486524
0.9722411177560523 0.9544577702674852 1.0335717246317722 0.9220281880005013 0.9629173694104697 1.0724406197275473 0.9909057217932074 0.9764125016866476
0.965522056584518 0.9464573942966775 1.0464690934551415 0.9442194046424642 1.035157332075408 0.924472747775832 1.053870541996716 0.9450849714331697

fc.bn1.bias f8 [64]
00000000: 9155 e4de 3b7d bd3f 6ba4 f43b 248e bebf
00000010: 6aee f891 739b a4bf a4bf 6b36 138a 59bf
00000020: 5279 2642 ed8b 9ebf 6dad 3fd6 433a b63f
00000030: c56b fbed 078f afbf 80d3 c81c d277 96bf
00000040: 79c2 8c07 a886 ba3f e3c7 1c13 d1f9 b63f
00000050: d1ee 0472 ba42 a03f 4a7d 41c5 b4c5 a0bf
00000060: d685 f9a6 d103 b7bf 8e61 f7d5 4a5d b3bf
00000070: e8a3 acaa 826c aebf 94d2 0300 0124 b6bf
00000080: f459 7b39 0cb0 b73f fa9d e737 9b83 a53f
00000090: 72ba d495 02e7 babf c100 df25 b397 a83f
000000a0: 9bb1 1cd8 60e4 a23f 996b c0e7 ec32 933f
000000b0: e5c6 98b5 999f bfbf 3d9d 2905 2ab6 a3bf
000000c0: aaea b918 1130 b6bf b8db e313 8aff b7bf
000000d0: 055b f6ea 7fb4 b8bf ac6f 40c5 347d ae3f
000000e0: a9fc d914 9ef9 bdbf a32c 1e91 60c6 c4bf
000000f0: db50 4ba1 e804 aa3f ff5a 5d1a 41e4 97bf
00000100: cd05 c116 9a5c babf b192 8ea9 83b3 99bf
00000110: 4549 fe6c 0d55 b3bf 394c fcef 4f4a 903f
00000120: 7567 5e7d a035 bbbf 9cdd 25b5 d605 acbf
00000130: 996c 4854 ced2 bebf 852a e2eb 52ca b63f
00000140: 0808 928d a468 aabf dc0c 6ef3 992d 20bf
00000150: 49cd 636c edfe b8bf 020f c361 4945 b3bf
00000160: 5b93 e64c 5675 bebf 73ac 3c9b 816b b63f
00000170: 0c35 54fb 1971 c33f 5051 4f9c 1d6e a7bf
00000180: 6aa7 1323 8f19 b83f 0ed9 d1db 8ef4 bf3f
00000190: 870c 1c4f 4b03 bcbf d179 5f0a 48d4 bfbf
000001a0: 4364 3fde 35b0 b7bf 5b25 56ea a05d bbbf
000001b0: 1b11 b8eb 20c1 bebf 1c4a f816 bee0 5b3f
000001c0: 0af6 40b9 605d b8bf a3f8 ae6d f7c8 b03f
000001d0: 408b ce99 169c b6bf 2722 a7a2 9673 6dbf
000001e0: dea8 cc64 c751 8a3f 5415 e4c9 1ce8 6fbf
000001f0: 8861 d672 07bc a6bf f0be 72aa 8c36 c0bf
0.11519216720292592 -0.11935640777359573 -0.04024850041284085 -0.0015587985632769885 -0.02983065334557839 0.08682655316049699 -0.06163811473898976 -0.021941454893937173
0.10361719307253194 0.08974940029727878 0.03175909654461651 -0.03275837810428557 -0.08990202261477206 -0.07564227794444475 -0.05942161878039781 -0.08648687601437138
0.09253002551427142 0.042019701551733804 -0.10508743436796822 0.048032377598703054 0.03689863813483215 0.01874895252704398 -0.12352905925288445 -0.038499177103228345
-0.08667094091098684 -0.09374297128293463 -0.09650420652756615 0.05954899700029101 -0.11709011086530786 -0.16230399213632038 0.05081870049403544 -0.023331658586665856
-0.10297549300687266 -0.025098855232175313 -0.07551654730767605 0.015908478758387388 -0.10628703175316707 -0.05473204575803978 -0.12040414388359223 0.0890247178923947
-0.05157961109308934 -0.00012342933925078056 -0.09763988395916558 -0.07527598034635832 -0.1189779222245994 0.08757791557279564 0.15188908359451891 -0.04576199086264643
0.09414000135771308 0.12482540957157459 -0.10942526513467686 -0.12433290723081504 -0.09253250766723035 -0.10689740868669644 -0.12013440852030437 0.0017015320153218666
-0.09517483256146178 0.06556650569743509 -0.08831921820687416 -0.0035951559159210947 0.012851293338446753 -0.0038948595312173016 -0.044403298156967586 -0.12666471789042744

fc.bn1.running_mean f8 [64]
00000000: f7fa d117 efb3 913f a96a 0a9f 5032 d13f
00000010: 726c 8fee a784 a33f 18ce 0eba e588 d53f
00000020: 47e2 21ea d64c d83f e062 6f7c 9755 e33f
00000030: ea88 bbf5 4906 df3f cf51 8252 2c81 c03f
00000040: 676b 4089 d26e 9e3f 676b 7309 e13d ea3f
00000050: fc90 f8ce 80db bc3f 0675 a5b9 4727 cd3f
00000060: acb5 c146 41a9 ad3f 9c11 1343 4320 be3f
00000070: a4d2 f0b1 a04f e43f 6628 a108 b3c5 e43f
00000080: 71d5 d9c1 31e9 953f c4e5 b410 d4f3 c43f
00000090: 2b85 ce01 dc51 b83f 02ef 425d 63ac a83f
000000a0: 4bcd b761 d1d9 b73f 2468 ebc3 6dbe dd3f
000000b0: 3489 e365 bfdb c33f 19a1 b927 232f 8d3f
000000c0: 5e8a b0fa b56e 553f aeac ae4e c43f e33f
000000d0: 63cc 8305 6dbf c93f 6cc6 a17b e652 943f
000000e0: 77b7 2aa5 5014 e03f 4b29 2f54 236d c53e
000000f0: 61d4 a8fe 7264 b23f f914 128b 77a3 cb3f
00000100: 70b3 817c 297e d43f 8080 ceae dde4 db3f
00000110: 6c69 cfd8 5396 d13f 6554 0d5c e20b d53f
00000120: 06d5 c0fb 2a21 d23f d182 19ed c6af b03f
00000130: 0975 b3cb e7ba ac3f 08e3 90b0 2452 883f
00000140: 25c5 181f eb2e f03f 0c2b ada1 2a19 d63f
00000150: c154 0af5 7b84 d93f 9976 c69e b930 d33f
00000160: b8fc 59d6 1aa8 c73f c6c4 b7c5 278b b13f
00000170: 93bc 2da5 8a24 743e 7c5b 8892 db73 e53f
00000180: 8182 9e62 91d4 d23f ae1a ee35 1140 983f
00000190: 50f9 de06 a943 ca3f c680 58d3 214e d13f
000001a0: c067 5bd2 2c2b d93f b5d6 2de6 f890 c43f
000001b0: 9782 7bea b15e c13f 6213 73e5 1ab5 d23f
000001c0: 0206 6d31 b6bb da3f add0 2da5 77c5 a43f
000001d0: b945 16a3 80bb d13f a7bc ed81 b7b7 543f
000001e0: 0886 5814 2017 c23f 2c72 7c92 2710 a23f
000001f0: 709d 88ec b7a2 cb3f 1a7d 292a aba7 c33f
0.017287956074592405 0.268695979417013 0.03812145983803185 0.3364805523844736 0.3796899115036791 0.6041982107518287 0.4847588443500529 0.1289420512081407
0.02971962893216631 0.8200535950266897 0.11272435238840112 0.227761235854736 0.05793193806389793 0.11767979037819604 0.6347201800732205 0.6491332214875569
0.02139737840339734 0.16369105163339104 0.09499907535657275 0.0481902171463542 0.09316738734905987 0.46474784977692907 0.1551436660293547 0.014250063562216074
0.0013081338063406704 0.6015340363277539 0.20115435380248234 0.019847489639181523 0.5024798608699105 2.554216423676961e-06 0.07184523312828751 0.2159261158996413
0.32020032080509164 0.43584386893235916 0.2748002640998013 0.32885035504779686 0.28327440820005767 0.0651821450096677 0.05611347543320206 0.011875425947538001
1.011454698058807 0.34528604305948885 0.3987111943218445 0.29984894280810576 0.18481765238172954 0.06852959229560715 7.503755598629228e-08 0.6703927862134686
0.29422411566523726 0.023681897083884955 0.20518982730386393 0.2703938068316457 0.3932601980465016 0.16067420233928478 0.1357023615774053 0.29230377585581924
0.4177070124315777 0.0405690564283828 0.277069243683481 0.0012645046296844516 0.1413307284683898 0.03527949965630159 0.21590327310080282 0.15355433996862972

fc.bn1.running_var f8 [64]
00000000: e383 b45c 0666 623f f1bc 371d 0be5 b13f
00000010: a78d bf31 558d 7c3f d643 1553 6d85 b73f
00000020: ba81 c662 2ed3 be3f 8b9c 5717 cb6e bd3f
00000030: 71a3 7a3f 67d0 b73f aa70 0c48 51bd a83f
00000040: 94d3 58be d158 793f 966b f43b ae93 c23f
00000050: e8cb 432a 17e1 a73f 1951 fb53 29a1 b33f
00000060: f03a 86f0 3e85 8d3f 9a40 4952 6e30 9b3f
00000070: d9a3 9e86 8844 bb3f df09 14eb b089 b83f
00000080: 04e5 3ec2 3547 693f 4fc4 f3ca 87ce a13f
00000090: a236 e851 a999 943f 677c c30c 592a 883f
000000a0: 4343 7f07 6e64 983f 3f51 23c4 33af c33f
000000b0: 14ef 703d b55d aa3f fef8 ea66 7aef 583f
000000c0: cbc0 15ef 59fa 363f 95b8 e039 8b70 b93f
000000d0: 7d4c e63c f771 af3f b8f6 bf4e 93ca 673f
000000e0: b536 d2f0 6bf0 b43f a08a a4ab 79f1 a03e
000000f0: 1fea 40ad adf2 8f3f 2d64 2c1b 4698 a43f
00000100: 49fa d23f 29ed bf3f 1cee 18ef 8877 c33f
00000110: 642d 7f9d aabb b83f ab73 87c8 99d3 b53f
00000120: 321b 814d 86c2 c23f 8afa fd73 a245 8f3f
00000130: 44e3 d964 0af4 863f 939c ced9 70ce 513f
00000140: ccde 3ae7 1889 d03f 7ae5 6897 a847 c23f
00000150: 9a4c aaf5 d182 bb3f c035 4825 c44d bb3f
00000160: 36bc e773 9cba b33f 677f 4490 08e1 923f
00000170: 7ddc 00ae c93f 8f3e b2f5 3e72 565b c63f
00000180: 386d d178 15be b43f a1d3 3f7d d2ba 673f
00000190: 96bb 232e 142a b33f 26ee cfff b0c5 ae3f
000001a0: 0d98 6820 05fa b43f 3727 d625 c3ea a43f
000001b0: a48e abc0 8624 a63f ff28 7f05 bdd3 b33f
000001c0: bf63 d9cc 640a ba3f 7f2e 9243 8161 853f
000001d0: 9665 5f46 3716 bc3f 50ad c3c6 a771 323f
000001e0: de50 7dc9 d025 993f b398 d44b 3750 773f
000001f0: a4f1 34ab 8570 b83f cf1d b961 6f7c b13f
0.0022459148655262647 0.06990117514918716 0.006970722952221043 0.09187968519587683 0.12040986930379108 0.1149718219745514 0.09302373218328143 0.048319377942079925
0.006188220320429223 0.14513185431937065 0.046639179143219966 0.076677878383013 0.014414302554340591 0.026551936886165174 0.10651448523152797 0.09585099925246919
0.00308571338424868 0.03477882721370717 0.020117421745502136 0.011799522115721396 0.023820609290683647 0.15378424717949632 0.051496185064449446 0.0015219397861723767
0.0003506154599426491 0.09937353289635305 0.06141636484530808 0.0029042126752746 0.08179354314253369 5.049485800916291e-07 0.01559959111192649 0.04022425729471766
0.12471254165846192 0.1520854155986492 0.09661356301437746 0.08526002069215959 0.1465614202918118 0.015269536175535298 0.011207658007366235 0.0010868169840508076
0.2583677538018321 0.14281184571317934 0.107464907147277 0.10665536794859687 0.07706621007649592 0.018436559491532913 2.3282446815081154e-07 0.17466240480818623
0.08102544974956494 0.0028967009657158847 0.07486082197622887 0.06010201571185929 0.08194000283455712 0.0408535941779306 0.04324742414408192 0.07744962104985474
0.10172109605026856 0.010439882158855383 0.1097139879997456 0.00028143259147724465 0.024558317468589823 0.005691734314757268 0.0954669516549474 0.06830497871225492

fc.layer2.weight f8 [32, 64]
00000000: 81a9 b648 d05e 94bf bfca 503a 9a31 c6bf
00000010: c3ca 23a3 283f a93f 702e b50b 9abd babf
00000020: ba17 cacd 1916 aa3f 8fef 37e7 bb85 a23f
00000030: bcad 5cf2 7c85 b8bf cfff 2f95 2455 c3bf
00000040: 7304 5a7f 399d bd3f 42f7 c5b7 7556 b1bf
00000050: c516 0e02 abcb abbf 365b a0dc 19b6 7cbf
00000060: 0dfb 4226 3a28 9a3f 6dc6 050f f220 a7bf
00000070: 3a6e 29b2 3867 c4bf 5f23 f384 e24e 6fbf
00000080: 3194 ccbe 86f2 a33f 00af 0603 4554 bb3f
00000090: 014f 9c03 1af0 a2bf 13e9 f1d6 2550 99bf
000000a0: 33ea 6dfe a190 a93f bf88 cb44 fefc a93f
000000b0: 5a10 6050 7839 c7bf 7b32 05ae 2a79 673f
000000c0: 4ee6 130e dd54 863f f8e3 c2a4 ca85 7b3f
000000d0: 5a3b 3d26 621b a03f f260 b768 0655 a83f
000000e0: de64 e48a 4e6b c5bf 8cdd e9f7 df91 cebf
000000f0: d610 315d 33b7 903f 4417 db7b 6a26 b2bf
00000100: 18a8 084b 3443 b8bf 4e83 14c6 b573 99bf
00000110: 8b32 77e7 8081 a63f fefe 80a3 c58a b93f
00000120: de99 0a2f 6c77 a7bf fc02 c4b7 3bff a2bf
00000130: 0a33 2941 4420 5d3f c262 7be2 0849 aa3f
00000140: 75bb 1d48 22ab c1bf 3cb2 92de 5c7a c4bf
00000150: 9946 ae20 1ad3 ac3f f004 02d1 abc6 af3f
00000160: 68bd 934a dab3 c6bf ccca a01a c09c 98bf
00000170: 8c81 d19a 4cff a63f e45d 33d3 c0d0 813f
00000180: d8b9 d594 15e7 b03f 37b5 8e5d 8a20 ad3f
00000190: 2c66 a684 5177 903f b43e c4a9 ea5d a5bf
000001a0: c071 7f0d 38a8 9bbf 3089 769c cb34 c9bf
000001b0: 10e2 50c1 3121 b6bf 5de8 508d 81c0 c4bf
000001c0: 045e da0a 4feb afbf 7596 e75f c269 903f
000001d0: e437 5aa5 7240 a13f 7f86 652e 51e7 743f
000001e0: f2fb 7266 cd5b 62bf 8374 3f5f becc a0bf
000001f0: 4a08 3ab1 14e5 9bbf b7cf 1a9f 8903 993f
00000200: 62cd d0c1 8ec2 953f 333a 1f94 b5eb aabf
00000210: 3bc7 bb6c 9b66 b6bf 27ff 621d e63b b13f
00000220: 0943 82b0 2ab9 ae3f c9a2 f033 2f98 71bf
00000230: 1039 73fe 160d 753f 983f cc4d 86b1 9e3f
00000240: 212c 3ae3 0733 b2bf 13f2 d395 1f29 8a3f
00000250: c58e e09c 5173 c6bf a756 854e 37aa 9fbf
00000260: 08b6 814c 051f c5bf 4395 ae6d cb12 a6bf
00000270: cbe3 2e93 9cbc a23f 5f0c c118 e873 c03f
00000280: 6735 9e1a 4ff1 8c3f 22d1 5496 53a9 9dbf
00000290: 7fa2 1988 37df bdbf 1110 b5a3 e975 8d3f
000002a0: 0691 1dba 8dfe acbf 4696 96d3 0d4c c0bf
000002b0: fa91 b689 f032 9ebf e628 cfa1 275e c0bf
000002c0: 4ba2 5705 7792 a9bf d9d0 bd88 0fd6 963f
000002d0: 8b46 2116 7e22 b2bf 976d 64ad 545a c3bf
000002e0: 2127 73a2 cf12 923f 300e f319 9e8c ccbf
000002f0: ddc9 ea0c 27fb b13f 7ae9 6887 9f7f 963f
00000300: f766 6326 ff6c ba3f 3ff4 8991 1799 c1bf
00000310: a677 2d35 851e 993f 5aba f09e 4ea8 b8bf
00000320: 2b01 e168 8d29 b33f be95 3f19 0fb8 c2bf
00000330: 7589 7b4c c481 b53f 425c e04e c052 b9bf
00000340: 5b26 0c97 0f80 a13f 2908 a932 2ca0 be3f
00000350: f079 0dc8 be47 a6bf a129 e0a5 2903 bcbf
00000360: 8c0c 5009 e499 a4bf b43a 2280 07c0 a33f
00000370: ba13 197f e5f5 b43f 8333 ac66 cdd7 c33f
00000380: e474 ca91 30f8 46bf 2c28 bbf3 25f8 af3f
00000390: 8ee8 35ed c4a7 b1bf 198f 9ea7 c103 c1bf
000003a0: 04f9 1127 e588 a83f c9e2 94eb 4ebe 77bf
000003b0: 4859 c856 267b 95bf cecc 23ad 8fd2 86bf
000003c0: cb53 ca92 69ec afbf 67ae a480 4f18 8d3f
000003d0: 9661 de63 4506 9c3f 4975 d231 be53 a1bf
000003e0: a8e7 3097 16da a4bf 239a 7370 7a7c 793f
000003f0: 149f 8458 233e 5f3f 1898 823e 3f64 b3bf
00000400: f3a6 6147 2c18 b73f 51ce 8f27 23c0 8a3f
00000410: 8c19 0367 d5b4 ab3f 7676 27c5 1431 a9bf
00000420: b843 488f e508 50bf fce0 9ec4 0bd8 ba3f
00000430: ae8f a739 c40e a73f e0c9 71d7 1122 c7bf
00000440: ee15 cca8 76c7 af3f b115 aa56 baf1 adbf
00000450: 19a0 a910 ed5c babf eccb e64e a770 babf
00000460: b6b0 7577 8ae4 bc3f e7ec 3dcc ce95 c0bf
00000470: e4c9 c972 fee5 a2bf 51f8 b40a c1c1 aabf
00000480: c3c9 cc9b 828d b63f 89ec c30d c6df 963f
00000490: 3688 fda7 9fd5 aa3f 6f66 0cc7 4f3e a23f
000004a0: e585 ee30 a42b a13f 0316 2900 a5f1 9dbf
000004b0: f46f 6b12 b2b5 b0bf 48b0 4424 ae7c a7bf
000004c0: b9cc f77a bd43 b5bf a79e 3ea1 6c53 9bbf
000004d0: b112 4ef5 66a8 a3bf 1fd4 f75d 4ec5 b93f
000004e0: 63ab ba27 3f69 bdbf 4ee2 85ae 82bf cabf
000004f0: 6fad b281 5a24 a93f efa4 bfee 4c95 9bbf
00000500: 2b0b 82d1 1144 babf 17bc 7af4 5d3a b53f
00000510: 8a60 00b6 9177 b0bf 56da 5cc9 0517 a3bf
00000520: 66cc b365 11c3 c3bf 995a d1dc 4fa0 99bf
00000530: 4ec5 e5b5 5829 843f 88ac 7bbb deb3 86bf
00000540: d656 a0be b642 a13f 3d2c 6778 b129 9ebf
00000550: 2bea 4d02 6a5d a73f a556 3e8a ea8e ae3f
00000560: e580 b304 e260 c3bf 1e6f a261 d3d5 ba3f
00000570: 2ee1 61e8 dc37 a03f c3cd 4dbc d7bb ab3f
00000580: 267b 6363 0c14 b23f 0c41 5044 ca12 be3f
00000590: 467d 8aff aeeb b0bf 9a31 93f4 c0c5 ac3f
000005a0: b94d a24a ae3a 67bf 0781 3532 8683 c9bf
000005b0: 44ed fbfa 50d7 71bf 150c 76c1 0d72 abbf
000005c0: fe12 55a9 23c2 bcbf 3af1 af19 3780 c5bf
000005d0: ed15 546f d014 b8bf 41b5 ecf7 41f2 9ebf
000005e0: e6aa b95b 2ffb b33f 5cab 2b6c 7e08 90bf
000005f0: cb96 9a63 e19c 7abf bb06 977b c574 a3bf
00000600: ecf9 29c8 7412 903f 1725 7651 6a6e 9dbf
00000610: a4c8 211d a262 ad3f 737e d2ce 77d5 adbf
00000620: 78f9 f56f 2071 96bf 8be0 b908 e74c c3bf
00000630: 6de7 6ba9 55ef 6ebf b8e0 e4fd c880 913f
00000640: 9a1a 6365 8bc2 9bbf 4c60 9384 b8a0 c03f
00000650: c08f 1c0c b956 c6bf dd26 d8bb 8e52 76bf
00000660: 7e07 6a26 5d00 c1bf 0029 ff2e 29a8 953f
00000670: 7d93 bd00 a76b 78bf 1769 8c88 e2c8 c53f
00000680: b5fb 992c 5be3 c2bf 5aab 545c 669e 9abf
00000690: 18a4 bf45 c848 babf 5de1 662b 1cf1 c4bf
000006a0: 420d f869 83b9 b83f 4e0f e07f cec9 b8bf
000006b0: fc95 6110 9693 a0bf f4c0 ad9c 564f c0bf
000006c0: 9da1 7ad1 9a5a ad3f 0047 f85a fc6d c33f
000006d0: 8486 f15a 7c99 9e3f 5898 dede 78bd a23f
000006e0: 5ab6 64d0 a3c0 b0bf b654 47b9 5941 cabf
000006f0: 9f70 cbef e21e bbbf 7337 1353 4e8a b13f
00000700: dedc 06dc 7081 b03f ac84 2b82 1f72 94bf
00000710: bca6 5631 10e3 b43f adbb 7c53 bfdd 8f3f
00000720: 7685 f520 bade b4bf 55d0 3261 de35 b1bf
00000730: aceb deb7 91ff 60bf 8e1c 4a91 9ca6 c1bf
00000740: 1f56 ce07 1091 bb3f 5099 29bc 2faa 883f
00000750: 3cff 6213 bb76 adbf fbdf 3a76 5a83 babf
00000760: e040 e1e5 ff07 adbf a56a 1d71 035d a33f
00000770: 4eb9 8dab 5081 b53f 61e8 e04e 0675 c33f
00000780: 6e3c 1094 2223 9c3f d4af 7e92 3a5d 923f
00000790: ece2 d0a7 c66e b73f cb8a 9e58 9a04 bebf
000007a0: fd6e 649e b979 823f 0925 fbb9 30c2 853f
000007b0: 2f5b 34d0 28c3 b03f d5bc 3dee 454e 8ebf
000007c0: 7e0e c05b 7886 c03f 451a 8302 fafc 923f
000007d0: 6518 35bb 9f8f b53f a8eb 3420 c972 b5bf
000007e0: 014b ccef ffff 963f 10f3 5d6b 0d63 ab3f
000007f0: 0fa0 43df bc10 b73f 6144 da4f 1bae b0bf
-0.019892935216981215 -0.17338874671403023 0.04930998794033805 -0.10445559297402851 0.05094986569478928 0.03617655942431874 -0.09578686635057115 -0.15103585514589077
0.11568030699892677 -0.0677255223908704 -0.0542882385262096 -0.007009602568379949 0.025544079385095 -0.04517322953587386 -0.15940006923016076 -0.0038217949109803774
0.0389597041997053 0.10675460170631013 -0.03698807996820897 -0.024719802135657675 0.049931585605879646 0.05075831022055998 -0.18144134449551325 0.0028653939809031837
0.010904051773184122 0.0067193904653146605 0.03145891873156499 0.04752368953967502 -0.1673372438606639 -0.2388267479434315 0.01632385498329899 -0.07089868091415236
-0.09477545577888724 -0.024855461325503918 0.043956783537940934 0.0997737430743619 -0.045832997076377543 -0.0371035253356293 0.0017777124927704246 0.05133846058533244
-0.13803509255691507 -0.15998421542953334 0.056298080911017574 0.06206261564603632 -0.17736366883716959 -0.02403545534634581 0.044916528605202094 0.00869894642384756
0.06602606662429567 0.05688888923701046 0.016080163689912094 -0.04173215219827622 -0.027008891891328934 -0.19692368640705515 -0.08644400567653343 -0.16212481880376375
-0.062342138361767524 0.01602843962054697 0.03369482296430684 0.005103413690763169 -0.0022410403940678 -0.032812070013940285 -0.02724106151300302 0.02442755731199472
0.021249991015975474 -0.052579569178864104 -0.08750316052080802 0.06732023446511147 0.06000646023415441 -0.0042955249655640204 0.005139436550235979 0.029974077700046203
-0.07109116838016451 0.01277374912250998 -0.1753942504884575 -0.030922760169537124 -0.16500917659452363 -0.04311214174166846 0.03659524246854281 0.12853718956657453
0.014132135391060797 -0.028966241884703987 -0.11668726990468235 0.014385056789826963 -0.05662959000508931 -0.12732098418671195 -0.02949119415792898 -0.12787337685433114
-0.049945563699854555 0.02230095169166266 -0.0708388141659048 -0.1511941763536526 0.01764988354697217 -0.22304130808889644 0.07023853364334039 0.02197121871925265
0.10322565734113796 -0.13748449903860835 0.024530488367751645 -0.09631816273097496 0.07485278902550323 -0.14624203427153576 0.08401133410692359 -0.09891893315976666
0.03418015211907451 0.1196315406496359 -0.0435161227421651 -0.1094232587785542 -0.04023659337692562 0.038574442282983595 0.08187708237626526 0.1550232650119164
-0.0007009732394923887 0.06244009590371066 -0.06896620551370544 -0.13292713818111038 0.04791942693644738 -0.005796726495923729 -0.020977591559210113 -0.011143801184948645
-0.062350558441870506 0.014206524957067047 0.027367672176838186 -0.033842032987403466 -0.040726381259858 0.006222227362036511 0.0019069047139712069 -0.07574839855314541
0.09021260016165993 0.01306178535921912 0.05411402590248135 -0.04920258433024298 -0.0009786836427603095 0.10485909986789815 0.045034534490496866 -0.18072722453832935
0.06206866083634198 -0.05848486240305862 -0.10298043877412545 -0.10328145672137595 0.11286225716111428 -0.12957177136181672 -0.03691096450065226 -0.052259476239200915
0.08809677413663679 0.0223380037213983 0.05241106916106768 0.0356316500166941 0.033536082242118494 -0.02924211324195448 -0.06527245473574778 -0.045873109748158
-0.08306488277576109 -0.026685426084127297 -0.03839418167539089 0.10066690248625364 -0.11488718719435335 -0.20896943589811418 0.04910548051096952 -0.026936723777827017
-0.1026011597150897 0.08292185991989275 -0.06432448094745005 -0.037285023527534975 -0.15439050165113882 -0.02502560410752128 0.009844487238953061 -0.01108526239064235
0.033712111253562035 -0.029455922101800026 0.0456345680058415 0.05968411386053888 -0.15139413098859858 0.10482522138266545 0.0316762002630092 0.05416750119811866
0.07061841417769851 0.11747421424684407 -0.06609624613564788 0.056196241240829184 -0.0028355983859655568 -0.1993263001595624 -0.0043557322785504095 -0.0536045359285923
-0.11233733066644544 -0.16797531847249464 -0.09406759946804018 -0.03022101474487227 0.07805152882944419 -0.01565740142079207 -0.006497269083103506 -0.038000270210898766
0.015695404736556215 -0.028741513463988868 0.05739313703169671 -0.058269256588798245 -0.021915919145152313 -0.15078437734678504 -0.0037762330133518846 0.01709283876081777
-0.027109315932444568 0.12990480874464294 -0.17452157107720545 -0.00544982676866265 -0.13282360435192325 0.021149295323803052 -0.005962040286111467 0.17019302050977878
-0.14756335904891463 -0.025994872460766906 -0.10267306998106596 -0.163608094398806 0.09658070885784745 -0.09682932493165916 -0.03237599325147397 -0.12742121362999337
0.05733188445202873 0.1517939991177215 0.029882376719234674 0.03660180779051875 -0.06543945157746958 -0.20511933848198333 -0.1059400401531456 0.0685166313953383
0.0644751107382606 -0.019966595001169082 0.08158971027901435 0.015559668288544016 -0.08152354530968417 -0.06722822068223995 -0.002074989896724463 -0.1378970822736147
0.10768222990585528 0.012043354921115551 -0.05754646884588374 -0.10356679331277967 -0.056701657115469706 0.03781901126668189 0.08400444210358168 0.1520088086270475
0.027477779662202932 0.01793376464017611 0.0915340575892391 -0.1172577349048353 0.009021234651803928 0.010624294925394755 0.06547789652937007 -0.014797731717150967
0.12910370330802218 0.018543154147460567 0.08422277756207704 -0.0837827399854364 0.02246093655692061 0.053490084987947495 0.0900991482809561 -0.06515665721441756

fc.layer2.bias f8 [32]
00000000: 150e 3ec5 d750 c23f 3e66 12fe 90d8 c23f
00000010: 637e 55fc b3a2 95bf 4a86 2126 7635 903f
00000020: 7b10 e1d1 e8fb 2f3f d779 5ee6 62d2 c83f
00000030: 2909 8d4e a457 c23f e792 7f8b 4d06 a23f
00000040: 05bf e760 5422 d13f 25b5 1164 ea96 c63f
00000050: 1201 f4b0 7800 c33f 1463 ad9c e829 b43f
00000060: bd34 c33b 4529 6f3f ba8f c143 9704 9bbf
00000070: f3c0 973a e618 bc3f 47dc 6f54 ef5d c83f
00000080: 7595 4962 0aa8 a6bf dd0c cad4 f286 963f
00000090: 2944 0929 3e81 c33f e2e1 500e 111c cd3f
000000a0: 3ac2 3df2 0da9 80bf f5c6 de42 6902 c83f
000000b0: 3f28 c597 d2a4 ce3f 72a4 4ad5 0cc9 c93f
000000c0: 97bb 27e2 fac0 b13f 33c9 6430 ccbd c73f
000000d0: 3c75 0296 1158 c33f 87f9 ee74 5ace be3f
000000e0: d967 df7d 16e4 b63f 079e 4862 7da5 b53f
000000f0: 5a47 9dc9 1f95 89bf 42fe 7c31 29a2 8b3f
0.14309212809540442 0.14723408132413057 -0.021128475452654515 0.015828939511612718 0.00024401871718471635 0.19392048119057279 0.14329961619848433 0.03520433738575495
0.26772031272319935 0.17648057829084354 0.14845188751497368 0.07876447510842538 0.0038038589683312128 -0.026384700308326826 0.10975493364799487 0.19036666510484876
-0.04425079774663746 0.021999162900567682 0.15238167766304514 0.22741902541180453 -0.008134945826641194 0.18757358327052712 0.23940498743678693 0.20144806303622748
0.06935089131705606 0.1854796634957637 0.15112514328658644 0.12033620219060569 0.08941784451545177 0.08455642365935755 -0.012491463032038009 0.013492891142617872

fc.bn2.weight f8 [32]
00000000: 7972 0a24 71c7 f23f c0eb 3f69 c479 f23f
00000010: e854 83df 738a f23f 1c06 7bae 66b7 f23f
00000020: 0f2c 62c2 22e0 f13f 7373 7fc0 fd7a f23f
00000030: f635 167b 847d f23f fdac 7cae 8a73 f23f
00000040: 9c0a 2257 41bf f23f fe26 e7d2 f989 f23f
00000050: dff7 31b3 f6a0 f23f 4bab d754 a6cb f23f
00000060: d7fd 67e1 ee6f f23f dd27 c23d ce20 f23f
00000070: 1dcb bee8 c23c f23f 546f d656 3364 f23f
00000080: eee7 ff90 e056 f23f b8f9 b2d8 2b59 f23f
00000090: 2234 30a6 ee79 f23f 94e0 af63 8c41 f23f
000000a0: 0a8b 99a8 999f f23f 53a5 f836 a881 f23f
000000b0: 476f 9d44 6631 f23f c519 15d4 782f f23f
000000c0: f4ff f590 d53a f23f a862 a1f9 2971 f23f
000000d0: c4e2 cc2a c053 f23f 36a9 7229 062d f23f
000000e0: f548 4380 9d33 f23f 2587 c330 a095 f23f
000000f0: 70fd ea51 526f f23f 54ed 1a87 9946 f23f
1.1736918838352308 1.1547283278766685 1.1588019114472505 1.1697756591460182 1.1172206490616678 1.1550271529624438 1.1556439216686818 1.1532084289454467
1.1716931728011906 1.1586855162044567 1.164297771435933 1.1747191728743072 1.1523274235658982 1.1330091869772254 1.1398343173611416 1.1494630233855405
1.1462102569626 1.1467703308877457 1.1547686092119496 1.1410030263923874 1.1639648996285268 1.156654562694105 1.1370604210159898 1.136589840361567
1.139363828900966 1.1526279212177233 1.1454469367874234 1.1359922045763375 1.1376013765589594 1.1615297226748649 1.152178115837014 1.1422362592264408

fc.bn2.bias f8 [32]
00000000: 5164 e28b efa5 c8bf f0c3 8963 6aeb c33f
00000010: 961b 915e 0c27 c5bf 1b8b f2db f35b c73f
00000020: ed09 f69a 08e9 c53f caed 9f88 60ec c4bf
00000030: 4f7e c212 9097 c4bf 1d2e 2c8d 2c45 c4bf
00000040: 5206 e72e 32a7 c73f 2143 d73c 00e2 c8bf
00000050: 0c60 3661 e643 c6bf 8e14 720b 8a46 c7bf
00000060: 8277 08b0 e4ff c4bf 9efa 2209 25e2 c4bf
00000070: 1676 1bed 68b8 c43f f384 85dd f679 c43f
00000080: f842 2b72 1695 c3bf cf66 f477 bd60 c3bf
00000090: c78c e58d 7bae c4bf 0d9b cfa3 5a54 c33f
000000a0: e06c 7382 5e07 c6bf d5b2 0356 d77a c4bf
000000b0: ae47 0f13 d731 c53f 8a34 64a2 8b63 c4bf
000000c0: b7b3 eac8 32c4 c3bf 76d3 be98 5147 c5bf
000000d0: 3320 9ef8 048b c3bf 1369 c51a 3131 c3bf
000000e0: 7e25 f075 3122 c3bf 4fe3 4034 0526 c6bf
000000f0: eeaf 65c8 b86b c3bf 7f86 02f4 231e c43f
-0.19256395654955097 0.1556218133951286 -0.1652541600944601 0.1824936698877416 0.17117412153682157 -0.16346365615014086 -0.1608753291702549 -0.15836102383796993
0.18478991785200322 -0.19439700098748694 -0.17394714113902443 -0.181840186680493 -0.1640592441116802 -0.16315138765454135 0.16187774255279014 0.15997205559236924
-0.15298729490907426 -0.1513897739139822 -0.1615747874121551 0.1510117816789819 -0.1720998894660175 -0.15999881458210177 0.16558350020073703 -0.15928788594502336
-0.15442499933615547 -0.1662389751269548 -0.15268003596816157 -0.14993871504959397 -0.14948099383063246 -0.17303528834761514 -0.1517249086858778 0.157169813294832

fc.bn2.running_mean f8 [32]
00000000: c681 beff 98cc ee3f d2af e5ad 9782 e63f
00000010: d392 5c97 2066 ed3f 83bb bd0f 6bb2 e63f
00000020: 28c3 e5b6 385d e33f 4c7e 47ea e917 ef3f
00000030: 6814 1c67 ec58 ea3f 245f 5f0a 459c e83f
00000040: d3a2 5e34 a555 e43f 49a3 5102 8eaa ee3f
00000050: 17e0 b4ca cee1 ec3f a1fd 7249 e492 ec3f
00000060: 6972 35f3 768a e73f 2caa c66a a86d e43f
00000070: f2d6 a8c5 fe9f e33f 1164 4ac0 661d e53f
00000080: 3ee7 cc1a 1b6e ea3f 174c 7fb2 274a eb3f
00000090: 6513 4c7a fc92 ed3f 8055 3716 c0a2 e43f
000000a0: 10a8 acb3 7688 ed3f dd31 a1a4 19f2 e93f
000000b0: 6e54 6569 0913 e23f 8f17 4d62 f304 e83f
000000c0: c7d4 25cd be01 ed3f 0fca 3509 dcf5 ed3f
000000d0: b467 79a0 f49c e93f 97b4 9d68 d8c2 e83f
000000e0: 94e7 82b1 5625 e83f f206 bc2e 9649 ed3f
000000f0: 2204 b32d 3655 e73f e6f6 11c3 c698 e23f
0.9624752993586803 0.7034414669446909 0.9187167125970411 0.7092795665210904 0.6051295826165175 0.9716691566245088 0.8233549131260931 0.7690758898342875
0.635454752239719 0.9583196683207486 0.9025644263374514 0.8929311213068339 0.7356524229213167 0.6383859715909401 0.613280664495248 0.6598390346217703
0.825940658897913 0.8528021322512157 0.9241926563850994 0.644866984740176 0.922908163954391 0.8108032432006059 0.5648238237869359 0.7506043357795863
0.9064630514900721 0.9362621478924796 0.8004096159231637 0.7737848323137254 0.7545579401987532 0.9152327454359848 0.7291518108905886 0.5811494646038369

fc.bn2.running_var f8 [32]
00000000: 001a 5910 3fc6 f13f 4144 30e4 50a9 e53f
00000010: b38c cb34 0601 f23f b41f e2c9 2338 ed3f
00000020: cd7d 296c 4f5e e93f a4fd 4659 2b27 f23f
00000030: ac2e c4fc b1a5 ea3f 53a1 db48 8fe0 e63f
00000040: 0925 5db8 8b75 d83f e8ca 3815 92fd f03f
00000050: 31ad 4e71 e7ad ef3f d492 e5cd 1193 ed3f
00000060: 9bcc 6523 cb25 eb3f 1d79 d396 ba7f e23f
00000070: a174 c471 c506 e33f 4b8f 032b c4e0 e93f
00000080: 2748 c58b 0300 f13f 34fe 54fd 12b6 ed3f
00000090: d273 b4f2 5337 f13f ec3e 9152 f76c e23f
000000a0: b732 ea6e 908a f13f 16e2 4156 1494 e93f
000000b0: 5eb1 7700 d9f1 d83f 8848 2129 1aaf e53f
000000c0: 38a2 f94e 8721 f13f 9653 22b2 2ba4 ed3f
000000d0: 8ace 0d14 7e11 e73f 1ead 8a13 8e57 e63f
000000e0: 6a61 8d5d 49b8 e33f ed6f 717e 76db f03f
000000f0: a0c5 be05 5cb6 e83f 74d3 5d6e af1a e73f
1.1108999861331768 0.6769184548194361 1.1252500593480306 0.9131030028374796 0.7927624809780639 1.134562824954494 0.8327264725534937 0.7149120734220936
0.3821744251659572 1.0619068936327327 0.9899785244973939 0.9242028256818124 0.8483634654388824 0.5780919023343675 0.5945765707034704 0.8086872902026497
1.0625033817091294 0.9284758518114757 1.0760077934894423 0.5758015263217806 1.0963291485415263 0.7993261036600099 0.38976120992335506 0.6776247790642325
1.070685680863006 0.9262903670483975 0.7208853141477942 0.6981878644632251 0.6162459208672264 1.0535798014816422 0.7722606765948292 0.7220074802013259

fc.layer3.weight f8 [1, 32]
00000000: 84a0 113b eccf c2bf cf87 b294 7f7c d03f
00000010: cc63 48d0 0b35 cbbf 218e b031 644f c43f
00000020: 10ba 087b 9567 c43f 4424 5710 f29a cabf
00000030: d6b8 36ce 3598 cbbf 2fb7 1dcb 0ae0 ccbf
00000040: c57d 372d 937e c23f 6c7c 5646 2aac c1bf
00000050: 5c14 4b26 eb32 c7bf 548c ba0f de2e c4bf
00000060: a17c 2759 f60a cabf d10e 7f79 f62c cabf
00000070: 937c 1296 cbf3 cb3f 21d8 3b2e 105c cd3f
00000080: 8f14 5b5f f7cd d2bf 9742 c0cb f40f d2bf
00000090: 2548 0926 7d5d cabf c1a9 6bcf dec9 d13f
000000a0: 6225 fcc3 641f c2bf 2631 2b2d a563 ccbf
000000b0: a651 c261 1388 c83f bedf 5393 d1ab ccbf
000000c0: bb4c 06ff 4518 d1bf c949 1f40 f9a8 c8bf
000000d0: f5ae 3054 b5e5 d0bf c8f5 ba4c ac83 d3bf
000000e0: 0c49 c97b 4f4f d3bf ddce d18b 2e34 c6bf
000000f0: bed6 f4b1 1c10 d3bf d66c 99bd a00e cf3f
-0.1469702995702883 0.2575987770197771 -0.21255633993203416 0.15867283273938518 0.15941113002323037 -0.20785356328841165 -0.21558258599311014 -0.22558722417618912
0.14448775966500996 -0.1380665629812684 -0.18124141092099222 -0.1576802803802787 -0.2034595427821602 -0.2044971554988622 0.21837754085297387 0.2293720460654081
-0.2938211852272809 -0.28222389123497166 -0.2059780536388313 0.2779461885062596 -0.14158305711343205 -0.22179093080047457 0.19165270112411043 -0.22399348920566625
-0.2671065321421328 -0.19265666609733348 -0.2640202829522729 -0.30491168492502796 -0.3017157276964475 -0.1734674627983769 -0.29785840395502905 0.24263390786914013

fc.layer3.bias f8 [1]
00000000: db48 4749 aec4 763f
0.005558663182869429
