weights/FA.pth (torch, 108015 bytes, 109 tensors)

lstm1.lstm.weight_ih_l0 f8 [16, 16]
00000000: cbc7 accf 2557 b7bf 437c 1291 2b15 d43f
00000010: d94f 0a3b 62d6 d73f c2c6 1bc7 ff0f d03f
00000020: 0e7d 9442 e04d d8bf 408f c715 1a29 ddbf
00000030: 0345 5d10 94c8 d83f b588 faa6 2f18 c43f
00000040: 0e91 6da2 8cfb 97bf e106 1b72 550e a4bf
00000050: 168c 4e21 ee6a c13f 08ca 2b18 b8c5 c93f
00000060: ad95 a449 ce17 bcbf e9f2 ef13 b1de d03f
00000070: aadc 71a0 b44a c23f 7cd5 d22d 36e3 b13f
00000080: 9ac8 d10e 03cb cfbf 3a31 c1bf f5f8 d7bf
00000090: e800 a929 fd8e d6bf c83b d4e0 8e4a a9bf
000000a0: 424d 41c6 e95d ddbf 1cdc 1166 6e21 d03f
000000b0: b87a f503 6142 b8bf 00f3 3317 5028 dfbf
000000c0: 3f13 d12d 27a6 d5bf 2844 5e83 4991 d5bf
000000d0: 1e08 5e5e 1a4e 99bf 4a01 5527 1b2a 92bf
000000e0: fe9e 4bfd c1a2 c83f a07d 4ea5 4c11 67bf
000000f0: 339f 502d ff40 d23f 3e73 ff11 2a14 c33f
00000100: 56d9 301b 2d3d a4bf 838b 466c 0feb bf3f
00000110: acf9 5ff1 74eb a8bf df12 9c35 bf87 a03f
00000120: 0677 433b ccef dcbf fee0 de1a 2407 d13f
00000130: 6581 1c89 5ef4 ddbf 1b19 15f6 0d39 b6bf
00000140: 8c7a ff0c 0ba8 9ebf e830 ebb5 c942 dfbf
00000150: d7a1 9967 9f16 dcbf e5c2 4970 4513 d9bf
00000160: 6607 eb4f 6669 dcbf 5368 dee1 c5a3 c03f
00000170: b5fd 1697 b757 df3f 1dd9 c2fb de1b c13f
00000180: 8cb7 e741 dd35 91bf 6f2d 9376 0945 ddbf
00000190: b4d3 52a0 c82e a8bf 3cd3 6af5 f9d2 e13f
000001a0: f388 32de 62f2 cf3f 15cb 89d0 0cab ddbf
000001b0: 371f 0e0f f70d d73f 22f4 be7f e9ee c13f
000001c0: 4c45 c084 9ebf c13f 848a 60c4 5b07 c53f
000001d0: 9b8e 8080 6ed3 d2bf 8c37 e7c7 6cc3 d93f
000001e0: daa9 ded3 071d dd3f 7025 e332 e71e d0bf
000001f0: 966e 11e6 cafb b5bf 6567 ab3d aba7 d63f
00000200: d7bf 6895 a14e b23f 4daa cde3 e614 d13f
00000210: 078d b0e4 5891 d83f b910 306d 48d5 c5bf
00000220: 83cd 446d 7843 e1bf f81c 8c41 fef4 cc3f
00000230: 6b97 9580 e228 c3bf f9aa 07d0 fd42 d63f
00000240: 449e 7337 6c9e d0bf 49e9 71d7 0e88 ddbf
00000250: c16a 56ee cfd0 d1bf 4a66 d3aa 1863 ce3f
00000260: 258c 5d49 9929 8e3f 06d4 5f23 6a3a c43f
00000270: 6dd7 f627 377d b1bf 37e9 1a21 b476 dbbf
00000280: 2100 c942 8894 dbbf acf5 62d1 5d72 d23f
00000290: ef6d 26a2 f765 a1bf 31c6 951f 3dfb c3bf
000002a0: e396 27cf 49fd afbf d539 53b5 6525 c83f
000002b0: 03da 5956 c613 dd3f c4c4 a6e0 f8c9 dd3f
000002c0: f6da 643b afcc b33f eed7 5869 524d dc3f
000002d0: 1a54 9f04 cec1 bfbf bc45 40de 7baa ccbf
000002e0: 4614 8b32 f3ac c5bf 1303 2ae3 4e41 e1bf
000002f0: 799b da19 73d2 94bf 929d 5a5a 6bb8 d4bf
00000300: 0e38 6403 b26e bcbf 4a6c 6555 87c9 a1bf
00000310: 1c18 7dc0 a554 cf3f 9773 6482 7e3b de3f
00000320: 14ec 04bd f80a c3bf c65a 7185 b3f0 a8bf
00000330: fb70 9416 32a1 d03f f586 51f6 df6b c0bf
00000340: 714d 4ba4 81b3 c93f a819 a393 3da5 be3f
00000350: 4dfc dcc7 0fe8 c1bf 9c2b 07cf 3dff c33f
00000360: d6c3 2231 2f00 d23f 159e ae6d a813 cb3f
00000370: c714 d9b2 7b2b d13f 2d54 4a14 50b1 b63f
00000380: 512a 94e6 261f debf 36a3 0a48 c57a dd3f
00000390: c20c caf7 352c d03f 98ac fc00 8b13 d7bf
000003a0: f2f7 1ae7 26e8 cabf eef1 1317 7634 d5bf
000003b0: 448f 8436 a82c a63f a86e af95 957a d43f
000003c0: d638 1cdd d9f7 e03f fc14 827a cf34 d1bf
000003d0: b7aa bfd7 f062 cfbf 8efa afd7 2240 c8bf
000003e0: 9459 0123 a33f c33f 4341 1521 40b6 d8bf
000003f0: a3fc ab7b 894f be3f f5dc 780c 2bd2 a53f
00000400: 81e4 79d8 c8cd d6bf 54d3 4ef8 45a4 cb3f
00000410: f275 e777 4264 d1bf cd9f 2bbe 6b7a cfbf
00000420: 11f9 ed9a 58e6 dfbf 4293 da51 7b6d d73f
00000430: e484 2f21 4854 d2bf 66ab 084a 8849 ba3f
00000440: 2158 c480 3d49 babf 7fc8 75c4 603a d33f
00000450: 5f19 6f4d 97ad d9bf 7b2a f86d cab4 d7bf
00000460: 05ff 0560 5140 d6bf ca4f 6438 a19d c43f
00000470: 1b63 2a61 e72f d13f 25d7 1a93 7dd1 bdbf
00000480: f901 9690 cef1 d5bf 6f89 f78c 0a0b d23f
00000490: 5b0d d2f4 68be e23f 8692 9cf3 f1e7 a0bf
000004a0: b3e4 0782 bdc2 c83f a790 ea19 941b c93f
000004b0: 9672 df21 ce96 af3f 696b d778 a6ac d2bf
000004c0: 276b 6b8e 41bf d0bf 784f 9ce3 3bf9 a3bf
000004d0: 32d1 074a 6bda 91bf 2cb7 76b1 ab7e c23f
000004e0: 1390 5e3f fa86 bc3f 84c9 b5d6 3e7e d33f
000004f0: 9eb7 403b 1eec 8abf 71c1 e14f 49d2 c6bf
00000500: 4ab5 7eee 8d69 c23f 5318 cbcf 484f c3bf
00000510: 3d0d 3938 c47b d63f e517 9471 22fe da3f
00000520: 3478 78d4 fe6e d2bf 5207 c4cb 5878 c53f
00000530: d615 ef5f 41c8 c43f 44b4 9d77 e35a d5bf
00000540: 96db df96 f8a2 c6bf 30ff acbc 1d9d ccbf
00000550: cfa2 f38b 8918 c9bf 8031 25d4 b45b dcbf
00000560: 65aa 69fa de33 d3bf dd3e d06c 4e24 d93f
00000570: 0810 c767 261b ce3f ee7b ab56 2e2d ad3f
00000580: 39ba 2407 3406 cd3f d5f0 b02e b968 c63f
00000590: 8406 3683 2cdb dbbf 022e df72 d1d0 ca3f
000005a0: f174 077b e3ed d3bf 2c78 53d4 3135 da3f
000005b0: 39ce c7bf b2ca d93f e2cf 01f9 c1d6 d6bf
000005c0: 86e6 7649 3d13 d9bf deac fb69 8a1c d5bf
000005d0: 497b ab16 deb0 c53f 7d7e 0107 0794 ca3f
000005e0: 2264 b2d8 3a41 d3bf 04aa 87e2 3da8 d9bf
000005f0: f5ad 349c b99d b53f 8a10 bd5d 9e43 cb3f
00000600: 0d5d 442d 005e cbbf 0342 9158 e86d d2bf
00000610: 595a 1103 af27 a1bf 7a2e 5c38 b195 d83f
00000620: 6884 a26e ea41 e1bf 13cc 4d14 bd73 d0bf
00000630: 9158 ba9a 57e1 cb3f af89 63b0 b0b0 dfbf
00000640: 06f5 c2d7 5c22 de3f 0170 0bf0 2ff7 c23f
00000650: 21d9 9e2e 08a8 dcbf 950f 3307 dbfe 803f
00000660: c39b 3552 961f d43f be90 b652 9dcb db3f
00000670: 4e31 83f8 dbf2 d73f 0d6f 8406 1733 d23f
00000680: 2d2c e3e2 f95b da3f 2f3e 1548 42a7 a5bf
00000690: edde d146 5df8 c13f 4531 7dcc 753e ca3f
000006a0: 5855 5970 8a8a d53f 6c7d 33a8 192f cd3f
000006b0: 3b54 3d5b fe87 d9bf 3f2d 939a bccc b23f
000006c0: e19c ab66 6b5f a9bf e806 1a2a 4886 d0bf
000006d0: 7ba6 083c 7f05 ddbf a9ed 1435 989c b7bf
000006e0: ff28 52ea 7b36 d13f d975 32c6 9238 c33f
000006f0: 6950 e0a2 278c c13f e21b 6123 64a9 d93f
00000700: efac 6216 3b3a bdbf 92af 85dc e273 a9bf
00000710: 79d0 4cc7 5654 d3bf e9d2 519e f176 c7bf
00000720: f8ba 69ef fb14 cebf 68cc 6a63 9d2f d03f
00000730: e29b 938f f45a d73f 9513 d57c a4de 80bf
00000740: 81a5 8000 63cd cdbf ba72 fea7 ebb4 da3f
00000750: b9a9 6a8f 3799 d43f 1eb5 9413 c82c b2bf
00000760: 0119 c7dd 671d c53f efe8 6136 c39c c33f
00000770: 2ad4 7082 f7ca b3bf 5f21 76f4 f89d d5bf
00000780: 2efd 7b4f a9cd d33f 22eb ccc7 a2e1 c93f
00000790: 2cef 2525 227b b33f 5ef0 7dfd 5e97 cd3f
000007a0: 5f60 0259 4736 d7bf 1ed8 2dfc d0ff aebf
000007b0: 4d63 ff5f d76e c6bf c122 95d0 948d ca3f
000007c0: 75aa 8211 5039 d1bf e3b6 0fe8 5954 d6bf
000007d0: fe09 fd4c 7493 dfbf d707 84ec a4ee aabf
000007e0: 3681 dd74 af9f c7bf bdcb 36a6 9d70 d63f
000007f0: e0f4 a567 6a82 c3bf bd7d 50c0 5de1 dcbf
-0.09117351837338032 0.31379212538917417 0.37245994344379835 0.2509765095156632 -0.37975317480045667 -0.4556336605730742 0.38724233244018097 0.1569881024671013
-0.023420522130792647 -0.03917185800447754 0.1360757506018621 0.2013464086554253 -0.1097382478515871 0.2635920233440588 0.14290483316628882 0.06987322443713667
-0.24838293288809582 -0.3745703098873211 -0.35247735088706955 -0.04939695829863627 -0.45885700569961696 0.25204048125982736 -0.09476286265042233 -0.4868355013457375
-0.3382661769322119 -0.33699262455872026 -0.02471200180981025 -0.017738746905935167 0.1924669729989929 -0.0028158661829846415 0.2852170889404874 0.14905286673356416
-0.039529237336341325 0.12468048470922892 -0.04867139288397779 0.032285666746280965 -0.4521360949273546 0.2660608541878132 -0.4680401171663305 -0.0868080831324715
-0.029937908809979194 -0.48845141187190544 -0.438880778476713 -0.39180122342717844 -0.4439330845308319 0.12999795464276306 0.4897288299070753 0.13366305630706501
-0.016807038447886266 -0.45733868197995425 -0.047231931277031874 0.5570039552027093 0.2495845398853543 -0.4635650669580838 0.360227360441502 0.14010351884454147
0.1386602543066523 0.16428706253744363 -0.29415476368942856 0.4025527908496478 0.454896885780412 -0.2518861767717544 -0.08587329975983446 0.3539836981050171
0.07151231668171874 0.26690075155662357 0.38387129147504634 -0.17057137805398329 -0.5394861349254118 0.22622659874489393 -0.14968520430118856 0.34783883395600373
-0.2596693555374012 -0.46142931975886775 -0.27836988711503 0.23739918080427663 0.014727780867991378 0.15803267218839795 -0.06831688619317129 -0.4291200946132849
-0.4309406902502833 0.28823037574678767 -0.03398107389804383 -0.15610469858397516 -0.062479311501915345 0.18864127496494967 0.4543319552680318 0.4654524034368246
0.07734198761032104 0.44221935546681734 -0.12405097592211725 -0.22395275451758134 -0.16934051483090878 -0.5392221867369663 -0.020334051564215614 -0.3237560636866529
-0.11106407721328557 -0.03474066655572779 0.24477073572978802 0.472381236397092 -0.1487723277039953 -0.0487114048379929 0.25983860211432813 -0.12829207923191857
0.20079060098815263 0.1197088704530872 -0.1398944593329098 0.15622685059346686 0.2812612514344982 0.21153741221972724 0.26827900376913444 0.08864307875985906
-0.47065136449297024 0.46061832461650754 0.25269841383142133 -0.3605678090704685 -0.21020971569481578 -0.3313269830103128 0.04330945649624465 0.31998195283606856
0.5302552527007502 -0.2688482948654636 -0.24520693335155894 -0.18945727855312494 0.1503795548366723 -0.38612368803753244 0.11840113896686204 0.04261908080337121
-0.3563100923561891 0.215950723880861 -0.2717443629206563 -0.24592348848022852 -0.49843421106187785 0.3660572337487801 -0.28639415016921377 0.10268451507060447
-0.10268005746579024 0.3004381102138111 -0.4012201553527088 -0.3704095910949616 -0.34767565133368833 0.16106047872074064 0.2685488175280157 -0.11647782174517525
-0.3428837215397205 0.2819239021902353 0.5857434064532002 -0.03301960085653825 0.19344300126230038 0.19615412965243204 0.06169742740141719 -0.29178773690153165
-0.26167334468998366 -0.03901087907266193 -0.017434765237298318 0.1444906822702533 0.11143459364990375 0.30458041160377314 -0.013145672019245155 -0.178292430882276
0.14384626527081884 -0.1508570685020368 0.351304106621871 0.4217611416974008 -0.28802462338524326 0.16773519467829573 0.16236130890153672 -0.33367239648106684
-0.17684848181644658 -0.22354480469402338 -0.19606131871775864 -0.44309731213868275 -0.3000409551083634 0.3928409636146009 0.23520355288758332 0.0569853287504357
0.22675180767824246 0.17507090358583946 -0.4352523118360312 0.2094976244828644 -0.3113945676285104 0.4094967435356718 0.4029967186790802 -0.35685777012917985
-0.3917992799211806 -0.3298669848433756 0.16946006876875178 0.2076424392898736 -0.3008563152484972 -0.40089366075577026 0.0844379431115881 0.21300105645253026
-0.21380617342286037 -0.28795822762643314 -0.03350588715027376 0.3841364908591697 -0.5392963562809543 -0.2570641229896761 0.2178143983371155 -0.4951593134448115
0.47084733076538077 0.14816855641299756 -0.4477558570173575 0.008298598439416863 0.31442792919409274 0.4343026454682891 0.37419795292659763 0.2843682826657961
0.4118637767502971 -0.042291709231559664 0.1403919788169711 0.2050311325532538 0.3365808579595373 0.22799988472886967 -0.3989253893863098 0.07343653463174336
-0.04955611828136753 -0.25819591628542904 -0.45346051085162004 -0.0922331933588142 0.2689504421511088 0.15016398122399613 0.137089685944946 0.40096381621373045
-0.11416978165168577 -0.049712266368117444 -0.30202264273544405 -0.18331737738085188 -0.2350153845795473 0.2529061766501344 0.36492647191192706 -0.00823715692480124
-0.23283040546929715 0.4172925129476358 0.3218516254952664 -0.07099581220673598 0.16495989159574978 0.15322151332276898 -0.07731577810848536 -0.3377668750113311
0.30942757379667085 0.20219836002237296 0.07609761626184469 0.23118197801148005 -0.3626879090529708 -0.06054547384603402 -0.17525760829337358 0.20744571861930264
-0.2691230937004215 -0.348898388502546 -0.4933748962249921 -0.05260196101336561 -0.18456071096717047 0.3506235240158125 -0.15241746960592817 -0.4512552621908659

lstm1.lstm.weight_hh_l0 f8 [16, 4]
00000000: 68b9 be88 baba da3f 4c09 b173 3b20 a2bf
00000010: ebe1 0320 6a79 b0bf f0a5 54ed bf1a bd3f
00000020: 3fd5 788e 35f0 d8bf a879 7d46 8949 d1bf
00000030: 6c99 855f c00d b9bf aa89 0921 cbcf d53f
00000040: 5cb6 ba29 ceaf 9bbf 9cb8 5283 f807 c73f
00000050: 9a50 b17d cb14 db3f d47e 61a0 21b4 c2bf
00000060: 0445 dca5 07a6 c23f bd14 d0af 9433 bdbf
00000070: 249b b188 aa4c d4bf 79d6 f468 ca1c d0bf
00000080: 9ffb 3755 c0f9 d13f f4ef 7e0a 27bc bd3f
00000090: 3666 bbad d0c5 d13f 1047 1666 4227 dabf
000000a0: b20a 97f6 e5ac c33f 3494 7e09 61ea ca3f
000000b0: 49a6 4288 7318 d9bf b67b 441b 8dff cabf
000000c0: efd8 ed91 bce2 d2bf 2d18 277d 9514 c73f
000000d0: 1d92 9635 ea6c d8bf 3c81 9e4f 97a2 da3f
000000e0: 193b ed1f 8999 cebf 94d0 f044 92e8 db3f
000000f0: 6ca2 446b 1dd1 d0bf a660 e062 235b d93f
00000100: a424 4e73 5e97 dcbf 7365 60d4 afbe d93f
00000110: 433d 1bbe 1d31 dcbf 32bf 0fc1 fe62 d73f
00000120: 96d7 ef75 94ad cebf 7c2a 0b22 85a5 c23f
00000130: 3423 7315 2e2a cb3f 62d9 d9c6 b846 d73f
00000140: 50ea 6916 a1c8 c0bf facf 0ca1 2a00 dc3f
00000150: b343 d6a8 b5d1 a33f 72fc cfe1 85ec d33f
00000160: 8c95 cd2b d9e2 d4bf 6b7c 5cf2 6983 c0bf
00000170: 26be 122a 292d debf f0e7 a597 96af a4bf
00000180: d54c d6de ba1f c2bf 9525 ee58 3870 d3bf
00000190: 0633 e6ce d5da d9bf 2521 7065 e942 cbbf
000001a0: 0405 3d7b 7061 ad3f f6f4 ea68 776e b3bf
000001b0: c79c f264 be79 c63f 5ea4 3a55 c42a d1bf
000001c0: ea72 7b23 14ff d13f 1cd5 dd0e b6b6 d5bf
000001d0: b9c2 887a 374a dbbf 1dbf 3577 e947 c93f
000001e0: fef0 b0b6 d6bf 5c3f 0b58 9970 bf7d da3f
000001f0: 2f8d c3d6 a5cc c23f 90ac ba71 f8e5 cbbf
0.4176470122719338 -0.03540216243028968 -0.0643526390230204 0.11368941826062673 -0.38966120637208584 -0.2701132954006433 -0.09786608059002838 0.3408077070836507
-0.027037831589657876 0.1799307481027811 0.4231442191569471 -0.14612217265220429 0.14569182966855732 -0.11406831066422547 -0.31717933033944434 -0.25175724267624094
0.2808686096395209 0.1161522293686515 0.2776986786462631 -0.4086462017959187 0.1537139371922272 0.21027768100353372 -0.3921173887889365 -0.21092380362912672
-0.2950889039124282 0.18031567202541635 -0.38164763673037944 0.4161737706690649 -0.23906053599281377 0.4360700295685629 -0.26276336169625014 0.3961876359549116
-0.44673882732656467 0.40226360072991624 -0.44049781384542913 0.36541718343413543 -0.23967223890911943 0.14567627107892978 0.21222473189689028 0.36369151515045506
-0.13112271875782477 0.43751016356986805 0.03870933233259368 0.3113112168502489 -0.3263457229389466 -0.12901043256804043 -0.4715063963767271 -0.04040213204548582
-0.14159332161634688 -0.3037243717631893 -0.4039816399097592 -0.21297948315646767 0.057384028476471755 -0.07590433417768225 0.17559032372557778 -0.2682352859797613
0.28119376626072656 -0.3392768044644343 -0.426404828703237 0.1975070793227979 0.0017547222912659972 0.4139250373458487 0.14687035547749747 -0.21795564225371722

lstm1.lstm.bias_ih_l0 f8 [16]
00000000: ecf1 6bc6 6b33 c53f 3d5e a811 3e9f cfbf
00000010: cc58 e21d 3dc2 d03f c61d 790e 19fa dc3f
00000020: 0762 7562 c99c db3f 7578 383a 27cd cbbf
00000030: affb 3877 4519 d5bf 2391 8b24 8b87 d7bf
00000040: 1e51 bc60 9928 c3bf 2312 8813 b13a c6bf
00000050: a080 b49f 530f c03f 02a8 2a44 b4cb bf3f
00000060: aa65 5d79 0593 d4bf 5a2e a3e6 281b cc3f
00000070: 98d5 3bba fa6c c2bf cd00 e97a 7176 dc3f
0.16563174427564265 -0.24704719412032886 0.26185539167762495 0.4527647630061121 0.4314444982060483 -0.21719827978899145 -0.32966744082289784 -0.3676479203115994
-0.14967648719233123 -0.17366612867057638 0.12546773241138443 0.1242020288870265 -0.3214734730914538 0.21957885037987773 -0.14395078748172518 0.444729204205953

lstm1.lstm.bias_hh_l0 f8 [16]
00000000: eef1 6b46 7503 c03f e3d0 2b37 abfe d23f
00000010: 34a7 1de2 b86e dabf c61d 79ce e140 d43f
00000020: d677 2a76 7cbd b0bf 8a87 c7c5 a5ad cb3f
00000030: aa08 8e11 146b c93f df6e 74db 2f64 dd3f
00000040: 6cd7 a18f f82e d63f dded 77ec df03 ca3f
00000050: b7bf 2530 0775 ddbf f5af aa77 315e a3bf
00000060: aa65 5df9 3be6 dbbf 592e a366 525d c13f
00000070: 3215 e222 3c46 df3f 33ff 1685 5bdb d9bf
0.12510553301389343 0.2967937506466695 -0.41300794679283404 0.31646008647336676 -0.06539132962140512 0.21623680264661643 0.19858027321976596 0.45923992568144273
0.3466168787630213 0.2032432465201585 -0.46026782705211694 -0.03782801233077741 -0.43592738487276483 0.13566045772164406 0.48866179853969804 -0.4040135192590128

lstm1.lstm.weight_ih_l0_reverse f8 [16, 16]
00000000: 659b 797a 5c96 d93f 23b5 6de9 d7e4 d2bf
00000010: 2043 ea87 e0a3 d0bf a31e 3c46 ed6a bcbf
00000020: cc5d be4c da17 ddbf a9a2 7231 2064 d13f
00000030: 7004 f6a3 cbc8 a1bf db53 8337 0df6 c7bf
00000040: 5d6e 6d14 fce2 b63f cb4d 6ab9 2927 7c3f
00000050: e894 42f6 48bf a53f 0f19 61b2 f907 dbbf
00000060: 5807 8b9e 0383 c9bf cd32 06f0 0b00 cdbf
00000070: 641d 0c2d e5b5 dc3f 08d0 4797 29d1 b9bf
00000080: 3bec 6644 5353 dfbf ee02 398c ca96 d43f
00000090: 9587 2861 eab3 cabf d4c5 95c7 9f65 cbbf
000000a0: 6c12 a164 44bd bf3f a5e6 68bd 4b57 d5bf
000000b0: c3aa 5109 f822 d63f 14c8 140e 22a1 bbbf
000000c0: 1a32 0450 2a3e d83f df96 adf6 b859 dcbf
000000d0: 1b87 78d5 0c38 d2bf fe7c 8509 9e73 b13f
000000e0: d81e 4d84 5dc1 d3bf f556 5c39 0d4c e03f
000000f0: a189 81ae 3f74 9bbf 4e6a be9a c10b c3bf
00000100: 3f47 0210 6ac8 d5bf 7c3e 9089 0bd8 a83f
00000110: 454b 04e5 f884 d9bf e321 3f5d e3f5 c9bf
00000120: 2b14 9f0d 2d3d babf 94c8 69b8 4f09 de3f
00000130: 9738 a3e2 32dd de3f 30d0 db76 a6b9 d1bf
00000140: 5a0e 686a 1b25 b23f b500 3259 bb0a 923f
00000150: 0bdd 5190 62f9 cf3f baf1 3d3c a6ce e13f
00000160: a57e 5755 206d c73f e523 80f6 d48e d93f
00000170: 3fd9 b8db d4f8 da3f 9b6e e073 b896 cf3f
00000180: f91a c698 8967 c73f ecba bce8 d409 d1bf
00000190: 13bb 384b b0a1 bcbf 0fe9 c0a4 9c47 afbf
000001a0: 594d 9e1d 6c2e c4bf 1a7b 8ab9 abc3 df3f
000001b0: e4c8 44ce 8f61 b8bf fec1 0852 33ec c03f
000001c0: dcf4 e281 89b9 d8bf 4dbf 9c3b 7b72 d6bf
000001d0: 8fab 0120 aa45 b83f f843 4b24 0a73 d63f
000001e0: 4dad e416 79c0 92bf aeb6 edc2 9442 c63f
000001f0: 2f69 a1cb a90f b3bf b0c0 2918 05a1 d5bf
00000200: 90e9 52ed 5489 d6bf ae2e c3d9 e1bf d63f
00000210: 75cb d416 beac bcbf f5d8 8c28 32dc e03f
00000220: 0d4c 3396 1381 d0bf cb2f 53df 142f d7bf
00000230: 4197 f8ad f2ea c83f ca7d aeec 1a4c debf
00000240: 5754 bbd2 2b1a da3f 4a8f 9d80 8bb4 cbbf
00000250: f300 1c88 50fb d5bf 99ba 6225 3f8c df3f
00000260: f1c5 81fc 8821 d5bf c5f2 986b 81ce da3f
00000270: a14e 7ec2 809c bdbf 1623 888a 00f6 d0bf
00000280: 84cc dce3 22a4 db3f 5edd 598f 6644 c4bf
00000290: f115 6fe4 bdc5 df3f 63c0 92b0 2f9e c3bf
000002a0: 35be e5d2 f2c4 c63f 85bd 88cd e589 d5bf
000002b0: c224 9e64 2818 d1bf 84d0 805f 018e b23f
000002c0: 59d7 aa73 4ff3 d83f c152 7939 445f 97bf
000002d0: bd01 f44a 93ae c33f f2f2 12e8 e60d de3f
000002e0: 86c2 164b 2c9f b33f b21e 5b3e 8d37 d6bf
000002f0: 4d6d 5e54 2507 c73f b9c3 9420 94fd c83f
00000300: fdc1 1449 bc74 dfbf d4d1 d38c d394 e03f
00000310: 12e4 3813 9698 db3f 60e0 981b c605 aa3f
00000320: c859 f2b3 8e0a cabf 8b03 081c fbda debf
00000330: 27d9 2e4e 62db da3f 747f f9b7 c60f d63f
00000340: bafa 7a8a 076c d4bf b406 45f2 3c0a e0bf
00000350: 0c1e 36d2 6b83 cfbf 9ceb afeb 68a9 d8bf
00000360: d24a c687 d60b e23f 3f96 f8ac 0333 b8bf
00000370: 4bc7 1e9e e698 cf3f b2d5 ab60 3ef6 d03f
00000380: e0d9 c36c 21e7 ccbf be3b c384 5aa2 cabf
00000390: 00bc f512 894f d23f 099d d112 14ce d33f
000003a0: 8b07 f402 b24d dabf f345 1674 a6ea b4bf
000003b0: 5078 c5c3 7f6c cdbf ebd0 fc87 5767 bebf
000003c0: 2b6e a1da 6bfa 85bf fed5 6363 f5bd d23f
000003d0: 69ea 4b6f bf20 c23f 9fb0 2df5 0e8f dd3f
000003e0: 25a4 ba67 5a19 cd3f f257 c838 f25a b13f
000003f0: 5db3 de4a 61a1 ce3f 78b8 f7dd 3d44 d93f
00000400: 8e3e 1283 b538 c0bf 94cd 5bb7 16d8 b9bf
00000410: e5d9 41dc 30c8 d03f 312e 87e7 34fb dabf
00000420: d6db 8100 3bce 7cbf 1ffc b656 2108 a2bf
00000430: 5f76 337d 55ad dc3f 470a f1f1 ad4e d4bf
00000440: 38b1 fae8 6e68 e0bf ce55 0fae 7801 d6bf
00000450: aa82 95ff 4d26 d5bf 6d98 d19c b5d2 d53f
00000460: 54e2 b3e3 0b0a babf 5f22 496c 1b2f d6bf
00000470: beed e070 fa9a c0bf 377a 9eb2 1aa3 c03f
00000480: 9da7 95e5 c230 b33f 40fc 9faa 3818 dfbf
00000490: 053e 9a30 1c1f d4bf f155 02ff 7dc2 a3bf
000004a0: 9bbb 8f0d a657 cebf b0af a78a 696f d8bf
000004b0: 7518 491a 10d7 c03f 96af dfa2 8102 9fbf
000004c0: 3f54 7731 b820 d23f 08ea 264e 6aba dbbf
000004d0: 4ce7 facc b9db d53f 72fd bd55 3108 d33f
000004e0: 955b c44e af2a dc3f b93c fb2c 13dc d9bf
000004f0: c89e 19d6 d3a9 c93f b21f 97fe 9418 d03f
00000500: 179e 85ec a7b3 d03f e93a e774 7b45 debf
00000510: 0a48 1f3c 65eb a33f e352 2442 7560 c3bf
00000520: 34da 6dc4 076c cebf dbdf 4735 6e49 c53f
00000530: f5db 7ebd f054 c93f 7ce2 2614 b246 913f
00000540: 0e8f ae5f 26ae d4bf e742 dbfc 5064 cd3f
00000550: 14c1 b247 449a db3f 7fc9 f7aa 42c5 dd3f
00000560: 24bd d2bc 3781 df3f f005 018e b3a1 c23f
00000570: efda 5668 cdeb 9fbf c82c 6aff 8c7b d63f
00000580: 4a3d 51f5 25c9 c23f b587 45c9 ea70 a93f
00000590: fbcf 7dec 2413 d5bf 707b 5b18 ed89 9a3f
000005a0: 980e 043a 911c d93f 43d3 ecbc 8acf c2bf
000005b0: 8a3b f117 4e49 cd3f 0c28 ddf1 b221 d13f
000005c0: bc79 4fc4 c4e0 d4bf 0ccf 4b6c 9efd 9b3f
000005d0: e003 cf40 465f a1bf be57 b018 277c c7bf
000005e0: 30c6 c971 1bfb c4bf 7ef3 2c47 f95b d3bf
000005f0: 7b65 4614 7a33 c23f 2551 bce8 7c3d c8bf
00000600: 2c2b b0f2 9c10 c8bf 9a67 55a7 0bd1 dfbf
00000610: a2cf 7d0c bfc9 d63f 88fd 1948 e2d7 d73f
00000620: de32 e662 c462 a9bf dd34 cfd8 0739 cfbf
00000630: b48f 8f86 658e d2bf f286 278f e0bf d93f
00000640: 93cd 60ab fdbd bcbf 7861 3031 2d1c c83f
00000650: 92bb 43b3 5e45 b13f f973 8f0d 3eae aebf
00000660: 0002 ea06 9cdd 93bf 2fe7 4ba2 461b c3bf
00000670: ac58 a84c 71af ce3f 1f50 6543 88d7 cfbf
00000680: 2310 f712 e834 c1bf b52e a4a8 393f 9b3f
00000690: c7fa 07e1 5571 a43f 7ab6 e912 27d9 babf
000006a0: 6f0d 874c 919f cb3f d395 2fe7 ee94 b63f
000006b0: 5f2a b92d 9297 d63f e0d2 5b6a 5940 d2bf
000006c0: cb23 5fc9 d7b0 abbf a033 5c13 812c a13f
000006d0: 4345 5355 fdbd c2bf a323 9721 e37a 93bf
000006e0: 83da 9805 07bf d13f f1fa dea5 18ed d5bf
000006f0: 9c0d 2052 8a06 a6bf 01b0 8b77 60da d23f
00000700: 3ea6 fd84 7040 ddbf 052e 80d8 3a38 d0bf
00000710: d4bf 5d16 49d9 cb3f 0dc3 c0c6 1526 a23f
00000720: f2fc 4b59 a826 b53f d765 8e9f 353d d5bf
00000730: e55b 6324 483b d3bf df95 6975 8f98 dfbf
00000740: 91f6 1127 2299 cebf c21a 7e3d 5b2e d2bf
00000750: 3cf6 b68a a928 d4bf da21 f884 a201 d93f
00000760: 15ce c25f a366 aabf 1c6c 7f2c da7e d8bf
00000770: ca9c 3755 6889 dfbf 9dab 0892 3a77 ddbf
00000780: b1f0 64a6 b0bd d2bf 9be8 c9cf 658f ae3f
00000790: c6a1 4d76 41a6 d83f 04d5 aa0d 7cd2 c43f
000007a0: 25cf 07ef 6101 d63f 7b0e 80af 3bdc d9bf
000007b0: 5935 6370 4f4f a03f 6334 01d4 b0f9 b43f
000007c0: c639 607e e78a c2bf f3f8 d395 dcc6 d03f
000007d0: c2d8 1c34 67ab b93f 73d5 794b 992a d93f
000007e0: 0af3 f107 fbf7 da3f c6b4 42d4 2831 dabf
000007f0: 3b44 ad24 b3c2 cbbf a60e 1abe 1341 e1bf
0.39980232201053517 -0.2952174930167805 -0.26000226281125727 -0.11100657429426035 -0.4545808553170587 0.27173619107137853 -0.03473507286526789 -0.1871963997897684
0.08940101145474828 0.006873286233389074 0.04247501379112767 -0.4223617784486046 -0.19931073418961875 -0.2265639230721689 0.4486020030894535 -0.10084781592723868
-0.4894607704151814 0.3217035645830454 -0.2086155867009977 -0.21403882260669482 0.12398173767821569 -0.33345311638877667 0.3458843317991233 -0.10792744487551459
0.37879426778889214 -0.4429762276616724 -0.28467102858313503 0.06817043049294466 -0.308677081299249 0.5092836494756897 -0.026810641313554155 -0.14879627281045987
-0.3403573185288344 0.04852329305878997 -0.39874098172110833 -0.20281641057068986 -0.10249597151330707 0.4693183232221909 0.4822509015329017 -0.27695619208612055
0.0708787092954081 0.017619063681650633 0.2497981266676351 0.5564757515526744 0.183017770453252 0.39934276649779427 0.4214374681208887 0.2467871251873149
0.18284721336041068 -0.2662250778984532 -0.11184217297043757 -0.0610932303538495 -0.15766669698914873 0.4963177978442431 -0.09523867402893732 0.13220826631142296
-0.3863242882178619 -0.35073738881600464 0.0948129966870239 0.350771460955968 -0.018312351248068116 0.17390689390179176 -0.07445775243232754 -0.3379528747527827
-0.3521320645919781 0.35546156183111577 -0.11201084191706719 0.5268793861385165 -0.2578782049942568 -0.3622486287028976 0.1946700429409081 -0.47339509118498013
0.4078473623206426 -0.2164472940449918 -0.34346402446682517 0.4929349770635923 -0.3301718202484088 0.4188540983921423 -0.1156692957723018 -0.265014777455279
0.43189308407017557 -0.15833742141306123 0.49644419963837466 -0.1532649624036849 0.1778853921673417 -0.3365416056794504 -0.26709947420074454 0.07247932988758704
0.3898504857601118 -0.022824350364617944 0.153765117262095 0.46959850944021675 0.07664753754830586 -0.3471406086868952 0.17990557307789815 0.19523860541224083
-0.49149996887993536 0.5181672812018925 0.43118812443896204 0.05082530104522287 -0.20344718729457 -0.48211553323204076 0.4196401370530957 0.3447129055621112
-0.31909359477496546 -0.5012497646168499 -0.2461981560156662 -0.3853399564392761 0.5639450694892167 -0.094528417329081 0.24685366364206582 0.26502952042150263
-0.22580354510110023 -0.20807963831472692 0.2861044583468697 0.30945302808545755 -0.41099214828874925 -0.08170547804026977 -0.22987362918041976 -0.11876437253960474
-0.01073154698331454 0.2928441496472657 0.14162438330079688 0.4618565935441072 0.2273362165917955 0.06779397856038807 0.2392999282432368 0.3947901408818164
-0.12673062229122362 -0.10095350243118723 0.2622186804723284 -0.4215824376121616 -0.007032614208688911 -0.035218278727818346 0.44807946421301453 -0.317302213927324
-0.5127481985451032 -0.3438398074916592 -0.33046293219926304 0.3409856826241427 -0.10171579655787727 -0.3466251904942847 -0.12972956191684476 0.12997754785188118
0.07496278863041402 -0.4858533540972907 -0.3143988108285785 -0.038593232516330185 -0.23704982435398567 -0.3818000654271101 0.1315631988856613 -0.030282998624826606
0.28324704008747753 -0.43325288421661456 0.34153599755847064 0.2973750436139745 0.4401052731713489 -0.4040573062201918 0.20049522356133864 0.2515003668054262
0.26096532914968534 -0.4729908601411084 0.03890529974854935 -0.15138116578659497 -0.23767182437195944 0.16630342103576265 0.19790467503273104 0.01687124488828083
-0.3231292662041917 0.2296239123011425 0.43129069330008574 0.4651648206337526 0.492261824033408 0.14555973466671857 -0.031172952168811937 0.3512909406933429
0.1467635581816274 0.04968961436203704 -0.3292934712874282 0.025916771518378068 0.39236860910043836 -0.14695867752893763 0.22879959267671907 0.267681823916633
-0.3262187878698588 0.027334666595336052 -0.03393001118775607 -0.18347634034642896 -0.1639131837469434 -0.3024886317323804 0.14219594945897626 -0.18937646259349453
-0.18800699090965034 -0.49713412610219054 0.3560636159884273 0.3725515083424047 -0.049581658432634276 -0.24392793737789634 -0.28994119778348737 0.4023362539283958
-0.11227403101002258 0.1883598795109369 0.06746475102020913 -0.0599231139710596 -0.019400060579302547 -0.14926989483483896 0.23972908251807235 -0.24876502314384738
-0.134427079448984 0.026608372610140225 0.03992718097651032 -0.10487598621122088 0.21580711590477672 0.08821004051386376 0.3530011602894429 -0.28517756830778573
-0.05408357937955762 0.03354266511278259 -0.14642302194855902 -0.01902346508521514 0.2772843889864946 -0.34259620855657064 -0.04301864864830948 0.29457866358166035
-0.4570580767382103 -0.25343199865957927 0.21756852714633956 0.035446815978849334 0.0826211183557353 -0.33186092931427197 -0.3004932742455238 -0.4936865469556703
-0.2390482607624347 -0.2840793705476409 -0.3149818281779948 0.3907247828033441 -0.05156431716877933 -0.38274244637949706 -0.49276169130321235 -0.4604021478759764
-0.2928277611679376 0.05968778764231893 0.3851474433236287 0.1626734797224928 0.34383438437292774 -0.4040669645184846 0.031855089635068175 0.08193497825523503
-0.14486402197549192 0.26213755256311727 0.10027165434152877 0.39322502489752437 0.4213855340565692 -0.4092504570824754 -0.2168792656980559 -0.5391939843106754

lstm1.lstm.weight_hh_l0_reverse f8 [16, 4]
00000000: dbf8 6b93 3561 d0bf 4b66 75f0 193a dabf
00000010: 264f 32bb 95f6 d93f b9cb 4769 8cfb df3f
00000020: c708 8828 caae d3bf e276 d819 371e d93f
00000030: 3b21 a58b 9a87 d8bf 603c 447f a6ec b63f
00000040: 7f11 efd0 90d8 db3f 6d5f 2476 7baf d13f
00000050: 89be a8ac e130 a0bf 89ff d0cd e15a cebf
00000060: bcfe 3c19 8797 d43f 418f bd9e ffb9 d63f
00000070: b6e3 594a c282 d83f 5a73 e0bb 6e38 b13f
00000080: a891 f964 ef8e b43f 2cae 9bbc 500c ce3f
00000090: 353f ce92 1cbf ddbf ad24 1a03 c09f d53f
000000a0: 1894 4ad5 b239 cb3f 55b7 3b45 2b75 db3f
000000b0: b6e7 3909 5001 d1bf b4e5 5df7 12a5 ca3f
000000c0: 8c2e cb9c c23d b0bf 76e5 efa8 43bb d5bf
000000d0: b475 b5c0 5b8b d9bf 5977 94d2 cb9a cbbf
000000e0: 94cf 6c3e 973f e0bf 2d01 d2a5 3154 cfbf
000000f0: e314 5faf d542 cebf 5da9 679b bf29 dcbf
00000100: 0c59 9a22 4b92 d93f 08a3 b320 f527 dd3f
00000110: ee9a 9b72 8086 c83f fef7 5495 28c3 d73f
00000120: e260 3088 a852 b53f e2cd f31e 1b9d d3bf
00000130: eab9 98da 249b a73f d451 a6b7 3434 ba3f
00000140: 12f1 7611 21a0 b9bf e8c3 6afc 68d5 c43f
00000150: 83a1 e281 d3b1 92bf 9a42 c6d4 91ea b83f
00000160: 19cb 64d9 a12e afbf bdeb 21b9 c5e9 d83f
00000170: cba7 65a1 ea16 d03f 016d e737 cedc debf
00000180: 91f8 3f08 a324 d33f b907 5bdd 7ca4 c0bf
00000190: 2bf2 768b 853c a43f 5873 d80a 5377 b8bf
000001a0: a1ed 115d 9650 ccbf 7aeb ad53 1896 d53f
000001b0: 3d3a 7238 ff04 c7bf 6e92 7fc1 1c65 d23f
000001c0: 1dc9 9b10 0c0b dc3f c08b 64b8 17df ba3f
000001d0: f012 2d3a 02e7 b93f 2ee3 d37d f859 d5bf
000001e0: 6064 8751 31ec d8bf 5ac7 a986 c911 d5bf
000001f0: 1664 298b 9cbe dfbf 9a3f 0fef ef12 e03f
-0.25593318363816103 -0.40979622347149264 0.4056753471461313 0.4997283008698861 -0.30754331548827135 0.3924691917799078 -0.38327659260950825 0.0895484982213346
0.4350931206102117 0.2763355878573666 -0.0316229365602086 -0.2371484999621283 0.3217485186068918 0.35510244848250144 0.3829808927617323 0.06726734244189228
0.08030601706702234 0.234750835508167 -0.4647895272873826 0.33787536910001387 0.21269832052817672 0.42902642975865507 -0.2657051172351389 0.20816266134697303
-0.06344238594027213 -0.3395547055984801 -0.3991307622835294 -0.2156615045759576 -0.5077625483740911 -0.24475689503379652 -0.236414633398602 -0.4400481240869761
0.3995540464324143 0.4555638141014673 0.19160466762624345 0.3712865312880921 0.08329251599241475 -0.3064639856595176 0.04610552948394171 0.10235909923205294
-0.10009962726957536 0.16276275944758756 -0.018256478121345687 0.09732924885453045 -0.060902650630302264 0.38926833228441265 0.2513987136977646 -0.48222690066695867
0.29911113553669916 -0.1300197678411317 0.03952424361657266 -0.09557074560912093 -0.2212093309825436 0.3372860734158888 -0.17983999496614614 0.28742140671082594
0.4381742632096051 0.10496662380005173 0.10118116302789892 -0.33361637390003096 -0.3894160553150581 -0.3292106452055258 -0.49600900259025715 0.5023116749889482

lstm1.lstm.bias_ih_l0_reverse f8 [16]
00000000: ad6e e357 81c2 a7bf b216 3519 0a99 a33f
00000010: 70a1 7791 467b b9bf 4989 201e 9e82 cdbf
00000020: 90ae 21f1 6bca c33f 2973 848d 973d d5bf
00000030: 72b9 7418 5d0d e2bf 3df6 308f 522b abbf
00000040: 9260 161c 4830 d5bf 61d2 6a8d d581 dcbf
00000050: bf0c 6f05 64a8 c93f 4a46 1039 07b8 d2bf
00000060: 7169 fda3 b7ec e0bf d5c2 a72e 0e61 99bf
00000070: ccc0 6748 379c d73f 21aa b6ee 78ab c7bf
-0.04640583227020776 0.0382769733210301 -0.09953728724906852 -0.23054863425302077 0.15461491846086917 -0.3318842775350271 -0.5641313054709782 -0.05306489942493584
-0.3310718797961353 -0.44542445001869707 0.2004513765842599 -0.292482190824647 -0.5288961604049246 -0.02478429946671919 0.3689096648295276 -0.18492042213377238

lstm1.lstm.bias_hh_l0_reverse f8 [16]
00000000: 2e92 0315 f062 d83f 612d 6a32 2cd3 9c3f
00000010: 452f 4437 ca30 c03f 9912 413c 8c08 b2bf
00000020: f0d2 3524 0ed6 7f3f 6bc6 3dd9 4a33 e03f
00000030: 501a 2d1e 231f ce3f 74c2 33dc 63a6 c23f
00000040: 6e9f e963 28db d43f 61d2 6a4d 4800 d9bf
00000050: 5986 b782 1a7d d43f 2419 41e4 92ce b7bf
00000060: 1469 29c0 0995 af3f 5cf8 d445 a09f c3bf
00000070: ebfc 60de 8a91 b4bf 4154 6ddd 896d b2bf
0.3810386853422497 0.028149309708664364 0.1264889497618872 -0.0704429289917904 0.007772498359703603 0.5062612765306772 0.23532523129888938 0.14570282222804887
0.32587632901276364 -0.390642238238149 0.32013571515390066 -0.09299581596960543 0.06168394537663083 -0.1533089009262224 -0.08034580163165443 -0.07198392539915323

lstm1.lstm.weight_ih_l1 f8 [16, 8]
00000000: 4fff f671 8600 d63f 9f3c e6e8 5d15 943f
00000010: fb45 378c fe49 d0bf 2756 8ed2 1dac b6bf
00000020: c8d6 1cde 6729 d0bf 806a 6708 ee7e c5bf
00000030: f960 0dea 299a bd3f 4c25 b344 d54c c9bf
00000040: 6650 7298 a313 d73f 9a99 b259 f857 c83f
00000050: 27dd a7bd f978 c0bf d0df 4caa 01ba d93f
00000060: 7ef2 8ba3 b95e dfbf d19a 7333 9baa cebf
00000070: 084d 79b6 42c0 bb3f 503a 03eb 92e3 d03f
00000080: da27 118c 5713 72bf 3be3 9dd3 7647 bf3f
00000090: 8918 658a 4f3e ddbf 9ecf 68b4 187a ddbf
000000a0: 727e 125e 788b d73f ea5b 0a13 4036 cd3f
000000b0: 17d4 1f9d e97c cebf 105b 39d5 74c2 ddbf
000000c0: 5a79 409e ccb1 cebf 6ec4 c6d4 d57f 87bf
000000d0: 1d83 f5cf db33 d8bf d097 0add 403e d33f
000000e0: 5f69 9b3d 6f65 d83f a58d 1224 3c18 dabf
000000f0: 6cde de4b e3c6 d9bf c5f5 5d9a aa14 d6bf
00000100: a713 b380 efb1 d2bf 33b2 95cb f78e a9bf
00000110: c417 4893 6e29 d13f 84a6 3f07 17b6 dc3f
00000120: 8095 3003 59a5 d53f 9974 814b 6a63 bdbf
00000130: ee4b 642e 6f47 dcbf b45f 18dc 15ef dabf
00000140: bf34 87db d5f3 d4bf 6f17 6ca0 49d8 dbbf
00000150: b296 6a91 cbcb c83f 8017 0179 bcfc d3bf
00000160: 0abe b3f8 7b2d da3f 81d0 63c4 3995 d1bf
00000170: a665 fc20 7a33 dc3f 4529 5a75 dcd9 d33f
00000180: 4f27 3303 f436 cc3f 4a3c 6b47 5871 bfbf
00000190: a765 def3 9858 d03f 2dbc 55fa c1a3 c6bf
000001a0: 1283 3eac f296 bebf 957f 9512 82dc c1bf
000001b0: 0ce1 cfc8 39ad b43f 5bb8 318f 070f c8bf
000001c0: 7d11 681b be31 8abf 4b14 635a 7161 d9bf
000001d0: 85e3 4061 d6dd c4bf 21d0 2500 e30a d43f
000001e0: 9566 cdba 4514 debf eb81 2fea 0c82 d3bf
000001f0: 0927 e8cb d261 db3f b5e6 c7f9 ebdc d4bf
00000200: 04ad 6b54 37ec d93f ceac f453 40bd cdbf
00000210: e30a 0583 afc7 d43f 2407 c65e 97a3 dfbf
00000220: 6464 9028 5c18 91bf 3aa5 5711 6d77 c8bf
00000230: 9775 db1a effd b43f 333d 86b5 bc9a d93f
00000240: 10ce 5188 43ab d4bf fb8a 32d7 584f dbbf
00000250: 83ad e449 1de7 dc3f 250e 8447 c763 b33f
00000260: df06 f021 e85c d83f 28ab ffdb 3d6e cd3f
00000270: 61c5 c7aa dd6a dbbf d89c a0f0 fc16 d23f
00000280: 2818 baa2 40d2 7fbf c813 0c47 de55 d6bf
00000290: e499 83b6 5b77 dfbf 0d41 9b12 f217 9abf
000002a0: a380 1e2e 3a6f a1bf da94 ca64 e7c5 d53f
000002b0: 2389 e615 a22a b3bf 64e5 1a92 16db e03f
000002c0: 513f 06bc b234 ddbe 8097 3bde 7f11 d33f
000002d0: c719 fec6 9fad a23f 3174 80b1 679f d03f
000002e0: b51a 64f6 a547 d7bf 92a3 f82d 83d0 b73f
000002f0: 1f7a 97fc e8bb c43f 547e 92c8 66e5 c7bf
00000300: dc85 8983 be89 d83f c762 a7ef e2b5 ac3f
00000310: d07a 7fcb 1233 d03f 30f0 1b03 5658 d7bf
00000320: b883 beb0 679f da3f 4347 9a1d 5930 c1bf
00000330: d002 5550 6133 c1bf 4057 faac 958e d5bf
00000340: c1ef 7574 89d9 dd3f 6663 4052 b633 dcbf
00000350: 8774 900e baa9 c03f b711 80d7 309c d93f
00000360: 338c 045e 858e 923f ee44 1768 8405 a73f
00000370: 1aab 0448 e44a d8bf d8d2 a9ba 034d d93f
00000380: 88f8 154e bafe d53f c17f 56d7 c8da e13f
00000390: b43d 4e24 ce71 d6bf 2d36 5e87 0009 70bf
000003a0: 85b5 486f e6a0 d43f dce1 0a05 0918 cf3f
000003b0: b23f 9ff1 b00d c3bf d4c0 449d bb07 dabf
000003c0: 1465 374a c208 d03f 8430 b911 804a d5bf
000003d0: db0c 0db2 6a43 c93f 134a 3993 a554 dbbf
000003e0: edda 07f5 d23a d23f 737d f29f 31f8 d2bf
000003f0: 5a08 bdc3 0c74 d0bf 6d9a 9679 90c1 bb3f
0.3437820542276215 0.019612758007096272 -0.25451625531158556 -0.08856378927733798 -0.25252720537842466 -0.16793609056806602 0.11563360180059935 -0.19765725950700597
0.360573672174047 0.19018463496940968 -0.12869188080342406 0.40197793608558374 -0.4901565644393385 -0.23958148968013984 0.10840241389205485 0.26389000845384647
-0.004412977200511004 0.12218420664238476 -0.45692814364554885 -0.4605771791277621 0.3678875845598447 0.2282180874796887 -0.2381870286186831 -0.46499367544804304
-0.23980100371495433 -0.011474295192643615 -0.3781652003145142 0.30067464433738866 0.38119107261959145 -0.4077291824598553 -0.40276415261494125 -0.3450113780489484
-0.2921103245574223 -0.04991888389745149 0.26815380461664184 0.44861388881563635 0.33821702300550527 -0.11479820578957102 -0.4418600037617456 -0.42084261411354906
-0.3273825305776192 -0.4350761477111211 0.1937193355599241 -0.31230079476187456 0.4090261391383768 -0.27473301104260633 0.44064191075593795 0.31017219028639814
0.22042703777543202 -0.12282325500130856 0.25540756049448493 -0.1768724891985313 -0.11949078278713568 -0.13954187304898072 0.08076821472775836 -0.18795866481690635
-0.012790188990955848 -0.3965724356351685 -0.16301994084076568 0.31316447271751896 -0.4699873279802003 -0.30481264943776293 0.4278456679609098 -0.3259839953676463
0.4050424885196693 -0.23233799075510436 0.32468784136669465 -0.49435981993893763 -0.016694488502342245 -0.191144593685104 0.08199972539610766 0.40006940581311595
-0.32295311272102456 -0.42671795859693845 0.4516061040510168 0.07574124809257705 0.3806705790922091 0.22992680780529295 -0.42839757612008184 0.282653079021157
-0.007768871768012921 -0.3489909833736502 -0.49166004966391896 -0.02548197020115688 -0.034051721696642966 0.34020409434226695 -0.07486928019219312 0.5267441609968668
-6.963217800040463e-06 0.29794308378620116 0.03648089698895123 0.25972931226880563 -0.3637480646288325 0.09302539703698035 0.1619845612867303 -0.1866882781368867
0.3834072384398419 0.05607518363439606 0.25311727402542505 -0.36476660064340916 0.4159793115632584 -0.13428796716157806 -0.1343804971929985 -0.33682767765400357
0.4664024007140562 -0.4406562617528408 0.13017965041300192 0.40015812916706345 0.018121799338711674 0.04496396799698653 -0.37957102807074394 0.39532559613080087
0.3436723482663031 0.557957096654711 -0.3506961206957968 -0.003914835038711523 0.32232056491451316 0.24292099710670711 -0.14885532186462808 -0.406721976835809
0.25053460357374147 -0.3326721356468243 0.19736989683051473 -0.4270414293033877 0.2848403351667191 -0.29639855022283895 -0.25708312144354795 0.10842230766739087

lstm1.lstm.weight_hh_l1 f8 [16, 4]
00000000: 3a65 d6ce 7cb9 c03f 20dd 1698 a426 d2bf
00000010: 2441 8fab fd0a 983f 6f28 0c90 80d8 c7bf
00000020: 366a 167f de36 e0bf 5bd6 941c 5319 bdbf
00000030: a19c 6cc3 39fd 90bf 156f 8837 71aa cf3f
00000040: 86bf 4975 63f3 d13f 843e 96fb 2869 b7bf
00000050: c625 7e5c 3a16 d4bf 915b 0792 4aee b23f
00000060: 4ce6 4499 73f7 dc3f eb96 c276 3fb2 d53f
00000070: b801 8bc2 17b3 cf3f a199 05f1 a163 d03f
00000080: 70aa 0574 bd44 d13f 531a f14e 2597 cebf
00000090: 3624 b8ff 2027 ce3f c25c acc9 2af9 d1bf
000000a0: d6d4 dc10 47b8 9dbf af97 ae3d 91c3 b6bf
000000b0: e5c9 8c08 6485 d3bf 6e65 597d 290b d73f
000000c0: 8ff1 fd9c 294c d73f a53d 602c 25b4 d03f
000000d0: 3c97 8be0 7468 d7bf 10a0 4633 0b55 d43f
000000e0: 5dd8 a216 635d d8bf 9cce 3878 7cfd 7fbf
000000f0: 21b3 c189 86ae b9bf a409 35b1 02a4 b4bf
00000100: 2f58 de0f 4fda bb3f 7fa1 827b 49e9 a3bf
00000110: e1c7 9dcf 32b7 d3bf 3a5b 9dbf 2cf6 d6bf
00000120: 54d8 6a21 49c3 dabf 5261 9e62 5c8a 9fbf
00000130: 374d 1ea6 25f5 d53f 6318 7df5 0089 bdbf
00000140: ffa0 7d55 11e0 dc3f 497e 796d c1f1 d2bf
00000150: 8235 4b58 cc67 ccbf 2623 bf7e 9dec c6bf
00000160: 53bf 9668 9253 d13f 3604 93f5 8ffd da3f
00000170: be45 3bdb 3972 e03f e4a2 93a0 9420 d5bf
00000180: f3d5 9169 4599 d8bf cac5 5a29 bfdb dfbf
00000190: 766d fc71 d274 d73f 44f6 5d22 e87f d0bf
000001a0: 3a9d 20bb c625 a4bf 2ac2 284a 2d64 d2bf
000001b0: e10c f296 3573 bfbf 6f30 d141 c8c8 c8bf
000001c0: f018 91a6 ba0a be3f 57f3 c206 b06e b03f
000001d0: 6d12 1cfb 7e3a ddbf 76b4 e7f2 2cfc b73f
000001e0: a296 3069 402f e0bf bfa0 d467 2a51 c23f
000001f0: ed2e 25cd bd91 aebf a7a4 8ea3 d1b6 c63f
0.13066063022123747 -0.2836085782286819 0.023479426952520602 -0.18629462274140304 -0.5066978914431448 -0.11366767356670364 -0.016590979149580524 0.24738898479051188
0.28048025564111645 -0.09144836561449138 -0.3138566878556869 0.07394853654055412 0.45260324447335587 0.33900438878695976 0.24765297888917615 0.2560810903290989
0.2698205597904808 -0.23898760180073228 0.23556911932272023 -0.2808329553094603 -0.029023275760853583 -0.08892162090214016 -0.3050165256019269 0.3600562786210365
0.3640235932469062 0.26099519094074203 -0.3657505219292607 0.31769065864000456 -0.38069989405210497 -0.007810102662506726 -0.10031929839324195 -0.08062760187480095
0.10879987847724303 -0.03888921387380417 -0.30805654788048115 -0.3587753173100513 -0.41816929114736934 -0.030801242369848332 0.3430875894784608 -0.11537176125884367
0.4511760077352988 -0.2960055893981673 -0.22191767035694104 -0.1790959233169584 0.2707258244872623 0.42172621709693503 0.513943603693569 -0.33011356049841667
-0.38435492810762567 -0.4977872756818128 0.36650525218438845 -0.2578068099609008 -0.0393507102419854 -0.2873643135272085 -0.12285170493310062 -0.19362738813140676
0.1173512131364054 0.06418895878864582 -0.4566953136675583 0.09369164400387028 -0.5057680181968929 0.14310197896816665 -0.05970566872801251 0.17745419012252237

lstm1.lstm.bias_ih_l1 f8 [16]
00000000: c4f2 3cff 0ddf a8bf 3de0 2a4c a01c c3bf
00000010: fde9 cb1c bdf6 c5bf cc9d 0aff 3b58 e03f
00000020: b731 eadd 2f28 d5bf 1357 627d ad7c d43f
00000030: 5dd5 b7ef 260a ccbf 7983 7522 84d3 a33f
00000040: 5587 fc83 4dee d4bf c98c 120b 173e cd3f
00000050: bc64 970d b866 a2bf 3635 037f ec1f cabf
00000060: bfb8 c294 88f1 db3f ca4c 4ab4 83ec dabf
00000070: 0b6f 0079 2c51 d73f 7444 f944 cc86 8d3f
-0.048576772124282935 -0.14931110114207682 -0.17159236818390858 0.5107707959440915 -0.3305778185975003 0.3201097225622657 -0.2190598173616917 0.03872311516420885
-0.32704484834004194 0.22845733681342598 -0.03593993345175181 -0.20409923745902753 0.43661703612714214 -0.4206856976172274 0.36432945076534 0.01441726289263754

lstm1.lstm.bias_hh_l1 f8 [16]
00000000: 4fc3 3080 f035 c23f 3de0 2acc 850c cabf
00000010: fcf4 65ce d209 dcbf 12dd a9f0 db8d af3f
00000020: dcc6 a877 0886 bfbf 1357 627d 1180 d83f
00000030: a42a 4890 75b2 c33f 74b0 4e84 c8db d43f
00000040: ab78 037c ff18 dd3f 6946 8945 9048 d23f
00000050: 99ec b281 4c2a dfbf 949a 813f e1e9 dbbf
00000060: bfb8 c294 a93a d83f 7366 6b17 8a27 ce3f
00000070: 13de 0072 b01d ce3f 28ca 27a2 8917 dc3f
0.1422711015634612 -0.20350716084590373 -0.438099576531229 0.061629174354431396 -0.1231389324318814 0.3828166698889259 0.15388364357962303 0.32591450615542006
0.4546507559842989 0.28567892828605196 -0.4869567171660463 -0.436149894731366 0.3785804703465025 0.23558164733440243 0.23528104368755062 0.438936622958098

lstm1.lstm.weight_ih_l1_reverse f8 [16, 8]
00000000: e1dd 868a 334e b5bf b8c6 098e 0d4b a9bf
00000010: 67c2 c15e 19fa a53f 90a1 cbae acb9 d03f
00000020: 6e42 2482 a2cf e03f 0297 b181 3714 7dbf
00000030: 51dc 8931 7e52 bbbf 2486 7481 cfed e0bf
00000040: 1892 ce59 c281 d83f ed93 1b2f a8aa d43f
00000050: 6be6 56a8 0ace bd3f e27c cc48 bf75 cb3f
00000060: 3cb1 6da7 da43 d6bf 4573 0590 dbe9 da3f
00000070: 3bf8 bc42 adf6 d53f 0575 41ba 00c9 e13f
00000080: a15c 48b1 48af 97bf 0872 759e aa5d c1bf
00000090: e602 a36f 94ef dd3f 7218 451c 6cb7 c83f
000000a0: 329e a087 8f52 d33f 3a8a 2583 83a1 d5bf
000000b0: 6379 88cd ce53 c03f 4779 38e6 874d d23f
000000c0: ad17 1b43 a862 c5bf 056e 1079 6b99 d9bf
000000d0: e1f8 a478 aa6f d23f 3eb8 7a24 3446 d8bf
000000e0: 88c7 5265 9ae3 d53f 9200 ffac 2619 d93f
000000f0: ca9d 1a3d f275 debf 0f70 d966 cf75 cdbf
00000100: 8470 2ac0 812e dfbf 5409 875f 03ae d0bf
00000110: c7ae 3ef9 08d8 c83f 8056 33dd 3211 c63f
00000120: bb67 1a52 0400 d0bf 5872 ca14 6803 c53f
00000130: eb78 6c25 b64e dd3f 9aea 3889 9606 c4bf
00000140: cf3b 8c8d 087c ddbf 0ec0 b88d 3a00 b4bf
00000150: 8017 7688 deb9 d1bf ada9 744c 36a6 b53f
00000160: 6d52 e602 240b dcbf 5a6c 80ce eac5 de3f
00000170: e2f3 1808 97e5 c43f af7e 8543 6dc2 d83f
00000180: ed2a e2b6 6bbf c9bf fa40 2948 fb87 acbf
00000190: 3a9d d5e5 d566 d93f 4082 844a bd93 cdbf
000001a0: 5f00 0c0c 5704 d6bf 1fbb 119c 101b d7bf
000001b0: 58ce 8158 4bba cebf bbbf a1a6 92f5 ce3f
000001c0: d3f9 00d3 eb4c cabf 3362 0a91 60f7 c53f
000001d0: c947 5901 3794 a6bf 35ae d996 7306 de3f
000001e0: 9d35 858a be13 983f 1dde a6df 3ef4 cdbf
000001f0: 0b2f 284c 2fd2 ba3f 9f4d 8fc9 fb10 d93f
00000200: 6c2e c901 de2c e0bf cad1 9e60 8bba d93f
00000210: 07d4 b9ff 5dbb d23f 444c b8db b00a dfbf
00000220: 5353 1ffb 4931 d8bf 7039 0dc3 6cc8 d8bf
00000230: 71be 4498 76f6 cbbf 9edf 750d 492d d73f
00000240: 5dad 883f 4a07 d63f 1d94 b4ed 12db d73f
00000250: c5e9 b6b3 6756 c9bf 3ba7 809a cc80 ca3f
00000260: 9d93 7947 f73b b2bf 114f 27ff 64a5 c83f
00000270: 140b bc25 cfd7 d0bf 79ff a39d f32f a5bf
00000280: b792 7e5c 4a70 dabf 430c 0d2f 5941 d53f
00000290: 0b11 3e36 a33a da3f fb11 1fcd 55a4 b3bf
000002a0: 66e2 f6bc 5184 bebf dcd0 0466 3c48 b9bf
000002b0: 3f8c 2694 d6cd d73f 2918 1312 c399 bebf
000002c0: 4b68 311f cef6 c13f 9a8b 844e 0be2 d43f
000002d0: d14a 9e17 ed5c c8bf 0949 0467 8379 d4bf
000002e0: afb4 b90a 7ef4 d53f 96f4 b321 2d60 d43f
000002f0: 0305 4599 3f48 d4bf 98ce 2774 9cd0 c8bf
00000300: 7cb6 a007 9042 583f 2c2f f3cb b45a e23f
00000310: 1bb5 34a0 151d ccbf 62fe 2744 d068 c1bf
00000320: b3f7 67a3 121e e13f 544c b5ae e9f1 d53f
00000330: b080 2203 145f d73f a9e1 0bcd 6e19 c7bf
00000340: ad35 28be e00f d13f b37e 3b0a 1027 ddbf
00000350: edef f70c fb33 d8bf 997e 56bf 7742 d93f
00000360: 7b05 58b5 fe80 e0bf a238 5e96 f8aa d1bf
00000370: dab5 1137 57df d83f 156b 1889 87c1 b93f
00000380: 73cc 29a0 21f6 c73f 9ca7 80fa 2708 dc3f
00000390: 4e3e 7372 ab21 da3f e918 0948 1e7f d53f
000003a0: 531f af2a 5090 cf3f 3689 9a4f 2168 b6bf
000003b0: d85f 255c 0a22 dabf c50b a30e 93e1 db3f
000003c0: 15c2 62bb 2a59 da3f a377 3e95 6227 c53f
000003d0: 400f 1486 d5bc d93f 5f71 8a1b 9021 46bf
000003e0: 5485 4995 50ae d93f 3867 7725 e29a bfbf
000003f0: 2210 e62b 8810 d73f 21d6 5fd1 2f1a c6bf
-0.08322450763704793 -0.04940073355545621 0.04292372972202401 0.2613326746927891 0.5253460447148208 -0.0070993583895864205 -0.10672749242245173 -0.5290296104832959
0.3829198719998046 0.32291607475627765 0.11642519578790604 0.21453085951450307 -0.34789148664892244 0.42052353920535196 0.3431809570064421 0.5557864797407609
-0.02312959272429949 -0.13567097413296403 0.46774779226329455 0.1930976045643465 0.3019141029821838 -0.3379830151299391 0.12755761180683142 0.28598210794907114
-0.16707328106548172 -0.39998900244401653 0.2880655458610715 -0.3792848926776776 0.34201679129466145 0.3921600999274314 -0.4759488674848994 -0.23015778085653024
-0.4872135521525325 -0.2606209214101416 0.19409286661299616 0.1723998622971301 -0.2500010301388291 0.16416646018196235 0.4579291692224518 -0.15645105076130933
-0.4606953985502828 -0.07812849006654707 -0.27696955992029615 0.08456744543642598 -0.43817997248814927 0.4808299080484112 0.1632565297640261 0.38686687082188603
-0.20115419797760783 -0.055724957045301296 0.39690158314484203 -0.23107114924006744 -0.34401489426091375 -0.36102690926684206 -0.24006025144227539 0.24186928879089273
-0.20547244837685116 0.17161185342844618 -0.044099539675371675 0.4691437695643999 0.02351281853161923 -0.23401628418444967 0.10476966485310528 0.391661593280526
-0.5054769549255531 0.4020107692297442 0.29268598530990214 -0.4850275178625376 -0.3780083610884521 -0.387232962112555 -0.2184589618204771 0.3621389991235392
0.3441949482391545 0.372746212133565 -0.19794937396166126 0.2070556406409255 -0.07122750754349601 0.19254744013471073 -0.26317194638265673 -0.041381466859092116
-0.41310366661700065 0.332113548229419 0.40982895180810947 -0.07672630555959607 -0.11920653212917784 -0.09875848284429217 0.371938366583155 -0.11953372184061152
0.1403443958577689 0.326296641042228 -0.19033588078726507 -0.3199165826819273 0.3430476288547863 0.3183701352243785 -0.3169096943639291 -0.19386630698828777
0.001480713514421166 0.5735725386998403 -0.21963758776238582 -0.13601115539494218 0.5349209968114707 0.3428901868948675 0.3651781111348198 -0.18046364795715178
0.26659411020303986 -0.4555091953206826 -0.3781726481099657 0.3946818703206901 -0.5157464544173956 -0.2760602444112782 0.38863163354730335 0.10060927483611366
0.1871988327071424 0.4379978128732718 0.40830503632330284 0.3358836844894442 0.24659158786948385 -0.08752639954994809 -0.4083276653159351 0.4356429713190518
0.4116923170031737 0.1652644375544102 0.4021505174025499 -0.0006753877306269576 0.4012643297083589 -0.12345708288867463 0.3603840283105929 -0.1726741573653934
