weights/SA.pth (torch, 101735 bytes, 100 tensors)

lstm1.lstm.weight_ih_l0 f8 [16, 16]
0.45230620680433453 -0.3206479623353935 0.4088136698483905 -0.4771837676888206 0.5055250666733005 -0.32421338765748703 0.33346797953121055 -0.47565610512994944
0.1379600783823863 0.4032715020357445 0.3328679543191293 -0.3900712666894856 0.22601306410167782 0.20618112914762066 -0.37480898468325374 -0.3886811739463639
-0.25421659818636205 0.2898650410585047 -0.015022363972696849 -0.3908470983027898 0.38677679023869077 0.2758710340084352 -0.07380537365190239 0.012623551445607993
-0.1567765856651296 0.08623551683635258 -0.00911206995931339 -0.19531598012149398 0.39302132445530175 -0.39810372187942783 0.3431093475946308 0.10468902057955254
-0.1815092126161035 -0.04266031384486762 -0.52079493233516 -0.22699013474298846 0.024683235183858752 0.04587294013432766 -0.3366563047493258 0.17999445292530433
0.018683553606577637 0.18480114828265998 0.39805589090588733 -0.020925241730205272 -0.118143639084153 0.2601550896225074 0.22613318911897728 -0.15693579049913642
-0.3833970625250358 0.28019682475777447 0.09183541069793952 0.4422168468514189 -0.3623646795695624 0.46777988081339256 -0.1092360080046065 0.24486581131912238
0.1683608110647185 -0.36586365690572537 -0.18830683696114064 -0.22577401626383053 -0.3835995861815784 0.10680240847222941 0.4131803436127825 0.07484358788879074
0.06618660903923919 0.16182054922868935 0.43021357041232433 0.2609819577162642 -0.2916279293764253 -0.15275063219666174 0.141501141841057 0.400155116617973
-0.21649445806023357 0.16716033028686433 0.1572861996420681 0.25061245032563423 -0.2660309936464097 0.5064251597818535 -0.17583501151692446 -0.005771100646731468
-0.2104780285748252 -0.45146731435201404 -0.06556576662187781 0.3023798971709942 -0.08289396457280962 0.08967593869411654 0.11223430729253986 -0.07895279766465858
-0.06901278108320903 0.3840475187017363 -0.05730035114717571 0.4398392210752379 -0.30275870644612796 -0.11242189648339955 0.16940664514102913 -0.35558474466953893
0.08332657016957386 -0.17629190306386694 -0.19566054143987138 -0.4539432457176088 0.4119134058929266 -0.17220941727686706 -0.27208985437323424 -0.43788603199162357
0.034663679395205774 0.007353966156592975 0.31458564664354505 0.16416033629216145 -0.2108599762938716 0.11000564368932182 0.16247023409832997 0.3513979467770299
-0.040494296151868024 0.023624849278749485 0.108940283956383 -0.2853301302696804 -0.31774366959939276 -0.04120304490891557 0.3713547808126811 -0.42106362339676606
-0.11584802711313291 -0.3186783248370592 -0.44086192031725324 0.29025749857521693 0.13212030136476546 -0.29748500751532053 -0.27968884919864867 -0.09714139779610692
-0.24891989382159393 -0.20903310514966722 -0.21768717225484222 0.3685083285590484 0.2979634384820731 0.10251534059341819 -0.13177843062769937 0.2185601068478324
-0.004975232491192392 0.43958663143021937 -0.34413457151571153 0.4099321908626759 -0.0724080886159927 -0.10880432467791894 0.23796534871173441 -0.41597253669647094
-0.4530646335545491 0.18865897954723604 0.4025895936478638 -0.3265832317840271 0.24028389590799923 -0.3270990554585903 0.16915382732864534 -0.2728524771731387
0.02830631430570549 -0.3051436209927907 -0.3035772920703559 -0.18514581448225675 -0.463379786018498 -0.18116751237796014 0.27531085530735455 0.1805191204468284
0.39207953728724015 -0.13017313086150478 0.08569125615074757 0.3692848971119371 -0.29826102276318867 0.09793945963931083 0.4333072939199671 -0.3558925243053266
-0.29353728574624743 -0.4177655286396416 -0.25332629706509435 -0.17731707254994752 -0.483357874180974 0.44809476224256883 -0.3536733749599023 0.24904020301454083
0.3117782030318349 0.36600394077928666 0.528110601724062 -0.41950586899320713 0.4721487022867187 0.11123338390673192 -0.14113899835784507 -0.23630315342997457
-0.17591467713725709 0.1270083817892643 0.08848921051762426 0.26757591596309693 0.12338824716383656 -0.05172769160197423 0.014287113753912228 -0.06727181331493406
-0.07761923667395505 -0.04399939531359195 0.17686101549046374 0.4885538247042539 -0.0703250896313559 -0.36238571126503555 -0.05315699322544375 -0.14788531364137578
0.4098738533931888 0.26008729646655393 0.3648399555655749 -0.34051793587659857 0.43140671750533005 0.3348108281316792 -0.1332332598778827 -0.44915479056759466
0.1609665317222644 -0.017300924802003396 0.35824377127588164 -0.04397652446934114 -0.41247641865419715 -0.19070110340675456 0.13205296793613983 -0.10224397560219625
0.38109708337935216 -0.04594981729746095 0.406167170892505 -0.16814147396428455 0.07178087378593588 0.04825850928187899 -0.09829618901002692 -0.16023534963106423
-0.2536430551290067 0.14204960388031093 0.3337871440449509 -0.07232048691123985 0.4099598303961303 -0.18911581413338474 -0.09729298723030089 -0.07114696052951429
-0.4043619259200467 0.4661979526155254 0.26050253647123106 0.23157927208549375 -0.26643953205597143 -0.14650664882845305 -0.5102960292888452 0.3692904756927276
0.14164199552010337 0.06835530239280099 0.016140072115630472 0.011700472899964641 0.37670805454001194 0.3832582843299534 -0.2406701889602306 -0.4485297990682141
-0.46675028834265686 0.3073582315081424 0.3706947560214064 0.02151171207497192 0.28493611608470404 -0.4471738915787722 0.08044344225759216 -0.007564656935740709
00000000: ce27 80bb 95f2 dc3f 8c9c f007 7f85 d4bf
00000010: 6205 8acf 002a da3f 77f4 19c9 2d8a debf
00000020: 0371 95e7 422d e03f 8383 3a82 e9bf d4bf
00000030: 4062 9614 8a57 d53f 7741 eb4d 2671 debf
00000040: 3b29 6704 ada8 c13f 9dbf 2946 33cf d93f
00000050: 28f9 6b64 b54d d53f c399 6279 edf6 d8bf
00000060: e289 64ff feed cc3f a4e5 5eab 2464 ca3f
00000070: de89 ddd2 defc d7bf cee9 aa00 27e0 d8bf
00000080: 1de4 d3b1 1545 d0bf fd65 e619 268d d23f
00000090: bf4e c58f 0bc4 8ebf 4f9b 3c8c a303 d9bf
000000a0: 7154 3b70 f3c0 d83f 39b7 3efb dea7 d13f
000000b0: 7d9e 1ab2 e8e4 b2bf 3932 f264 60da 893f
000000c0: 42ea 1a52 4111 c4bf bad7 90e4 8713 b63f
000000d0: d6fc ca53 59a9 82bf 3c06 8131 1d00 c9bf
000000e0: cfa1 cae9 4227 d93f 5bd5 7808 887a d9bf
000000f0: c5bb b7e8 80f5 d53f f0b2 a34f e6cc ba3f
00000100: 9fef 0da2 b13b c7bf c702 9a99 92d7 a5bf
00000110: 5baa 4922 5aaa e0bf ac2d 9e42 030e cdbf
00000120: 2621 7fdf 8f46 993f 64ee 4b73 a87c a73f
00000130: fffe b8e2 c68b d5bf a746 63e8 0e0a c73f
00000140: ef6e da0e c821 933f 1a92 1164 90a7 c73f
00000150: 84f0 5a6a bf79 d93f 8189 9133 6d6d 95bf
00000160: 1dcc 185a a93e bebf 7943 7488 61a6 d03f
00000170: 4031 e7ad eef1 cc3f 6802 e2d3 7816 c4bf
00000180: 185c 3bd5 9389 d8bf 95c5 b1a9 beee d13f
00000190: 0ef8 8f85 8682 b73f b7e4 bde3 474d dc3f
000001a0: ba83 fe9f fb30 d7bf c77f 7406 1bf0 dd3f
000001b0: a6e5 ec19 e4f6 bbbf ee16 c34d c357 cf3f
000001c0: 66ba b9d8 d88c c53f 9f1f 4d66 4f6a d7bf
000001d0: 2e3f 2e3d 701a c8bf 7ce2 11b8 29e6 ccbf
000001e0: 442d 5a47 e58c d8bf beb2 8513 6757 bb3f
000001f0: 33af caf7 8b71 da3f 4f33 4c0a f328 b33f
00000200: 25b5 4109 9bf1 b03f 7305 6127 89b6 c43f
00000210: 4ad8 cd7f 9e88 db3f b831 4fab edb3 d03f
00000220: 8967 d130 08aa d2bf ac2e dd2c 558d c3bf
00000230: 60e9 469c b51c c23f 72e1 cc34 249c d93f
00000240: 2b25 9124 17b6 cbbf 5aa4 e27b 8265 c53f
00000250: 5b93 c945 f421 c43f 159e 87cd 080a d03f
00000260: f6c1 5bdc a606 d1bf ef4e 6489 a234 e03f
00000270: 1f7e fafb c281 c6bf 7859 a208 70a3 77bf
00000280: dbb1 a0ac f1f0 cabf e4b5 9629 d7e4 dcbf
00000290: 5dcd 6007 ebc8 b0bf 0a4e 5436 315a d33f
000002a0: 8841 e0f2 8938 b5bf abe8 ed97 00f5 b63f
000002b0: 4488 4f37 63bb bc3f e9bc e523 4036 b4bf
000002c0: dd25 c255 d2aa b1bf 1dc5 3b0b 3c94 d83f
000002d0: 63ef 73bc 7856 adbf 6a0a 8167 5326 dc3f
000002e0: 0dfc b00d 6660 d3bf ab20 c070 aec7 bcbf
000002f0: c58a 4df0 1daf c53f c2fa 5384 e6c1 d6bf
00000300: a523 c4dd e354 b53f 96bd 1aab bb90 c6bf
00000310: 120b 4d95 670b c9bf e238 a6f8 670d ddbf
00000320: a005 c60b ca5c da3f e638 a24b f50a c6bf
00000330: f9cf 8690 eb69 d1bf f4de b122 5306 dcbf
00000340: 620e b912 70bf a13f 5c1f 3742 311f 7e3f
00000350: a000 08d6 2b22 d43f cd6c d6b5 3403 c53f
00000360: 7ed7 1baf 75fd cabf 9564 0572 5429 bc3f
00000370: 214d 031b d3cb c43f 357d 52d0 4d7d d63f
00000380: eb2a 4b1b abbb a4bf 14c3 19cc 1c31 983f
00000390: 2843 cfac 82e3 bb3f af96 844e d942 d2bf
000003a0: dd2f 5c8b e955 d4bf 3f42 c2c4 9018 a5bf
000003b0: 0b70 b3d7 46c4 d73f 4a8f 01d7 b4f2 dabf
000003c0: 88cc c15f 37a8 bdbf 87a1 c7c5 3965 d4bf
000003d0: 7c1e 74ea 1437 dcbf 1d28 f32f 9493 d23f
000003e0: 1bea bf6a 51e9 c03f 0b08 958e fe09 d3bf
000003f0: f44c 170f 6ce6 d1bf c43b 9f36 42de b8bf
00000400: 0fce a469 9bdc cfbf 5817 33c7 98c1 cabf
00000410: 23f0 cb5a 2cdd cbbf 3bbe ddf4 a395 d73f
00000420: 20ca eb3d d511 d33f 5ae1 2f03 723e ba3f
00000430: 3d9d ee98 1dde c0bf 0e94 8f0f c7f9 cb3f
00000440: a447 6fcd e860 74bf 2e1a 70f7 2f22 dc3f
00000450: 1f4f 8502 4d06 d6bf f94c 553a 543c da3f
00000460: a951 9224 5689 b2bf e3af 27a8 99da bbbf
00000470: 4a29 2607 a675 ce3f ea4f 4946 4b9f dabf
00000480: 27d3 05ce 02ff dcbf 3245 a039 fa25 c83f
00000490: 3b5c 9b24 07c4 d93f f3cc fb5a bde6 d4bf
000004a0: e314 5769 9fc1 ce3f 12d1 6fe0 30ef d4bf
000004b0: 6354 2f26 d5a6 c53f 81d6 853c 6a76 d1bf
000004c0: d96b da98 54fc 9c3f c0cf 2f1c 7987 d3bf
000004d0: dc06 5073 cf6d d3bf 54a6 18a9 dbb2 c7bf
000004e0: 5fec a4b0 03a8 ddbf e868 613e 7f30 c7bf
000004f0: 1ad9 f16b b19e d13f 9197 4f23 401b c73f
00000500: ad16 85c5 d417 d93f 9e1d ef5d 83a9 c0bf
00000510: 887a b8b6 dcef b53f e028 001f 5da2 d73f
00000520: 3e1f 9c66 b516 d3bf 4085 2378 8f12 b93f
00000530: 074a 2084 4ebb db3f 9810 3270 f1c6 d6bf
00000540: 8bf3 9b9c 50c9 d2bf 81d1 b9a0 abbc dabf
00000550: 8a20 4780 7f36 d0bf 17ef cf69 53b2 c6bf
00000560: 76c4 77dd 55ef debf 80ce 55a7 95ad dc3f
00000570: 67cc baa6 95a2 d6bf 7617 aba3 8ce0 cf3f
00000580: fa26 6890 2cf4 d33f 82aa f6ca 9b6c d73f
00000590: 5c6c 6234 48e6 e03f 9f93 f324 2fd9 dabf
000005a0: 26e6 ca30 af37 de3f d352 1a82 ca79 bc3f
000005b0: e18d 11bb d710 c2bf 5532 f685 2e3f cebf
000005c0: 0170 9844 5f84 c6bf a327 0d87 cf41 c03f
000005d0: a0d8 3899 3aa7 b63f 4a8f 10bc f61f d13f
000005e0: 9089 4746 5f96 bf3f 62c3 744f 0d7c aabf
000005f0: 8047 9ef2 8f42 8d3f aa58 21be b938 b1bf
00000600: 651c 0eb3 dade b3bf 7bd0 d4b7 1687 a6bf
00000610: a004 bcba 61a3 c63f f230 dc42 7744 df3f
00000620: b310 0e38 d300 b2bf 19f2 9ad6 5331 d7bf
00000630: 8ef8 e9b6 6437 abbf 27ff d2ec e7ed c2bf
00000640: aaca f38a 5f3b da3f 3073 1b30 45a5 d03f
00000650: 3e68 5baf 8959 d73f 8fa6 92bd 0bcb d5bf
00000660: 5572 bdeb 2a9c db3f f605 4b65 8a6d d53f
00000670: e81d f596 c90d c1bf 5217 15bc f3be dcbf
00000680: b9b3 bf22 8d9a c43f de52 dc68 55b7 91bf
00000690: 170a 6848 77ed d63f c86e c64c 1784 a6bf
000006a0: 3c6c 1f7e 0366 dabf 52b8 38cd e468 c8bf
000006b0: fb0e 5095 1ce7 c03f 12a9 6c43 a92c babf
000006c0: 85c7 6d05 e563 d83f 707b 1905 bc86 a7bf
000006d0: 384c ec96 a4fe d93f 2f90 e3e9 a885 c5bf
000006e0: d78e 6339 3b60 b23f bb1f 3dde 56b5 a83f
000006f0: 9197 1e65 f029 b9bf d00d 2a89 9782 c4bf
00000700: 33be a814 b03b d0bf 37b0 8971 ae2e c23f
00000710: 3ce4 dfc0 c45c d53f 8a54 1d6e 9883 b2bf
00000720: d167 0e28 c83c da3f 9cfd 6d6e f234 c8bf
00000730: 18c7 4876 31e8 b8bf ff1e afec af36 b2bf
00000740: 4abf e4d7 10e1 d9bf a188 fcef 2fd6 dd3f
00000750: a5d0 aad4 12ac d03f 83f3 04bc 63a4 cd3f
00000760: 29af 2265 580d d1bf 8ab0 aed8 bac0 c2bf
00000770: 3e60 a256 5854 e0bf 65c5 f484 74a2 d73f
00000780: f8df 3f2d 5321 c23f 8207 49ac bb7f b13f
00000790: 951d 91e7 0587 903f ace9 9fe3 6af6 873f
000007a0: 99e7 9819 fc1b d83f e790 47c1 4d87 d83f
000007b0: 0b69 5adf 47ce cebf 32e2 9154 b6b4 dcbf
000007c0: 5423 f599 3cdf ddbf b3f7 1edc c1ab d33f
000007d0: eb47 7a7f 76b9 d73f 3c34 5f8f 2a07 963f
000007e0: b61d 02b1 643c d23f 142d fd3d 7f9e dcbf
000007f0: c18c ac01 f197 b43f 7fbb 4f22 1efc 7ebf

lstm1.lstm.weight_hh_l0 f8 [16, 4]
-0.4635939739658183 0.003374574412601002 0.09957625987229239 0.4643351379876342 0.5163568354258924 0.36861131922894413 0.3929866342774829 0.3556042458694956
0.3198137139145695 0.11295759377664766 -0.13826860813678685 -0.32737163314187756 -0.3227177187738819 -0.14061065523525243 0.1819592746204688 0.07652183899174997
-0.2945393420301274 -0.4923514056923246 -0.43463436191770577 0.26218155037501334 0.4140337212980213 -0.44957794686570907 0.05926472333651164 -0.18045228762789403
0.1756397550908212 0.42775030970882777 -0.20068636747552898 -0.16603986196303228 -0.4897991731325708 0.16682568968455963 0.37194660349862735 -0.036440007932623725
-0.09822288256217644 -0.42222400326798737 -0.37343821405056987 0.010706372824072123 0.4721834543409895 -0.3307527855987082 0.14188407774928005 0.43930311265983857
0.4269289240632613 0.19639240763667368 -0.36623131291846706 0.2929056920352897 0.40826723039999613 0.5105731926457526 0.21334893451191353 0.1238474540687101
0.1912572841570949 -0.14490433949844694 -0.3570670952968152 0.10526094472891111 -0.2536459299187744 0.42204464332465924 -0.4846766597345592 -0.5390311301984926
0.4328712088817573 0.46592828615136256 0.03692603906935691 0.33765759711058124 0.050780116126955634 -0.3232835129796353 -0.418174682425242 0.009553959286897645
00000000: 4b93 330f 86ab ddbf c467 aed7 fea4 6b3f
00000010: bb07 9c6b d47d b93f 2598 02ba aab7 dd3f
00000020: 630c 27c5 fe85 e03f cf84 41ee 5397 d73f
00000030: 6629 7f69 b126 d93f ab01 954f 38c2 d63f
00000040: f6d2 84f0 d377 d43f a405 1bf3 c9ea bc3f
00000050: 7366 0127 c9b2 c1bf dae0 7e26 a8f3 d4bf
00000060: 9c4e fe37 68a7 d4bf 612e daaa 87ff c1bf
00000070: 2872 d906 714a c73f 643b e66b ef96 b33f
00000080: 83e7 598a bbd9 d2bf 74a4 6578 af82 dfbf
00000090: 44e1 89a4 0cd1 dbbf a46a 1e20 95c7 d03f
000000a0: b2a2 1a4b 877f da3f 80a0 b294 e2c5 dcbf
000000b0: 2cd8 1221 f257 ae3f 09d3 ec80 0f19 c7bf
000000c0: 1c0b ff0d 5d7b c63f 0c69 c3d5 4260 db3f
000000d0: 56bc 8744 17b0 c9bf 8656 7b50 cb40 c5bf
000000e0: 3c95 8da1 de58 dfbf 46f6 a950 8b5a c53f
000000f0: efa1 7820 f9cd d73f c456 acc4 43a8 a2bf
00000100: 1dca 5284 2225 b9bf 2cd2 67d3 b705 dbbf
00000110: 4820 1b65 69e6 d7bf 69fa 1a09 39ed 853f
00000120: c8d6 86f3 4038 de3f 3f45 4dbb 0d2b d5bf
00000130: c1cd e0e8 4129 c23f b0eb 79cd 8a1d dc3f
00000140: f95c a4b1 cd52 db3f 31b9 fdeb 6223 c93f
00000150: 9f61 f075 5570 d7bf f0a4 0684 f7be d23f
00000160: bc2c a6e0 0c21 da3f 1017 9497 9d56 e03f
00000170: 11bc 2e94 044f cb3f 3700 eb7c 77b4 bf3f
00000180: cdca 4962 1e7b c83f 2cdf 98b3 398c c2bf
00000190: 29c3 31f2 2fda d6bf e71f 289b 61f2 ba3f
000001a0: edef 7023 bc3b d0bf 6502 2289 c702 db3f
000001b0: e671 ac40 f104 dfbf 694f 7736 be3f e1bf
000001c0: 89bc 6171 29b4 db3f a94a d3df c4d1 dd3f
000001d0: 05f0 5844 f8e7 a23f 3b7f 359c 2e9c d53f
000001e0: 7dce 1af4 d9ff a93f 7a58 e554 adb0 d4bf
000001f0: bd05 42be 5fc3 dabf 90f0 79b5 0691 833f

lstm1.lstm.bias_ih_l0 f8 [16]
0.06442762759850955 -0.27823992051480817 0.1152836976051746 -0.35285147288193003 0.23516332567386525 -0.1476485936487204 -0.39491391141931986 0.16534928735117865
0.465344376375195 -0.2581551515952958 -0.16164690304395768 -0.09128083864498454 -0.46632408952876436 0.07365166732298224 -0.20344077672004726 -0.07590518297028119
00000000: 4b95 7e39 547e b03f 1a60 c3cf aece d1bf
00000010: d4e6 f97e 3b83 bd3f 7be4 1758 1e95 d6bf
00000020: d171 7ef4 d419 ce3f 58c5 822c 26e6 c2bf
00000030: c802 92ff 4446 d9bf 4a8c cb5a 2a2a c53f
00000040: b02c 7ac7 33c8 dd3f 7053 592f 9d85 d0bf
00000050: d467 0981 d8b0 c4bf 2c4e bb58 2e5e b7bf
00000060: b43b 77fe 40d8 ddbf 69b5 72ee d5da b23f
00000070: 89bc 57ed 580a cabf fb49 74a6 856e b3bf

lstm1.lstm.bias_hh_l0 f8 [16]
0.3339868321769092 -0.00336785592435432 -0.10461148643489517 -0.2768107281004359 0.2618691271608342 -0.42968996451740316 -0.05874198635141836 0.41687987502436546
-0.060976259897235485 0.395506218682109 -0.0051316027700624165 0.03552434762668294 -0.148930309774126 0.11425125190245003 -0.041626087083816946 -0.411854842317815
00000000: 53a5 5f4e 0a60 d53f 440f b0e1 e796 6bbf
00000010: 3919 0681 d1c7 babf 7be4 1758 44b7 d1bf
00000020: e838 3fba 76c2 d03f aa62 4156 0a80 dbbf
00000030: 5016 90fc 6d13 aebf 1dc6 65ed 28ae da3f
00000040: 889a 2ec4 4738 afbf 90ac a650 f94f d93f
00000050: 81fa 2c21 e004 75bf a863 894e 3f30 a23f
00000060: 7377 eefc 2510 c3bf 6ab5 72ee 913f bd3f
00000070: 3af2 5eb5 0350 a5bf 7812 9d69 d45b dabf

lstm1.lstm.weight_ih_l0_reverse f8 [16, 16]
-0.22331884046081577 0.1735091120186935 0.5026777941962476 -0.06649385398586845 0.16605086730975863 0.24277101748385282 -0.25345264308357346 0.29241326603337603
0.22852287138863187 0.47380361419474254 -0.08037212718316322 0.30631382561946935 -0.2081247470398782 -0.3936102518468038 0.13366033182732198 -0.3125767552861095
-0.16859606598695115 0.2220802817139643 -0.41669963397361887 0.009694145187212212 -0.00792545564963042 -0.3233649306465843 0.18830719080881217 -0.08782041569422128
0.41118332265966306 -0.10660367138331484 0.1802404233749297 -0.18764093584044994 0.008262214219238192 0.5011475278626414 0.4519828025663388 0.03579246150317165
0.09139107825134765 -0.02805918975785009 -0.02982696166917926 -0.08850585083272591 0.32820590261007565 -0.420213911803643 0.5556980388168881 0.13733881104310258
-0.03405678711604724 0.047317184199570435 0.19423626699116184 -0.4863547565271775 0.23737064324752655 -0.05265222425162039 0.15803456608026192 0.013089538309601054
0.37232556603908745 0.07972290590627189 -0.546218655357674 -0.17400930764791808 0.24074661808127215 -0.08887393531745681 0.1297890882483222 -0.3908942831328638
-0.37197193062739525 0.0032340560162322546 0.1153726687564956 0.13861215942313032 0.03958960138215526 -0.03103299903554633 0.2938161146293312 0.4223796535340894
0.24762006721530921 -0.2899003108622419 0.051671815996833466 0.5118415422111563 0.4047999248209784 -0.2293227339614939 -0.18413160653747604 -0.03478655401181055
-0.2853185244353273 -0.18800444756220652 0.30015901917632537 0.17440875910598405 -0.07984845126398124 -0.25877161663309084 0.4244294695616228 -0.3611696157431329
-0.05091206335274528 0.32963254653086344 -0.5427745285679765 0.3574525369400363 0.16175201743894582 -0.42201011454939885 -0.272107594769442 -0.3436963208252531
-0.032263655777055096 -0.06773803692964302 0.38087832045587505 -0.38805287284552625 0.07853200899637537 0.15467676632247715 -0.13082613028009832 -0.2854295986132608
0.08850421765624239 0.40009933958519506 0.0478996994610776 0.36379470162904964 0.22095846394828683 -0.3068395941928787 -0.383658321968882 0.04967742218179004
-0.3246355185920556 0.33828357633288586 -0.1217379088583643 0.22535312649280223 -0.5614095435420425 0.08323577823248851 -0.4249262310831954 -0.4916599118687719
0.20912647518105684 0.3016541035126386 -0.011253593241673172 0.3075841369180883 -0.22819230934613227 0.08645830314836542 -0.15484772080976456 -0.417371463837673
0.3827723378704504 -0.46114960956309725 -0.25796615547957336 -0.02946072251002292 0.16861606531066703 0.2653513082739943 0.21507969750899844 0.19091268294959562
0.4129234373609929 -0.14470679791795 -0.11143826444256462 0.39738289446903413 -0.26910023146081585 0.36521136103155083 0.22841301927803936 -0.4568285842597546
0.264108747552535 -0.3381755549054614 0.3979456254572381 -0.353583752245112 0.16557634681102523 0.43377836593265046 0.2772311754412581 0.019059572341144887
-0.4313563162399473 0.35073363479037223 -0.5897151351173029 -0.09903141890690001 0.21298857604477672 -0.08027456148962105 0.4632960833571535 0.008859080192600559
0.14980107642149376 -0.41818638930009033 -0.16063901828288316 -0.2916944988097482 0.38508171573283634 -0.3971584123558614 -0.3468255933211654 -0.30231152386170534
0.021451907868771467 0.03272441990014321 0.5414807483833374 0.32362471624729694 -0.40168413940477354 -0.2558704380001887 -0.01999920463814367 -0.3892130035670222
0.31362340944899963 -0.19400522671081752 -0.026568308052063602 0.2781069311322758 0.44585112899694734 -0.4312882362049042 0.26448212740718186 -0.37029932501197876
0.06125378347344697 -0.5420559385344083 -0.03432269345617004 -0.004448343703349224 0.5231820750195586 0.45698985265088693 0.2004007130539303 0.421350043939578
0.4643816526422026 0.5061701499592842 -0.36377734228931313 0.008929604608432107 -0.22358052506199919 0.07214901822535115 -0.02028490322662327 -0.4581240016013842
-0.16195143235361353 0.2063734117750107 -0.105855583981254 0.1519174515184148 0.17264121982910227 -0.48932055665813085 0.43064239995621273 0.44055753500193195
0.22381452801169927 0.0006796799179141573 -0.4119136705250233 -0.15369704562795933 0.06337407135700754 -0.40535400320642395 0.4407247533269834 -0.09276167148695166
0.4508840506561688 -0.15573503055901106 -0.03445812743504067 0.10105081435026893 -0.12294400366962618 -0.3160967722476887 -0.13461044052296936 0.4013824705676553
0.3219397468125908 -0.350747989597966 -0.4063602676938853 -0.3043908759761501 0.12629992779763433 0.3474719967324241 0.45520198223812813 -0.42802489777526687
0.1003512393407238 -0.21757531550495157 0.01725360863762418 -0.18277224197646783 0.3536993004187458 0.4277631375491427 -0.3166927116723556 0.034143663438275025
0.1834440658916063 -0.5108817611619495 -0.1434400903896559 -0.17444018261978247 0.03754715419495558 -0.06936212329916455 0.2836688424240196 -0.0684314865145173
-0.4853223019780962 0.33630628252264 0.17558316322156006 -0.4408929487297682 -0.3068195629179979 -0.04859158011228079 -0.023799440793301863 0.3793247516535996
-0.4191265777456506 -0.2819236388296769 0.3425945789914967 0.1959332438835732 -0.10906548126335863 -0.14658926227347904 -0.1874455966056547 -0.12109658882641866
00000000: 690f 2e36 b695 ccbf 2ed2 d6ec 8b35 c63f
00000010: 17f2 cfbd ef15 e03f 151a 41c0 bd05 b1bf
00000020: 45af 48a2 2741 c53f de40 41e6 1e13 cf3f
00000030: c33c 486f 9138 d0bf d8e9 a121 e6b6 d23f
00000040: b247 80c9 3c40 cd3f 735a ec64 cc52 de3f
00000050: c0fa c289 4493 b4bf 054a d64d a59a d33f
00000060: 7224 03eb d4a3 cabf a359 c30d e930 d9bf
00000070: 0145 fc20 c81b c13f 8664 5cef 4101 d4bf
00000080: a6f8 d24e 8e94 c5bf 0323 866d 206d cc3f
00000090: d0ff 0af1 34ab dabf 3482 5524 86da 833f
000000a0: 7a88 91a6 383b 80bf 8d39 73d2 02b2 d4bf
000000b0: bb0f 1035 731a c83f 10eb 5315 667b b6bf
000000c0: b4f7 deda d350 da3f f890 39d2 604a bbbf
000000d0: 8f00 e841 1e12 c73f 2cac 6941 9e04 c8bf
000000e0: 2bd4 e99e c7eb 803f 7a85 548a 6609 e03f
000000f0: 501e d846 49ed dc3f 95ec 32b7 6353 a23f
00000100: d257 3cdc 6765 b73f edea 7259 8cbb 9cbf
00000110: 72f7 a183 f58a 9ebf 52ca d4c6 51a8 b6bf
00000120: b81f 8454 5301 d53f 0456 21e4 c8e4 dabf
00000130: 996f e540 47c8 e13f 3e69 f372 5194 c13f
00000140: 5592 bd25 e46f a1bf d117 5a3d f539 a83f
00000150: 054b 36e7 bbdc c83f 0473 62b3 6f20 dfbf
00000160: 7ca9 e346 2962 ce3f 2cda 717a 3bf5 aabf
00000170: 2de4 7906 7a3a c43f 9201 ad17 b0ce 8a3f
00000180: 7d90 669c 2ed4 d73f b309 9c69 b868 b43f
00000190: e43d a78b 9f7a e1bf 8f11 c6de ef45 c6bf
000001a0: a30d a401 c9d0 ce3f 81c1 a735 71c0 b6bf
000001b0: e2bc b3c8 ed9c c03f daef 8f74 6904 d9bf
000001c0: f5c6 445b 63ce d7bf c93d 579a 4e7e 6a3f
000001d0: d450 292f 1089 bd3f ac6f c611 0bbe c13f
000001e0: 9d64 6596 1645 a43f da60 d14f 1dc7 9fbf
000001f0: 9cba d71a e2cd d23f b12e 9bab 4408 db3f
00000200: 1ef4 42ad 03b2 cf3f 5e3a 9008 ba8d d2bf
00000210: 01a4 a96f ba74 aa3f effe 9083 0161 e03f
00000220: 0ce1 a1f1 3de8 d93f bb05 4c85 725a cdbf
00000230: df83 1ede 9f91 c7bf b47c a40f 8bcf a1bf
00000240: 1f22 d9a0 a842 d2bf ea1f e49c 8710 c8bf
00000250: 628d bd2c ce35 d33f a381 3fb6 0653 c63f
00000260: 12a7 d0b6 f270 b4bf 839e a4d3 b68f d0bf
00000270: 7773 ce38 da29 db3f ba3d fb29 671d d7bf
00000280: d7d2 245e 2511 aabf 4106 c31b b318 d53f
00000290: 0fa4 29b0 685e e1bf 68e6 019b 80e0 d63f
000002a0: 732c 7b44 4ab4 c43f 5489 24b6 3602 dbbf
000002b0: 54ca 21f9 356a d1bf 91cc 6cda 1eff d5bf
000002c0: 69de d2a4 dc84 a0bf d3dc 4ead 4757 b1bf
000002d0: cd41 8776 4f60 d83f 6a62 7fb7 dbd5 d8bf
000002e0: c91f 547a ac1a b43f 6b2d 67c2 72cc c33f
000002f0: f6f3 811f e9be c0bf dead d681 7a44 d2bf
00000300: a841 6460 36a8 b63f e8da aa42 3a9b d93f
00000310: 7adc 5835 4f86 a83f 331c 7d92 6948 d73f
00000320: 2e55 37f0 5d48 cc3f eb48 8b89 42a3 d3bf
00000330: 1b74 6ca2 db8d d8bf 8ea1 3daf 516f a93f
00000340: a543 de0d d4c6 d4bf 1eea 4728 70a6 d53f
00000350: 0ee8 3a31 372a bfbf 8341 2b0a 5fd8 cc3f
00000360: 8e9c a525 11f7 e1bf 089b 5da1 f04e b53f
00000370: 50c0 6dca fd31 dbbf 70c2 8e22 5b77 dfbf
00000380: c7b0 d005 a8c4 ca3f 719f 5203 4d4e d33f
00000390: 37d9 7bb7 1f0c 87bf 8838 3560 75af d33f
000003a0: b290 ebd4 6735 cdbf fe68 7da0 2122 b63f
000003b0: 5279 5ed4 0cd2 c3bf 5ada ddcc 36b6 dabf
000003c0: 18e4 3d8c 577f d83f 3abf e8a6 7983 ddbf
000003d0: 989d 507a 8482 d0bf 34cf c99e f32a 9ebf
000003e0: 3a75 0b13 3695 c53f 2935 bf0d 84fb d03f
000003f0: 23d8 6a45 bb87 cb3f 247f d4a8 d36f c83f
00000400: 60e9 cd6c 566d da3f 4a82 489a c085 c2bf
00000410: cdc6 4dd5 3787 bcbf 1dff eea9 b86e d93f
00000420: 5218 5e2d f038 d1bf b085 f078 9f5f d73f
00000430: 60d0 e347 a33c cd3f 1883 51f5 ad3c ddbf
00000440: 94d7 5460 28e7 d03f fb09 2815 aba4 d5bf
00000450: e234 bbed f077 d93f d18a 12bf 1da1 d6bf
00000460: 6ab2 4511 9b31 c53f cd27 d955 06c3 db3f
00000470: faea fcd3 27be d13f 481b 863f 5a84 933f
00000480: 621c cb85 579b dbbf f009 c27c 6b72 d63f
00000490: 061f 6946 f2de e2bf e64a 7b81 1f5a b9bf
000004a0: a857 44ac 3543 cb3f 3575 4ca8 df8c b4bf
000004b0: 3b91 989d a4a6 dd3f 9c50 999d b524 823f
000004c0: 9465 1182 ae2c c33f 1047 6bd8 90c3 dabf
000004d0: 9746 fec0 d18f c4bf 16e7 3367 1fab d2bf
000004e0: e40b d7c7 2da5 d83f cd94 191e 0b6b d9bf
000004f0: 9fbb 2ef9 6332 d6bf 1c28 0c6f 1259 d3bf
00000500: 59c6 ee2a 7df7 953f 13dd 8052 41c1 a03f
00000510: 8f0a 376f cf53 e13f 2467 1d71 44b6 d43f
00000520: a22f 8464 31b5 d9bf 1e56 ce66 2e60 d0bf
00000530: 88a4 77e7 ab7a 94bf 03e4 5fa8 dde8 d8bf
00000540: 6dfb b5eb 6712 d43f 73ee fccb 29d5 c8bf
00000550: 8c50 c6f8 b834 9bbf 5642 8003 81cc d13f
00000560: dc4c 7b2c d388 dc3f d492 69f9 399a dbbf
00000570: 51c8 e571 46ed d03f 9711 aaf0 fbb2 d7bf
00000580: 1aa8 8ce9 a75c af3f ab73 13b2 8558 e1bf
00000590: e54c cf7b be92 a1bf 75d3 a22b 6d38 72bf
000005a0: 5eff c155 e8bd e03f a152 ef5d 523f dd3f
000005b0: f2b2 5406 bba6 c93f a6df b82c 66f7 da3f
000005c0: fb7b bdd2 6db8 dd3f 592b 09be 8b32 e03f
000005d0: 3023 0ac3 2048 d7bf 5a4e 133e af49 823f
000005e0: 3bf7 9461 499e ccbf 6965 b7a9 5b78 b23f
000005f0: c8ee d7cf 90c5 94bf 8aff 1855 e751 ddbf
00000600: 60e3 bf14 d3ba c4bf e136 2ba7 716a ca3f
00000610: 5c68 4cff 5919 bbbf 024c fbf2 0772 c33f
00000620: e7c3 8d84 1b19 c63f 27dc 062b 0751 dfbf
00000630: ff4d 0524 a58f db3f 34bd 353b 1832 dc3f
00000640: c207 1757 f4a5 cc3f 44cb 7482 9145 463f
00000650: f189 eb27 cb5c dabf 3e61 3b44 58ac c3bf
00000660: 2689 e47b 4839 b03f d7c0 c4ea 51f1 d9bf
00000670: 91ee 8498 d534 dc3f 3ed7 5b99 3abf b7bf
00000680: d7cc f6c6 48db dc3f 78d7 8b1f 20ef c3bf
00000690: c76d d4e4 7ea4 a1bf c55a de56 77de b93f
000006a0: d616 001b 4279 bfbf ed32 cbf4 ed3a d4bf
000006b0: f986 df37 ea3a c1bf 16a6 111a 40b0 d93f
000006c0: 1fed f52a a99a d43f 3981 1db2 a772 d6bf
000006d0: 13e6 087f ce01 dabf c22c 61de 237b d3bf
000006e0: 5462 b095 982a c03f 0e76 8f2f fb3c d63f
000006f0: 6460 b27e 0722 dd3f 8a62 748a c264 dbbf
00000700: b3db 146b 9eb0 b93f f05c 4108 82d9 cbbf
00000710: 28a8 5813 eeaa 913f 55e8 f3b0 1465 c7bf
00000720: 73a9 fa63 02a3 d63f 854e 8da3 7860 db3f
00000730: b2ea e081 b144 d4bf e181 aa3b 477b a13f
00000740: f729 d35b 187b c73f d507 0ab5 2459 e0bf
00000750: 6555 94b0 3e5c c2bf ede8 ba4f 0e54 c6bf
00000760: 1081 a66e 6139 a33f fea9 2653 b7c1 b1bf
00000770: eabd 465c a127 d23f 54b5 98d4 b984 b1bf
00000780: a6fb c045 850f dfbf d9f0 37c9 0a86 d53f
00000790: f7e5 e153 8279 c63f fd34 f50e 9737 dcbf
000007a0: 475f 2085 eea2 d3bf 6cec e2de fee0 a8bf
000007b0: 1d35 7b6f e15e 98bf 1498 ba52 db46 d83f
000007c0: 7d53 1348 f8d2 dabf ad89 2f72 090b d2bf
000007d0: 228b 23d0 11ed d53f 06ee 562d 5714 c93f
000007e0: 5c0c 2623 b7eb bbbf e165 b4db 6fc3 c2bf
000007f0: d7a9 99a1 37fe c7bf 14a8 aaa0 2f00 bfbf

lstm1.lstm.weight_hh_l0_reverse f8 [16, 4]
-0.5196713632927763 -0.20078529765082664 -0.15088922597550047 0.39866543022232914 0.05488760004910054 -0.019521258819914695 -0.40661845227179055 -0.1568971488910632
0.41044285430670574 0.20298767580111232 -0.33668262102838864 0.08156717016201295 -0.5068051102655026 -0.097311968355418 -0.5607581801535091 -0.4369485206411649
-0.1533101327792986 -0.37625858540997575 0.18759993346935205 0.16120291023549785 0.13613334616827924 -0.16376577535039122 -0.25936326685685723 0.1859751862872738
-0.3535845724943001 -0.4354572951678889 -0.18673210993266084 -0.22720441193601107 -0.4659323649050095 -0.14661885167560346 -0.5058337465639774 0.21081291991983414
0.39754309914808883 -0.48422408112619886 0.4809056255577192 0.12595693242577657 0.5104412317211385 0.45373603208987767 0.05274774544841402 0.2568476502038835
0.42928749634567137 -0.5674629151167447 0.24267011962572602 0.43126965992716787 -0.4991885334890046 0.21719223520106928 0.2042988042650166 0.1397781020094249
0.3379285510313523 -0.07309144484476644 0.15288874393320329 0.47830706100352827 0.35157858787918905 0.5578359871600028 0.2770841668943066 -0.2788120367978014
-0.17806411990069168 0.5098881946248307 0.16853196874889131 -0.012254957710316157 0.2206877005068841 -0.12456703200650068 -0.11415774368288378 -0.2512825688143991
00000000: a253 c0d6 25a1 e0bf 48c6 7627 55b3 c9bf
00000010: 7417 7191 5650 c3bf 7071 3602 bc83 d93f
00000020: c068 553e 3a1a ac3f b548 d580 61fd 93bf
00000030: 4f47 9d66 0906 dabf 2c50 a9ad 3415 c4bf
00000040: cbf2 071b b244 da3f 2446 870a 80fb c93f
00000050: 14b4 9c43 358c d5bf b6ea 4508 96e1 b43f
00000060: f926 c159 bf37 e0bf 608d 98e9 6fe9 b8bf
00000070: 5a29 9723 bbf1 e1bf df1e 8ced f6f6 dbbf
00000080: 545c 379b aa9f c3bf 5334 cbe3 9e14 d8bf
00000090: 3ec7 7d4d 4603 c83f 5da1 bd05 4ca2 c43f
000000a0: 090a d846 d16c c13f f2c0 aae4 46f6 c4bf
000000b0: 63c5 3b63 6899 d0bf 2755 7cef 08ce c73f
000000c0: 18ec ce2f 21a1 d6bf b23e 6346 88de dbbf
000000d0: af0d a378 d6e6 c7bf 81d3 62bf 0815 cdbf
000000e0: 9b8e 5afb d5d1 ddbf ce3e 7612 68c4 c2bf
000000f0: ed92 d640 ca2f e0bf 5aa2 50f2 eafb ca3f
00000100: 94db 659c 5871 d93f e8d9 1700 87fd debf
00000110: 9ee6 8e63 28c7 de3f 9191 bc54 5b1f c03f
00000120: 41b6 98d9 8855 e03f f2f0 b5da 020a dd3f
00000130: e5ff 46a3 c001 ab3f 3587 6b20 3170 d03f
00000140: 6bba 5843 7279 db3f d6d0 c3fc a728 e2bf
00000150: ab23 c181 d00f cf3f 073b 490f ec99 db3f
00000160: 06e7 7776 b4f2 dfbf 261e 9185 f4cc cb3f
00000170: 350f 7795 7626 ca3f 49e9 69b4 3fe4 c13f
00000180: e71d c412 9fa0 d53f d5c4 39f5 1eb6 b2bf
00000190: ec4f 8fbd db91 c33f 9c2f 1d38 959c de3f
000001a0: 048f 3a7a 4380 d63f 734a 2cdb cad9 e13f
000001b0: 9e3a c33a bfbb d13f eec5 f170 0ed8 d1bf
000001c0: 5341 c819 ceca c6bf d5f6 100c 0151 e03f
000001d0: 98b1 0d9f 7492 c53f 842a a394 2019 89bf
000001e0: b73b 279c 7e3f cc3f 52b1 a000 a0e3 bfbf
000001f0: c000 b41f 7139 bdbf b336 c77b 0315 d0bf

lstm1.lstm.bias_ih_l0_reverse f8 [16]
-0.16185943465722438 0.43761212787226456 -0.004041613790233706 0.32279780148410037 -0.10365351530821698 0.47063601302286384 0.33530423078652105 0.2117105871463484
0.17555299392378176 0.47927295707940404 0.30855375817672653 -0.08077422870716534 -0.3578730535525992 0.49324484087872855 -0.3047297683682644 0.14536139853267002
00000000: 176f 3359 cfb7 c4bf 92d6 624c d601 dc3f
00000010: fa77 d570 f08d 70bf 0713 261c b8a8 d43f
00000020: 003e 5d6a 0989 babf a631 1083 e61e de3f
00000030: 1c11 5ce0 9f75 d53f dd58 0120 5519 cb3f
00000040: 340b cf3f 8578 c63f 1fd9 207b 68ac de3f
00000050: df52 1b43 58bf d33f 912a a8ae 9ead b4bf
00000060: 4d32 4861 64e7 d6bf d6ab 1fcf 5291 df3f
00000070: 3499 5049 b180 d3bf d739 66ca 339b c23f

lstm1.lstm.bias_hh_l0_reverse f8 [16]
-0.46696202140344034 -0.07933728733464485 -0.08591848776026538 -0.35076704979992673 0.06036893037049399 -0.08927607251027836 -0.42098817195777216 -0.2913601249431904
0.1397937833372339 -0.1875850007605621 0.37044656566039963 0.13607658849635632 -0.21516755342671465 0.39501042582440726 -0.241280922028085 -0.4443651687357016
00000000: 8eb7 99ac b4e2 ddbf c8a5 74ce 724f b4bf
00000010: 7b57 0d07 c1fe b5bf f9ec d9a3 f772 d6bf
00000020: 0584 452b ade8 ae3f 7039 bff3 cbda b6bf
00000030: e4ee a35f 78f1 dabf 9653 ffef a4a5 d2bf
00000040: 340b cf3f c3e4 c13f cd4d be09 c902 c8bf
00000050: df52 1b83 65b5 d73f b5ea ab28 f56a c13f
00000060: ab64 9042 9c8a cbbf d6ab 1fcf d947 d93f
00000070: 6a32 a112 4be2 cebf 15e3 cc9a 7a70 dcbf

lstm1.lstm.weight_ih_l1 f8 [16, 8]
0.42016154659651717 0.013887202453875721 -0.06498205890861664 0.03149216033424944 0.15745268174531687 0.04826317952430373 -0.5728781775783683 -0.023300391320695116
-0.1846722280096354 0.4615617857913648 -0.4651028647016475 -0.23431885027612806 0.34724755864998386 0.27011455592046224 0.39463266390404445 0.04716029948047265
-0.2488259407888757 0.2643816186704558 0.24190484640654644 -0.5586080460565918 0.33538089638074137 0.14276325804863574 0.25686858125277656 -0.44866702401485986
-0.38746898138335434 0.0016648477325506912 -0.41856453308255365 -0.23632916274953375 0.19106554333422296 -0.47836900971057134 -0.26492614841054996 0.2791462669369601
-0.1568814981614429 0.1421174685228743 -0.21765983018115684 -0.5713672271966509 -0.00367755407465199 0.5037418979886921 0.23111179901742068 0.1387810867323927
-0.24676950842700096 0.5026609812293636 0.06239317301068746 0.33358160006233806 -0.09667149092304177 0.1993594739660912 0.29422904309541464 -0.3674607234009691
-0.22019591800589958 0.018993078356012293 0.03185373747938492 0.010360513101978658 -0.3865342057546767 0.20155664295960726 0.21565461524037108 -0.30923687874565825
-0.23267444893745276 0.2656643789870716 0.3080397937543909 0.17548197633090415 -0.3040522894717749 -0.1384630365848844 -0.21924105405175362 -0.0162346507043415
-0.23424723738155853 -0.37627482537612345 0.27686756315044003 -0.34290145516311354 -0.4246630101721921 0.20323225294714067 -0.3823315906941987 0.012527924021818041
0.15359160896020085 0.29585018936898555 0.304228842715135 0.544549231786876 -0.07225549190760026 -0.12272513375889194 -0.16597206173980342 0.020490914385246133
-0.39350925620305954 0.38424571273096153 0.01845055516724881 -0.31811019328740775 -0.32538162075806426 -0.21998399136063052 0.482575953740919 0.054548546043068774
0.10371506213320403 0.05949348821861185 0.03979503694521198 0.2477032865539563 0.02251461477304677 -0.5128312801911323 0.10120857561532813 0.4066436511327543
0.2624342349759625 -0.5064846545407787 -0.515941168003515 -0.017454958745675053 0.42219881128004394 0.3496639682370424 0.18016853119593748 -0.004307305519759971
0.3449154831083854 0.03532381374561135 -0.2091332112446112 0.2120792273138337 -0.1544465201387077 0.3453321441987541 -0.3856767629251413 0.03486484197865012
0.07734118012106217 0.30711217011949776 0.2641428175120664 0.014184239244222045 -0.262678400510085 0.029765629188370536 0.049982924227677174 0.020589330544782094
0.2846113526950761 0.21889664242460458 -0.11299118078779814 0.17612089884677906 0.09443773233929263 -0.1332689294623052 0.26573462154831085 -0.25348771787303176
00000000: f8cd 6a41 ede3 da3f ab86 fac2 e470 8c3f
00000010: 58d9 d609 aaa2 b0bf 3696 6e8d bd1f a03f
00000020: b3be 61d3 6827 c43f 34d3 5093 f3b5 a83f
00000030: 4951 a99d 0455 e2bf 5157 d3ca 0edc 97bf
00000040: 8af2 e3ed 56a3 c7bf 4daa c371 3a8a dd3f
00000050: e8d8 4ace 3ec4 ddbf 6bda 62fb 28fe cdbf
00000060: 171f 01d3 4d39 d63f 5386 f68f 8e49 d13f
00000070: c3ad 595c a941 d93f 345b e00f 6525 a83f
00000080: eed5 0a47 87d9 cfbf 059a 76e1 a0eb d03f
00000090: bdae 07ee bcf6 ce3f 870e 23fb 1de0 e1bf
000000a0: 0724 6a6f e176 d53f 8fd4 3102 1146 c23f
000000b0: 2270 f6ea 8870 d03f 81ff bbe4 f5b6 dcbf
000000c0: 5161 d0b2 4acc d8bf a29f 1aa4 e046 5b3f
000000d0: 99b9 36e5 c2c9 dabf ecd6 8cb4 0840 cebf
000000e0: 9fa8 01f2 d574 c83f a91d 080d 999d debf
000000f0: d6d3 d1cd 8cf4 d0bf dadc d24d 88dd d13f
00000100: 7bb6 f963 b114 c4bf b77e bfbb e730 c23f
00000110: 3bf7 23fe 46dc cbbf 2d1b 5aec a348 e2bf
00000120: 1a5b 5bcf 6320 6ebf 9890 2f54 a71e e03f
00000130: 26f1 3f49 1295 cd3f e2d3 6822 94c3 c13f
00000140: 1007 2cac 2496 cfbf 545f 6b7b cc15 e03f
00000150: 5e2e 267b fff1 af3f 7e2a b4a3 6659 d53f
00000160: 9353 f87b 76bf b8bf 1383 6a7a 9c84 c93f
00000170: 1c34 680d a6d4 d23f 2596 64fb 7984 d7bf
00000180: 0d26 463d 612f ccbf e6c8 8ee9 eb72 933f
00000190: 716a 7511 224f a03f 1dcf 8a87 e437 853f
000001a0: 621b 20f7 f9bc d8bf bbca e6aa 9bcc c93f
000001b0: 772c d807 929a cb3f 8780 3b7a 89ca d3bf
000001c0: 1e8d 66be 46c8 cdbf 388b dd2a a500 d13f
000001d0: 1dab 028a ecb6 d33f 9178 b082 3176 c63f
000001e0: 5e88 e3bb 9775 d3bf 8620 eb22 28b9 c1bf
000001f0: 83e2 8b42 1710 ccbf a338 59f7 d09f 90bf
00000200: d9b6 dd3f d0fb cdbf a01b 5301 e314 d8bf
00000210: 8c7a 43ba 32b8 d13f dc49 ebf1 18f2 d5bf
00000220: b6ab 20c3 ad2d dbbf 493f f3b3 8303 ca3f
00000230: 6997 90eb 1e78 d8bf cf10 af7f 3da8 893f
00000240: 5c48 b6cc e3a8 c33f 98bb f6a1 35ef d23f
00000250: 1d88 7d40 7c78 d33f 11c5 b282 f26c e13f
00000260: c714 b3fe 557f b2bf 4044 e413 ea6a bfbf
00000270: 5d6f 9c90 923e c5bf ce5c 99fc 91fb 943f
00000280: f02f 8472 412f d9bf 34b1 7354 7b97 d83f
00000290: 2140 25cc b3e4 923f d864 2cdb ea5b d4bf
000002a0: e905 f86e 0dd3 d4bf 50cb 4478 6f28 ccbf
000002b0: f2ce c940 86e2 de3f dc41 997a c9ed ab3f
000002c0: d8f7 f6ff 118d ba3f eaa2 7234 ee75 ae3f
000002d0: 7912 72dc 0360 a43f e633 6ec5 bdb4 cf3f
000002e0: ed72 8738 120e 973f dc2c 1925 1d69 e0bf
000002f0: 27b3 5722 cee8 b93f 0970 af17 7306 da3f
00000300: 78a4 24f6 b8cb d03f 4bb6 654e 1f35 e0bf
00000310: 4186 670d 9782 e0bf 63e1 dc73 b6df 91bf
00000320: 41e7 b629 4e05 db3f 44bb 0afb e460 d63f
00000330: cda0 a02e c30f c73f e3c1 7585 89a4 71bf
00000340: 5c69 f563 1813 d63f 0363 9d81 f615 a23f
00000350: d2ca 6687 e0c4 cabf a1a7 bc80 6925 cb3f
00000360: 4e06 7d50 e7c4 c3bf 4dd6 65fe eb19 d63f
00000370: d6cc e596 edae d8bf 7d32 28f8 cdd9 a13f
00000380: a006 41af a1cc b33f 2a7a b7cd b9a7 d33f
00000390: fd01 ac46 b7e7 d03f 2f6e 615d a00c 8d3f
000003a0: 239c e310 b9cf d0bf 7aba a28f e17a 9e3f
000003b0: d527 d5a1 5c97 a93f 2772 5895 5e15 953f
000003c0: b652 f988 1237 d23f 2f7d 3520 ce04 cc3f
000003d0: 0153 3872 fdec bcbf 7832 582e 218b c63f
000003e0: 8fd9 e73b 122d b83f 3588 cece f40e c1bf
000003f0: 72c1 3dc9 cb01 d13f 3df3 8c8c 2439 d0bf

lstm1.lstm.weight_hh_l1 f8 [16, 4]
0.2151760029240016 -0.16642351029906402 -0.039832388125677305 -0.08297715289388682 -0.09140802341700068 -0.1194433117401941 -0.41468362016389626 -0.28125399950100155
-0.09118014915719579 -0.05613040740596406 0.38005083028645165 -0.2061262526564631 0.34669313201258684 0.07207661762944412 0.4842149539425956 0.1257679295363666
0.22664399602618873 -0.02920918939145598 0.11965692167904626 -0.03347120487608859 -0.3003854397304663 -0.4237683595081178 0.18468126699342657 -0.13109868517519438
-0.025919350584508886 0.293134693826629 -0.0021871203614249567 -0.29214401412351165 0.3690598277108672 -0.28784348375748203 0.3363456641459509 0.040129135863756576
0.06208959899733338 0.38258189260657965 -0.4564552628295045 0.3454171859545606 -0.2161641466866876 0.05711587379291009 0.489893859704552 -0.021800328198851526
0.35579631838056724 0.32340644369340266 0.18630239404607232 -0.06167672316072758 0.33317402753342645 -0.44218363905650376 0.25246811039315514 -0.43964197340995564
-0.353270236006215 -0.12375787055001239 0.00527143548670758 -0.07562322704208128 -0.38835373410143825 0.019997023265822474 -0.09041309988755107 0.15535621973272973
-0.4138138792283549 0.1887880437575221 -0.24937725932443416 -0.23831312401556584 -0.5574221652020077 0.20003075944939314 -0.20654778793328923 -0.3997682646421856
00000000: b3a6 b823 e38a cb3f 558f 0297 5d4d c5bf
00000010: a989 a428 e964 a4bf 5693 fe9d fd3d b5bf
00000020: 5d03 2b27 8466 b7bf c26a a63d d693 bebf
00000030: ce9c b22a 2d8a dabf d176 6ec6 1000 d2bf
00000040: d3af ac0e 9557 b7bf bc52 3df0 1fbd acbf
00000050: 1d78 b9b7 c052 d83f 5fd6 0055 5862 cabf
00000060: d17a ef63 3830 d63f a456 86fb 9c73 b23f
00000070: deb9 dab7 60fd de3f 1b46 1fdc 2919 c03f
00000080: be34 62a3 ab02 cd3f d944 b784 03e9 9dbf
00000090: 56fe 5905 d6a1 be3f 43dd 9944 2323 a1bf
000000a0: 4a90 f5d9 8339 d3bf 17af 4a53 051f dbbf
000000b0: 98d6 f5c0 a2a3 c73f bb22 b07a d7c7 c0bf
000000c0: de47 602c 9a8a 9abf ebbb d304 b8c2 d23f
000000d0: b86f 974d b9ea 61bf 407d 98ce 7cb2 d2bf
000000e0: c446 921c ad9e d73f d6b9 4613 076c d2bf
000000f0: ea20 eaf6 af86 d53f 449b 4d5c ce8b a43f
00000100: c408 3b3a 35ca af3f ed5e 32c3 387c d83f
00000110: c925 7c22 9036 ddbf 12ad 49af 501b d63f
00000120: 1c25 4b4a 44ab cbbf 45c8 0bb4 4a3e ad3f
00000130: 0a4e 7cc6 6b5a df3f 90e1 9f42 d352 96bf
00000140: d4d4 deeb 5dc5 d63f 26a5 bef0 b0b2 d43f
00000150: d514 ccc0 c1d8 c73f bfae cc69 1794 afbf
00000160: ab7d 0828 b952 d53f a1bb 249b bc4c dcbf
00000170: 2bfa 5a01 7028 d03f 87a8 6f16 1823 dcbf
00000180: 5400 93c3 fa9b d6bf 1e89 a286 98ae bfbf
00000190: de4b 4b30 8097 753f 7bb6 f636 0b5c b3bf
000001a0: a8b0 cf9e c9da d8bf 4fb7 c683 197a 943f
000001b0: a7a2 251b 5025 b7bf d4ba 7d6d b6e2 c33f
000001c0: daaa 7a35 ed7b dabf 6b3d e8e4 342a c83f
000001d0: 2a10 9512 98eb cfbf 895e ed60 0b81 cebf
000001e0: d275 3302 67d6 e1bf 62bc 03a1 9b9a c93f
000001f0: 0d08 1e6d 2870 cabf a47a a7a1 cd95 d9bf

lstm1.lstm.bias_ih_l1 f8 [16]
0.0808961318287994 0.45349464255788785 -0.4798265158326057 0.4431006880001032 0.24549612887597255 0.1056872665859817 0.41702227694224364 0.1229021516808054
0.15603366593181406 0.30831192972364885 -0.16768976680009115 0.46866267832504693 0.4412604924135183 0.05052247594994136 -0.07341652945228433 -0.14321085190269123
00000000: 78dd 93e0 9bb5 b43f 30a1 ac64 0e06 dd3f
00000010: 7a4c 5046 7ab5 debf 2dea f2fc c25b dc3f
00000020: 4a90 68ca 6a6c cf3f 1726 9719 520e bb3f
00000030: b1e7 4a34 7eb0 da3f 36bc 13f2 8376 bf3f
00000040: d245 2042 e9f8 c33f 5e4d c8f5 61bb d33f
00000050: 7fdf 23b8 db76 c5bf 10c2 10bf 91fe dd3f
00000060: eab4 fba5 9c3d dc3f d8fc d5fb 14de a93f
00000070: ecbe fbf8 6ccb b2bf 9c5b adb2 bb54 c2bf

lstm1.lstm.bias_hh_l1 f8 [16]
-0.2921689225878569 0.3940976603648947 -0.06715214840478027 0.198411521454236 0.14396390803551837 -0.40086310506089945 0.31734656197260863 -0.047746482752940946
0.10863623122035772 0.30270706655683977 -0.0805320405122492 0.46665888937698785 -0.05822649040890008 -0.01851132560569221 -0.41179466084190247 0.2567730310013614
00000000: 9f08 db47 e5b2 d2bf 30a1 ac64 e538 d93f
00000010: 0b32 4119 e230 b1bf 73d4 e579 8c65 c93f
00000020: 4790 68ca 686d c23f 7b36 9ab9 bda7 d9bf
00000030: b1e7 4af4 674f d43f 9587 d81b 3a72 a8bf
00000040: a18b 4084 95cf bb3f 5e4d c875 8d5f d33f
00000050: f3be 4770 bf9d b4bf 10c2 103f bddd dd3f
00000060: c558 22d0 dccf adbf 5706 5408 a2f4 92bf
00000070: bfef 3efe d75a dabf 3052 a926 f86e d03f

lstm1.lstm.weight_ih_l1_reverse f8 [16, 8]
-0.03709837274347854 0.18576480744036433 -0.21443346707799646 0.31487511771781207 -0.41774896147729307 0.041161529212408586 -0.15920455526378618 -0.03328377006610994
0.19372821638224302 -0.4252284285250959 0.25450996811568427 0.055854519857342015 -0.009139538005504677 -0.41584763296153043 0.08581469880791509 0.2655313083455661
0.16696245300396537 0.06482042356359578 0.03625557543395318 -0.5330549022722357 0.05585178438138154 -0.47795606336519714 0.24083762520946098 0.5089951672451289
-0.3387934337482619 0.005631579331668487 0.03717371716814338 -0.3794881738183915 0.08204424121453409 -0.15415269249234995 -0.39699032282538466 0.23596482638314048
-0.36264472479372667 -0.244292399936168 -0.0018688856073178204 0.09857883429452262 0.2232336233079577 0.37001219222117604 0.29364827948978184 -0.03946292240223583
0.20476727395322405 -0.39308691963450687 -0.35275068726575753 0.39652513026043595 -0.00010306094331827799 -0.1277604109282558 -0.12769701159663804 -0.07645473185127273
-0.19408431290049055 -0.22223767254688453 -0.10717871115305325 -0.0010609507257438786 0.12848627432909213 0.10064050764941893 -0.1234294459511784 -0.03985734354603356
-0.37262747178272393 0.06883584036659103 0.39148982809583055 -0.3233173556397883 0.13963391635772707 0.3888937153989943 -0.15905205332626413 -0.19454895428057442
-0.3460630489948985 0.2626615602620635 -0.32741887236001577 0.33893411968171205 0.2544495319635394 -0.2791945777833695 0.12358384434111463 0.3890241340013517
-0.12174835462441447 -0.40845752268297625 0.18801775341909843 -0.49763504835065997 -0.1993114843936664 0.05607444995239245 0.4294632326520959 -0.07277471530230491
-0.3559222532386901 0.3203353302102404 0.17986073613799763 0.4011879524096482 0.3356091363007318 0.5041028650102573 -0.31779536960009946 0.13077319340518087
-0.3763827804149556 0.05076471963638803 -0.2879105907353161 0.49673888387114523 0.07051467693785902 0.3745256029135728 -0.3864242995477436 0.24475499768293948
0.44417680189812697 -0.05908534516063855 -0.34691778390083744 -0.41550199506720253 -0.19146789927747765 0.4499963853749915 0.23339773793783594 -0.2930876875519839
-0.27484400208473203 -0.4467515640092552 -0.302840184545704 -0.22793399131933983 0.3653332072136907 -0.18820773432895782 -0.11460633730618106 0.26855699943345507
0.4677567900965456 -0.00634522077159028 0.3223313345377678 -0.36751235086355927 0.12313325857148319 -0.09467440616542244 -0.33424859688778086 0.4248053842358833
-0.32450710857677867 -0.4415066612045098 -0.19160226277013284 -0.11063544654361913 -0.255284634680924 0.34806500998886253 -0.5244093373094241 0.3843536189944583
00000000: b70b 56d3 8efe a2bf 0620 5a26 24c7 c73f
00000010: 234a 224c 8e72 cbbf 8e04 3bf7 e926 d43f
00000020: 73e8 de23 66bc dabf 632b a4bb 1f13 a53f
00000030: 48b8 1d9b d060 c4bf 40d2 d7ff 910a a1bf
00000040: 644a d610 16cc c83f 8e10 764c f136 dbbf
00000050: 0206 642d e449 d03f 6ffc 3db0 f698 ac3f
00000060: ad6c ac06 c0b7 82bf 0d15 ec63 3f9d dabf
00000070: dc65 e5bc f3f7 b53f 8f21 5a07 77fe d03f
00000080: 93ee a791 065f c53f fb89 513f 1298 b03f
00000090: ceae 923d 1790 a23f 526a 8727 c90e e1bf
000000a0: e6bb aee6 9a98 ac3f ec04 4507 d596 debf
000000b0: 5de1 f56d c4d3 ce3f e479 a43b b049 e03f
000000c0: cc17 83a7 caae d5bf 9699 de90 2311 773f
000000d0: 580f 04f7 6e08 a33f 4833 f1c3 8849 d8bf
000000e0: 6d70 d7f4 d900 b53f 8f28 6c82 46bb c3bf
000000f0: bd43 5719 4a68 d9bf 3a34 296e 1834 ce3f
00000100: 1e95 4338 9235 d7bf 938f 312e f944 cfbf
00000110: 7aaa 0ea4 ac9e 5ebf 5f6e 5f65 763c b93f
00000120: 60d5 bc5b eb92 cc3f 9384 2d9e 47ae d73f
00000130: a3db 3b27 22cb d23f 838f 3ef2 7b34 a4bf
00000140: 21c8 7564 d035 ca3f 9532 140a 5628 d9bf
00000150: 40ab 5c9e 7793 d6bf 83af a0f0 aa60 d93f
00000160: 8229 3186 4d04 1bbf 5287 5401 745a c0bf
00000170: 0860 4d2c 6058 c0bf 71f8 ec8c 8992 b3bf
00000180: a080 4938 c1d7 c8bf 5c96 c3b7 4872 ccbf
00000190: cad3 3a63 1070 bbbf 5bfa dc2a f361 51bf
000001a0: 153a 1dfd 3c72 c03f cad0 0189 93c3 b93f
000001b0: 1d45 b979 1299 bfbf d340 1286 2e68 a4bf
000001c0: 3678 39e5 20d9 d7bf a5cc 2ac3 399f b13f
000001d0: 28d9 185a 2b0e d93f 13ef 2c47 3bb1 d4bf
000001e0: 759c 1530 86df c13f 1a8d 5077 a2e3 d83f
000001f0: 1bf0 b253 d15b c4bf 9593 0dea fae6 c8bf
00000200: 6a60 72a1 e525 d6bf 397b cf6e 72cf d03f
00000210: 2c49 3849 6ef4 d4bf 2604 e2bb 18b1 d53f
00000220: a504 91b0 e648 d03f d734 33ef 52de d1bf
00000230: 9450 c2d9 30a3 bf3f 66fe 387b c5e5 d83f
00000240: c023 7471 e62a bfbf bfa0 6e05 2b24 dabf
00000250: 4c4f 003b f710 c83f 0c9b 80ac 40d9 dfbf
00000260: c310 98e9 0983 c9bf 0599 5f51 cab5 ac3f
00000270: efcf c45a 537c db3f e5f8 321e 5da1 b2bf
00000280: 200b 6521 6ec7 d6bf ee67 c0c1 5f80 d43f
00000290: 2a0a c635 ad05 c73f 6083 c93b 10ad d93f
000002a0: f7a0 29be 9e7a d53f 243f e154 9c21 e03f
000002b0: 942b d063 c256 d4bf b332 6f0e 2dbd c03f
000002c0: e539 2acd a716 d8bf 9bfe 4155 d5fd a93f
000002d0: 9455 d88a 206d d2bf f732 38e3 91ca df3f
000002e0: 4d0b 56f7 3f0d b23f 93d2 013c 3af8 d73f
000002f0: 2cfc 3bfc 2cbb d8bf 0757 4abb 2154 cf3f
00000300: 3dd6 7289 646d dc3f 9d8f 4632 6f40 aebf
00000310: 2750 10a6 e633 d6bf fc20 0fae 9597 dabf
00000320: 20b7 d026 0582 c8bf 473e a0a3 bdcc dc3f
00000330: 15a2 b321 fadf cd3f ac58 39dc f2c1 d2bf
00000340: dc29 1d4c 0b97 d1bf 90d2 36df 9397 dcbf
00000350: 3375 22cc bb61 d3bf 0681 2ee7 f02c cdbf
00000360: b709 4888 9e61 d73f 5e08 e6e7 3017 c8bf
00000370: e6f6 a446 d756 bdbf db6d 6bb2 0930 d13f
00000380: 1895 fc2c baef dd3f 84b5 323b 72fd 79bf
00000390: 3735 149b 13a1 d43f b271 f585 5285 d7bf
000003a0: 6a4b 9d46 a985 bf3f 78ab 3ff6 943c b8bf
000003b0: 647b 173a 5464 d5bf 224d 1dec 0230 db3f
000003c0: c608 aa76 b9c4 d4bf b9ba b527 a541 dcbf
000003d0: 11fa 3746 6c86 c8bf 39e6 aec8 9a52 bcbf
000003e0: 5a0e 485d 9556 d0bf 552e b276 b246 d63f
000003f0: 96c0 2e17 f6c7 e0bf 608c ebeb 3f99 d83f
