weights/TA.pth (torch, 108679 bytes, 112 tensors)

a f8 [1]
0	0x3ff176c138829180	1.0914928634093428

b f8 [1]
0	0xbfabf4be58a18618	-0.054601620024879505

lstm.lstm.weight_ih_l0 f8 [16, 16]
0	0xbfd0fa1bc39aa00e	-0.26526540853456104
1	0x3fc4b57cbdfbc8ed	0.1617885520605066
2	0x3fbaa9618f4d4647	0.10414705036716852
3	0xbf954281c8863d6e	-0.020761516441380072
4	0xbfc1b5b6a51681b5	-0.13835795460637504
5	0x3fdee1049cbe5d0f	0.48248400980942646
6	0x3fd21dcadd45d6f3	0.28306838616059266
7	0x3f942d0d5a827757	0.0197031103604027
8	0x3fe018929a470cc6	0.5029995930894067
9	0xbfd43c9c9112889d	-0.3161994377825382
10	0x3fcd956aa68b4a48	0.2311223328784584
11	0xbfcfbdb5c853c6fa	-0.2479769924316811
12	0x3fdc1c95d9f02acb	0.43924471171400786
13	0x3fd5fc81ff623588	0.3435368532162433
14	0x3fc9958fae8a2c74	0.19987674734543115
15	0xbfe035fa1a9e4d08	-0.5065889854326153
16	0xbfd768376c372081	-0.3657358700552394
17	0x3fc623803ed33e57	0.17295840327868703
18	0x3fd9a0f992e1093c	0.40045012801796864
19	0xbfd0015f4730f5be	-0.25008375122328264
20	0xbfc97af23ff962f3	-0.19906452296961383
21	0xbfbbe1f98ce87c9c	-0.10891685190334716
22	0x3fd3fc549d66813a	0.312276033126199
23	0x3fa4bf91a0949207	0.04052405438622846
24	0xbfa7bcab8e25a826	-0.04636131391710334
25	0x3fcff893a224f84c	0.24977345864494038
26	0x3fc0c20cf8f57a15	0.1309219565982437
27	0x3fdfcb16fa84018a	0.49677061523836896
28	0x3fd9422198908202	0.39466133021235816
29	0xbfe0b46af0eeeb1a	-0.5220236497619652
30	0x3f74dcb899841a55	0.0050933085369765
31	0xbfd78dc1ee62d615	-0.36802719383135357
32	0xbfd54948f1ad206a	-0.33259795762251676
33	0xbfd51c795c83010d	-0.3298629191813383
34	0x3fafda53379e020e	0.06221256307526711
35	0x3fd861b09c61ab0a	0.38096251746780807
36	0x3fbc1a7b7404cab3	0.10977908689964515
37	0x3fc7ecc4d704b295	0.18691311358397358
38	0xbfd41fd56ddf55fa	-0.31444297532775034
39	0xbfb0f6cd940ac9f1	-0.0662659155303016
40	0xbfb05bc8b8bd57f3	-0.06390051374668797
41	0xbf8f558f73dadc0c	-0.015299912188636376
42	0x3fc6a6cf3f41d1ce	0.17696562374807318
43	0xbf9333b1efd79a69	-0.01875188852673163
44	0xbfd7c46203b86fb4	-0.3713612591106952
45	0x3fc61ccacf0c2040	0.17275366887793275
46	0xbfd5d4b07037acfb	-0.34110651930559727
47	0xbfa7c410e07f43c3	-0.046417739300188575
48	0xbfdae5534714ba47	-0.42024690572262496
49	0x3f88b996246619ee	0.01207272814350532
50	0xbfc929970eb1f7c7	-0.19658172814882688
51	0xbfd44aba1782b33f	-0.3170609693141166
52	0x3fb88435c87e576d	0.09576736588345876
53	0x3fd557e0c64c83f9	0.33348864903570036
54	0x3fd380f074a6be95	0.30474482909901585
55	0x3fd7e273f460e16f	0.37319659104425446
56	0x3fd18b7bec42083e	0.27413843223633083
57	0xbfd239a7da4e848c	-0.2847690231229272
58	0x3fc4b567cf170932	0.1617860566312373
59	0x3f915e8e029e2a08	0.01696226016023597
60	0x3fc5f9697e2b4893	0.17167395268058225
61	0xbfdc0950f53dfc5c	-0.43806861829211186
62	0x3fd0d6dbc8267d7e	0.2631139235108647
63	0x3fb81876046fced6	0.09412324531859481
64	0x3fb556fb7740a37f	0.08335849439084873
65	0x3fd44a39ece3a96b	0.31703041204186516
66	0xbfd045196c68a154	-0.254217487209208
67	0x3fd336f6101af976	0.3002295644072527
68	0xbfc194143646975a	-0.1373315110224052
69	0xbfcb9ab64924f1de	-0.2156589371824244
70	0x3fce69ee79121444	0.23760777389193966
71	0xbfb466dbed83efc0	-0.07969450520243893
72	0xbfc148ab173b6eec	-0.1350301612318313
73	0xbfcb80779894019b	-0.21485800695519405
74	0xbfa70766800b2b45	-0.04497833550484257
75	0x3fc793298e3d8bfb	0.18417853780110235
76	0xbfb69d6a3a088c5b	-0.08833946148711062
77	0xbfe15eca689c7248	-0.54282112533435
78	0x3f81d63cd29d27c6	0.008709407021928583
79	0x3fc84b32f64db924	0.1897948935179069
80	0xbfbe19005167a40a	-0.11756898868010537
81	0xbf63ac8b2fa32ba0	-0.0024016111829942705
82	0xbfd73a63f24307f9	-0.362938868125752
83	0xbfc139ad13ac3000	-0.13457263432098898
84	0xbfd9b8c0b28d439f	-0.40190141140652175
85	0xbfc106317a41977e	-0.13300150365392577
86	0xbfc36df2b79e6a52	-0.15179285016786764
87	0xbfda808fff428c07	-0.41409683158616456
88	0xbf864fff5f3c85d5	-0.01089477071178894
89	0x3fc77241ebf2fc06	0.1831743623824595
90	0xbfdc8a390c6404da	-0.4459364529612465
91	0x3fc43d82d85dcbcc	0.15812717022671874
92	0xbfca988df21816aa	-0.20778059311867497
93	0x3fba2a108fd0ae1b	0.1022043562995169
94	0xbfbebdabcd10548f	-0.12008165127220337
95	0x3fc285fa0f807b28	0.14471364743163773
96	0x3faba836e0eb3097	0.054017748790642965
97	0xbfdc3e2652860ea5	-0.44129331644965425
98	0xbf9175dbfbfd34b8	-0.01705116010207483
99	0xbfc8e9d1f39a0655	-0.1946356238805033
100	0xbfbfab4a13c17b8a	-0.12370741827315448
101	0xbfa2a3b4e89100eb	-0.036405232800918196
102	0xbfc523d2a1656cbf	-0.16515572434113854
103	0x3fcd5d80a66eea4e	0.22941597105621486
104	0xbfdb8a378b50b943	-0.4303110943318595
105	0xbfb7f6a4f5afbdd4	-0.09360724447446184
106	0xbfda4042bcea055d	-0.410172161566228
107	0xbf04a0e2d450448c	-3.934566715469668e-05
108	0x3fc8405c553e105e	0.18946413194874173
109	0xbfb66fdab9cfd0d8	-0.08764426266117498
110	0xbfbf02ce10504744	-0.12113654993325179
111	0xbfd1bbee043a3135	-0.2770953217775685
112	0x3fd8e1151bd2ae41	0.3887379428585725
113	0x3fd5852376ce59fc	0.33625113107828475
114	0xbfd765d0571e107b	-0.3655892229801407
115	0xbfd7405f87dc2d51	-0.36330402629456154
116	0xbfd8254a32ceb939	-0.37727599107428805
117	0x3fd19e5eeb74bcb4	0.27529118531942776
118	0x3fa2ca3e5c3aa14d	0.03669924617617202
119	0x3fa130252d081c05	0.03357044386580558
120	0xbfc4ddc34a04f57a	-0.16301766504504284
121	0xbfa73a6bc6edc424	-0.04536759188966524
122	0x3fb8198ae630a176	0.09413974876281891
123	0x3faaf8bac5a1f733	0.05267890608318595
124	0x3fc06d3d0c142c9c	0.1283336934069198
125	0x3fe03b20e5b90538	0.5072178351185022
126	0xbfcd616ea2030147	-0.22953589354257017
127	0xbfdab7fcd236d5c9	-0.4174797108529132
128	0xbfd1ce1b3f38904c	-0.27820473836823534
129	0x3fb8a2486e56b889	0.09622624105279177
130	0xbfe33aa5a28308fb	-0.6009090589580234
131	0x3fc575140a86d0c0	0.16763544572825673
132	0x3fd52e3ac4c94b1d	0.3309466287366137
133	0x3fba6becd316f287	0.10320930627399082
134	0xbfcfa5f890a8a536	-0.24725253165642308
135	0xbfd55ca188a136c4	-0.33377874701259835
136	0xbfb079ac170d8e85	-0.06435657084289843
137	0xbfa04089c8405ca4	-0.03174238748049987
138	0x3fa3be46896dcd0f	0.03856106212233545
139	0x3fd878fcb1826c3c	0.38238446555050465
140	0xbfd884139ecb97bb	-0.38306131846763564
141	0x3f9ccbb7960a7e10	0.02812086919095519
142	0x3fb4ef40305edabc	0.08177567654534362
143	0x3fce4dc6ad713046	0.23674853772024756
144	0x3fc5cf361d6ced83	0.17038608967582655
145	0xbfbf1dd3ad12874d	-0.12154887175941305
146	0x3fc8200e1d911ec1	0.18847824519820303
147	0xbfd66885d519e23b	-0.3501295643868933
148	0x3fbfdab86cdac5f6	0.12443115861494633
149	0x3fdddeea3b2357bf	0.4667306497116179
150	0x3fbc35f34be385a4	0.11019821741822128
151	0x3f953caec1e8dfc2	0.020739298425013215
152	0xbfda08b13a6591d9	-0.4067805357247188
153	0x3fd073bfc4d8f997	0.25706476424593333
154	0xbfcdb17ac47f71ec	-0.23197874636288363
155	0xbfc2ecbd41dc3cb1	-0.14784970966181768
156	0x3fd4bcc50f12ee0e	0.3240215918737882
157	0xbf9a69b9b92ba0ab	-0.025793935706048526
158	0x3fb745317c0fc3d6	0.09089955595824448
159	0xbfca4d0253b088a5	-0.205475130905204
160	0xbfc11136e8203a71	-0.1333378442218023
161	0xbfd996f9f5c70346	-0.39983986856173137
162	0xbfc8d02ac5bd111b	-0.19385275511934527
163	0xbfc00f23ca34d054	-0.12546203015665702
164	0xbfc3433a1d104a7d	-0.15048910540697938
165	0x3fd8b0839012ef5b	0.3857735545131981
166	0x3f964d5461a1e33e	0.02177936406994551
167	0x3fd3ea4ee7d31b52	0.31117603911518643
168	0x3fcb1d73f4b6941b	0.21183633278738587
169	0x3fd9365ad8627595	0.3939425576334881
170	0x3fc38c21b6f668ce	0.15271398004262554
171	0xbfdf7083b206e8ee	-0.4912423361344186
172	0x3fd951e5eb608bee	0.3956236647229038
173	0xbfcef1b2bc8ca958	-0.24175104338184883
174	0x3f9672ea3a03cb59	0.021922740736907673
175	0x3fd7be757c857207	0.37099969063072574
176	0xbfd88dfe5f811f76	-0.38366660429573274
177	0xbf92409134fe929e	-0.01782442937805461
178	0x3fdc231943118090	0.43964225339551266
179	0x3fc63e7c2d5dbaf6	0.17378189292090668
180	0xbfce6efd51798511	-0.23776213148361383
181	0x3fc2c870e66848ae	0.1467419743572171
182	0x3fca311b09000e4c	0.20462358416999604
183	0x3fcdad069c83ecf7	0.23184282915449447
184	0x3fda3f2ceecddaaa	0.4101059276648963
185	0xbfd8dc05bff5935c	-0.38842910524390617
186	0x3fd5c6fe72006d36	0.3402706254289173
187	0xbfd85fff9d062309	-0.38085928282139087
188	0x3fdbd1aa4e06802c	0.4346719514815074
189	0xbfd37c2ee6bafcdd	-0.3044545415140883
190	0xbfdb6f9c5d9c93b9	-0.42868718282471324
191	0xbfd6d32ad4edc71b	-0.3566386298544885
192	0xbf85e099217821c5	-0.010682293256665152
193	0x3fd4c62787bd2466	0.3245943856787278
194	0x3fd847bac230cc3a	0.3793780228035676
195	0xbfcbf72e289f2982	-0.21848084434016007
196	0x3fc7a94b1ce87e5b	0.1848539248612607
197	0xbfd2ef3756129610	-0.29585059552695814
198	0x3fc1cda23cb92923	0.1390879436970148
199	0xbf9015bbcebe2ff1	-0.0157079071937431
200	0x3fd4d40fed2df44b	0.32544325029431737
201	0xbfd43df857cd6096	-0.3162823541110894
202	0x3fc4de650466a765	0.1630369445313661
203	0x3fac664d6566a462	0.05546800482563509
204	0x3fd64e4034bdc2b8	0.3485260500956815
205	0x3fc6a88c510054ef	0.17701868014470487
206	0xbfded1778f5d2d72	-0.4815348529852691
207	0xbfe0831abf631388	-0.5160039651897117
208	0x3fde35b9edf5a435	0.4720291923354723
209	0x3fad975a7eddb6a3	0.057795360552387785
210	0xbfd65619ba4a3a3e	-0.3490051573980145
211	0x3fb6b9f4c08ad214	0.0887749643396279
212	0x3fd999430288c9be	0.399979355311327
213	0x3fce366b5c2e3977	0.2360357475376522
214	0xbfc00f8d884728bf	-0.1254746356410745
215	0xbfcd28bfe4c1771b	-0.22780607862198896
216	0x3fd6cc4dd56e88e5	0.35621972887942227
217	0xbf6cf45a674ea4c3	-0.003534485406323813
218	0x3fc80083a878a6c5	0.18751569486749112
219	0xbfc348151bc55898	-0.15063728195190573
220	0x3fd1b705a692ae80	0.2767957808198176
221	0xbfd42df5190f061d	-0.3153050179208508
222	0xbfe0a29a894061e4	-0.5198490791981922
223	0x3fd9f2f72f4352aa	0.4054544412186184
224	0x3fbf67d12f80cb8b	0.12267787370437426
225	0xbf92a51e67ef48de	-0.018208003133460042
226	0xbfca2dfa56484395	-0.20452813351633084
227	0x3fd3df207295cd8e	0.3104935759540347
228	0xbfa87961b86ddcdc	-0.04780106903393186
229	0xbfd5d4872b305b46	-0.3410966798559695
230	0xbfd8b6d19d9b5c5d	-0.3861583747033757
231	0x3f9398ac9a106666	0.01913709345180905
232	0x3fc396b1bcdfec42	0.15303632471463585
233	0x3fdaea5ea4c336a5	0.4205547913560202
234	0x3fcd46373eae9eee	0.22870531616830853
235	0x3fd225fccf13ef6b	0.28356857511948047
236	0xbfc64a365bc789df	-0.1741397808210214
237	0x3fd03c200069bd78	0.25366973915421154
238	0xbfc04e193a5db6bf	-0.12738337850480794
239	0xbfd5517d34741b07	-0.3330986988298012
240	0x3fc5acc5f83ab3f6	0.16933512325832084
241	0x3fa7f7f1ea5fce12	0.046813545093666545
242	0x3fcba48b382c7373	0.2159589790616355
243	0x3fd22b9b1adc712d	0.28391149161486134
244	0xbfc66f9fd0af67f9	-0.17528150262552325
245	0xbfdec0d165717591	-0.4805186739593746
246	0x3fbbf4dce41621ad	0.10920506065861586
247	0xbfd38ccc26577639	-0.30546859497357876
248	0x3fd5d72aaac259ce	0.34125773120595404
249	0x3fdd9bb65f08e140	0.4626289299080959
250	0xbfd4c9eeafd2ab55	-0.32482497377593705
251	0xbfd850fb84da8a4e	-0.37994277929297915
252	0xbfddd95f7e978307	-0.46639239656910586
253	0x3fa443c180176e07	0.039579436193630406
254	0xbf92fa52851e8438	-0.01853302896018169
255	0xbfbbf6998a2f68e4	-0.10923156379377336

lstm.lstm.weight_hh_l0 f8 [16, 4]
0	0xbfd77c6c29ad0745	-0.36696914739524217
1	0x3fdb2d94245eb5de	0.4246569018531242
2	0xbfc5ffe55ee59322	-0.17187182553893715
3	0x3fac69e002e13c23	0.055495262481251716
4	0xbfcb4a156f9a4e6f	-0.21319835614541513
5	0xbf8c79e6951cab7f	-0.013904382157837734
6	0x3fc0a74066b69c1f	0.13010411277102293
7	0x3fb44dc9d61e6c61	0.07931195714483998
8	0x3fc4a3b20c469e61	0.1612455902043051
9	0xbfd9c07f06e7a835	-0.4023740355902448
10	0x3fbed4f25badaa91	0.12043680895082277
11	0xbfc03011f0959f49	-0.12646698233879253
12	0xbfcd57f242e82cb4	-0.22924640910091443
13	0x3f8a04fd861910c2	0.012704830794185166
14	0x3fd15ec062089739	0.27140817235555265
15	0x3fc027cb1f470f5d	0.12621439959741113
16	0xbfdf516122c8aad2	-0.48934200665341365
17	0x3fd46e5b1a18506e	0.31923558758103965
18	0xbfbb611d629e7d7f	-0.10695060403531008
19	0xbfdc728a265e6a2a	-0.44449094531015254
20	0x3fc3ad4f321825d1	0.15372648187648832
21	0xbfd8f72f12c7473e	-0.3900869067557443
22	0x3fdd791de431ecfe	0.4605173805682198
23	0x3fd4988af689a8be	0.32181047512007044
24	0x3fafbff0e4e3e1c4	0.06201126855916386
25	0xbfda106753f5d5d5	-0.4072511978077647
26	0x3fd6708568765735	0.35061774445908905
27	0x3fb8b99478b445af	0.09658172556762311
28	0xbfdaf5389c5b2233	-0.4212171103395434
29	0x3fce273ab2a4c90d	0.2355721828731209
30	0xbfc829e094019199	-0.18877799250470842
31	0xbfe0a3136da6db06	-0.5199067250858611
32	0x3fd65b96b41db6ec	0.3493401297517795
33	0xbfbeb6df60dce8b1	-0.11997791399781722
34	0x3fda06bfc1be4e4d	0.406661929323694
35	0xbfb76bb266843bd2	-0.091487073925449
36	0x3fabe701eb075147	0.054496822299969376
37	0xbfbb3626cf7da775	-0.10629503789610147
38	0xbfd7203a7a7fb9b3	-0.36134206736360425
39	0xbfc77fd6469ee67c	-0.183588776095167
40	0x3fd1422064a0c19a	0.26966104342411656
41	0xbfdb9236796f87a1	-0.43079912051154606
42	0x3fd11b53798b8455	0.26729285115840656
43	0xbfd5dfc40022b2f9	-0.34178257001148854
44	0x3fdce9fe5432f9df	0.4517818281418879
45	0xbfddbe13b0ec7e1e	-0.4647263744136313
46	0x3fd5f0b77914239b	0.3428171808632727
47	0xbfafc8e380043a71	-0.062079533936516
48	0x3fdfb53532928eb5	0.495435046565244
49	0x3fd9a1867f72554b	0.40048372693975826
50	0x3fc9d4f706088180	0.20181167406645883
51	0xbfd9a28841bdbc3f	-0.4005451814654783
52	0xbfc3fdf4886c0808	-0.15618759785871839
53	0x3fcc76828139afda	0.22236663160162956
54	0x3fb75f9773f52730	0.09130236226078803
55	0x3fd51be2ebbc0359	0.3298270513624196
56	0xbfc3d6ebe3c3897b	-0.15499638196258644
57	0x3fdd0ec82a98148a	0.4540272155721331
58	0x3fd99322434ff5c1	0.39960533688994465
59	0x3fb3f3eca053a4d8	0.07794073976733118
60	0xbfdadfd6a9dbdc08	-0.41991201961303704
61	0xbfc4c8d401bdfe1e	-0.16237878880564066
62	0x3fd255c459895f8a	0.28648480171022384
63	0x3fd53c9c968b1b1f	0.3318244428777905

lstm.lstm.bias_ih_l0 f8 [16]
0	0x3fd6a03969e1ab5b	0.35352931346885946
1	0xbfc6f339b3067349	-0.1792976497789829
2	0x3fd607b2f91ec074	0.34421991661202544
3	0x3faf988fe28e19d8	0.061710831075334205
4	0x3fd31ee6ec8776ba	0.2987611112456353
5	0xbfcdfc073278c065	-0.234253787655237
6	0x3fc58cb9547ea7e9	0.16835705400200077
7	0x3fc6df76fb6caaec	0.17869460369669043
8	0xbfe05a65d0f5ed11	-0.511034877897517
9	0x3fbe6927b5fd7585	0.11879203980557491
10	0x3fe03c91fb8ba756	0.507393828677986
11	0x3fd443e40f21e17c	0.3166437289978814
12	0x3fc8cdb88fe3e3dc	0.19377810502899606
13	0xbfc1dd78d5005111	-0.1395712890668013
14	0xbfa90c603e293174	-0.04892254599380666
15	0xbfd28daa4cac0bcf	-0.2898965595961131

lstm.lstm.bias_hh_l0 f8 [16]
0	0xbfd45249961e54a5	-0.31752242717750284
1	0x3fd09320667cc65a	0.258979892812112
2	0xbf877b50dc27f10f	-0.01146567508566723
3	0x3fcdc51cf8a38670	0.23257791653218218
4	0x3fd0eca2ec8776ba	0.2644431409697564
5	0x3fc977574d873f9b	0.19895449910700055
6	0xbfc5899fab815817	-0.16826244234351925
7	0xbf722520926aa228	-0.004429938539637614
8	0x3fc033dc3c284ba6	0.1265826505410505
9	0xbfcc68b9a501453e	-0.22194595867999029
10	0x3fdb5ceaf7174ea7	0.4275462544439769
11	0xbfb08da5c3787a0b	-0.0646613695357489
12	0xbfc96124f01c1c24	-0.19827710842238944
13	0xbfd24b5eea80288e	-0.2858502664609056
14	0xbfd3d75d87c5262b	-0.31001985796737824
15	0x3fa4414b9a9fa17c	0.03956066381926157

lstm.lstm.weight_ih_l0_reverse f8 [16, 16]
0	0x3fb175beb2e2d485	0.06820289485297522
1	0x3fc063311afc3bbd	0.12802709405556625
2	0x3fd44771303392b6	0.31686048228429387
3	0x3fc2eb46a802e388	0.1478050537459945
4	0x3fda1e1888f7ee5f	0.4080869042952368
5	0x3f9a4322d3dc769b	0.02564672868822147
6	0xbfda6a159a81f28c	-0.4127248772490837
7	0x3fdc3d84e8988686	0.4412548324054132
8	0x3fd954a97f68e24f	0.395792364524401
9	0xbfdc67949aa9e183	-0.44382205108515665
10	0x3fd622f48890e7c2	0.34588349663283335
11	0x3fdb6d3888c5164a	0.4285413108485484
12	0xbfbab083f22437db	-0.10425591146142159
13	0x3fc0b300a495e72c	0.13046272312549811
14	0xbfd4a39f80af2852	-0.322486758869336
15	0xbfcd7dd549627e47	-0.2304026230167315
16	0x3fdaca6c3ccaac36	0.41860490738571643
17	0xbfbe1bce56e70421	-0.11761178609505453
18	0x3f97cf9eb58e86de	0.023252944785446476
19	0x3fc7d3c09923fe50	0.18614966847961734
20	0xbfd664636b727af0	-0.34987721913232317
21	0xbfc15c6b62ed15c0	-0.13563291864754312
22	0xbfca398f17f2a88c	-0.2048815600331334
23	0x3fd82d7e06f6d3f3	0.377776629258107
24	0xbfddaa47a0bf7cff	-0.4635180539898584
25	0xbfd731d0173251f5	-0.36241533532418596
26	0xbfc555fa61435d0a	-0.16668634175469094
27	0x3fd4790d7c9ddc5d	0.3198884694060718
28	0xbfdba24d86065b96	-0.4317811783634452
29	0x3fb501c02af9621b	0.08205796288655913
30	0xbfc7d19136e86097	-0.18608298474351123
31	0xbfd6674a2dcbe442	-0.3500543067198728
32	0xbfce79a49e452a9c	-0.23808725097690775
33	0x3fd9911e993dd1f7	0.39948239293087745
34	0x3fcf2623a764e36e	0.24335141824283418
35	0x3fdbdfac4235ddbf	0.43552690950260947
36	0x3fcd820bc44453ef	0.23053118785233503
37	0xbf736f3a73e6ce3d	-0.004744747477548436
38	0x3fdca3cc9ee532c2	0.44749751584167197
39	0xbfdcf3e24709e527	-0.452385491727528
40	0xbfd85b441b83a3d3	-0.3805704373067417
41	0x3fc6689e71427e91	0.1750677159334271
42	0xbfc28c0bf0cccab8	-0.14489888437090825
43	0x3fb6a3bb760819b6	0.08843585616714375
44	0xbfcfdfca0927dc98	-0.24901700446182384
45	0x3fcd830d90d4709d	0.23056191989679045
46	0x3fda39b340a3225e	0.4097717410300329
47	0xbfce9690a28f0a1b	-0.23896987855376114
48	0x3fd8a712eba3569e	0.3851973820832003
49	0x3fdb8abf95898e10	0.43034352877859394
50	0x3fdec6ee699ddb72	0.4808918029224777
51	0xbf9937475aef4407	-0.02462493412514635
52	0x3fb7ddee0b1c6583	0.09323013087523262
53	0xbfc5b8d4a39499a3	-0.16970308291747668
54	0x3fd2bec1be4f70ac	0.29289287171355727
55	0x3fdfb20dd3178c8a	0.49524255384876226
56	0xbfd867457e226294	-0.38130318944744457
57	0xbfa2daa5da94a50a	-0.036824400837142404
58	0xbfd1b3a665e14587	-0.27658996533599417
59	0x3fdb514afd32800e	0.4268367264394336
60	0x3fdf8a27abac3c57	0.49280730976983506
61	0xbfdb9e2536f1cea6	-0.43152742734603533
62	0xbfc4954806bc7964	-0.16080570534627292
63	0xbfd096c053868f59	-0.25920112759398745
64	0xbf8361188b598d56	-0.009462539436930466
65	0xbfdadebc3b774fe5	-0.41984468276245784
66	0x3fd68b271f7f4b06	0.35224321437742423
67	0x3f843afbe248f11b	0.00987812790219116
68	0xbfd189714ebc1668	-0.2740138310331077
69	0x3fd826045776b10e	0.377320371068678
70	0x3fcae764de993e11	0.21018658513138225
71	0xbfb2fcca859f510e	-0.07416978609336786
72	0xbfac23edb9b37b42	-0.0549616135774529
73	0xbfb7f9b1b3b6f3ba	-0.09365378034176688
74	0x3fd229fadf65d119	0.28381225410636685
75	0x3f6baa0376e92a4c	0.0033769672075199316
76	0x3fc1a7b5d575afaa	0.13793061182820782
77	0x3f8e8edc50802147	0.014920922476463828
78	0x3fc240c75cd5d8a6	0.14260189087844316
79	0x3fc50b1d57c253b3	0.16440169129478263
80	0xbfa48d4e3f3bef93	-0.04014057657147343
81	0xbfd58b0c226c86d0	-0.33661177980148427
82	0x3fd5a192a1124ab3	0.3379866192782785
83	0x3fde35cd36428727	0.4720337896234121
84	0x3fa3de61b94ea00e	0.03880601298379825
85	0x3fcbb62b3c923fb0	0.2164968534239029
86	0x3fc77bcb2c5954dd	0.1834653822467435
87	0x3fd0dbbc6510dcf2	0.2634116160365486
88	0x3fdad5fdf962cb9f	0.4193110404404993
89	0x3fd2aeff7ae9437d	0.29193102839513313
90	0x3f8efb7e60d825d6	0.015128123598532033
91	0x3fd32e4f2acbf5a6	0.29970149211279773
92	0x3fdd4f6c4539db19	0.457972591022029
93	0xbfa1037f1beb3d23	-0.033229801328724905
94	0x3fe05c80b4811087	0.5112918401214451
95	0xbfd676f3f3b5f863	-0.35101031112561126
96	0xbfc127ee2cfda3b8	-0.13403107830825234
97	0xbf96f600ee6f17f3	-0.022422804406026797
98	0xbfd43e589915571f	-0.3163053030924505
99	0xbfcba7ec608821f5	-0.2160621138903164
100	0xbfafe83b05f599d8	-0.062318653562033866
101	0x3fc9137c5ad09be7	0.1959071582252527
102	0x3fd9aed67e285b45	0.4012962562568883
103	0x3fcfaf6fa3e726b0	0.2475413847262664
104	0xbfdb5eeceb9ef2b1	-0.4276687909112225
105	0xbfdbabe3661147cb	-0.43236622779397454
106	0xbfd44bec41dc4425	-0.31713396484070905
107	0x3fb03b2bcff780f9	0.06340287997545947
108	0x3fb27fb7d0f8d2fa	0.0722613225160095
109	0x3fbf14598e130f40	0.12140426367392099
110	0xbfda13202b05e175	-0.4074173374315458
111	0xbfaaebac7f82e1fc	-0.05257929855855889
112	0xbfda29291d5b3f9c	-0.40876224390830784
113	0x3fb2fd662d191877	0.07417906380678284
114	0x3fc40c892394fd52	0.1566325591793239
115	0x3fdd657a8200858f	0.4593187589217331
116	0xbfb654a1920d7996	-0.0872288686345882
117	0x3fd6e7100cf42f3b	0.35785294785522453
118	0x3fd1520e696bc5c1	0.27063331885355174
119	0xbfd167182ff7438e	-0.2719173878113502
120	0x3fb4c76c19ff4d67	0.08116794237803547
121	0x3fd0677299aa0c44	0.2563139439227522
122	0x3fcae787feda59e5	0.21019077247610976
123	0x3fd42b7babefb7d7	0.3151539973322292
124	0xbfd1a98da057bfed	-0.27597370775674684
125	0xbf776078e021657a	-0.005707237405738192
126	0xbfd257efdf077d28	-0.28661724834633384
127	0x3f5abc28843cd3d3	0.0016317744893516908
128	0x3fd8a79390b7c104	0.3852280534038217
129	0x3fc9ea8c67cdd43f	0.20247035091930063
130	0xbfe02cd9e998d2b6	-0.5054750025215842
131	0xbf57fdff4536318b	-0.0014643662333098963
132	0x3f503b291e64b5f4	0.0009906674909631015
133	0xbfb4db88cf27f4cb	-0.08147482926866016
134	0x3f9c0c6d6a5a9fd1	0.027391156784375262
135	0x3fdb44e9305ef98b	0.4260809872029305
136	0xbfd5f1e3de1ab7ac	-0.3428888005245152
137	0xbfb30cbf4833fc75	-0.07441325676698958
138	0xbfde3093aed4e850	-0.4717148978558088
139	0x3fdb10f055c85262	0.4229088628501697
140	0xbfdf5a780fb777e7	-0.48989678892928484
141	0x3fd3f4b30b52a45a	0.31181026559585734
142	0x3fd3059f360a7c16	0.29721813466488933
143	0x3fcea2419e1f2a91	0.23932666989124532
144	0xbf6f4e335483dbbe	-0.0038214685956705343
145	0xbfd2fb9cf7cf518c	-0.29660724830798624
146	0x3fe1ff85eabcf81d	0.5624417862634378
147	0x3f61c8bc4d727a9f	0.0021709134849311053
148	0xbfc173d31caaa11a	-0.13634718799335915
149	0xbfd397313502b5e9	-0.3061030404740835
150	0xbfda02a47c75fbec	-0.40641128687269545
151	0x3fd98e43fb0b330c	0.3993082000350092
152	0xbfa71cabf36df2a0	-0.04514062258292495
153	0x3fccfb43bd05d911	0.2264179871523955
154	0x3fce281a0c247046	0.23559880822074514
155	0x3fb40d04f0a47867	0.07832365870533096
156	0xbfdd3086d10d87de	-0.4560868302852422
157	0xbfdd2e65e2095684	-0.4559569079768624
158	0x3fc43a66deac9729	0.1580322825695302
159	0x3fd73d4540e108da	0.3631146558365238
160	0xbfd5695f98c1ebf3	-0.33455648343777894
161	0x3fd534883f190dc8	0.3313313118162253
162	0xbfd26692cc2f2448	-0.28751058521135464
163	0x3fc5c69ee1392cad	0.1701239204142885
164	0x3f8b1d85a2eb2035	0.013239902529122197
165	0x3fcd620d677900f2	0.2295548205602312
166	0xbfd1c89236261a6f	-0.2778668907925867
167	0x3fb8c3d106bf17f1	0.09673792280872796
168	0xbfb535d546a0e71c	-0.08285267805413493
169	0x3fd03ca6e82e0252	0.25370190309334817
170	0x3fd68fcea8545ad3	0.35252729834011837
171	0xbfc17d7a7beab824	-0.13664179850224045
172	0x3fbd8d72075ff1df	0.1154395359043927
173	0x3fca16dfbe926fc6	0.20382305913233106
174	0xbfb1eaa5874ad428	-0.06998667290720617
175	0xbfdccefc2439e48d	-0.450133357407659
176	0x3fd7f3fb8fbcea0a	0.3742665198984986
177	0x3fc4041bf0fa093c	0.1563754011768398
178	0x3fe23c40af750bce	0.5698550631426487
179	0xbf72bce67835c495	-0.0045746805875392
180	0x3fd06741b814dbcb	0.25630228974062835
181	0xbfc09aa8ac57a720	-0.12971981444507552
182	0xbfc0b131b03d9d3d	-0.13040753465177515
183	0x3fd391ec7ab8132f	0.3057814787319328
184	0x3fd368767c095ba4	0.30325090516037734
185	0x3fcb1d6c75fd89de	0.21183543931245102
186	0xbfd6046a48664155	-0.3440194804216124
187	0x3fd889f89eaeb1ea	0.3834210919983706
188	0xbfda09e41fa69e31	-0.4068537053194375
189	0x3fd79dd1adce1911	0.3690075108828675
190	0x3fd1bead576ea690	0.2772630075292932
191	0xbfdf751fae76549f	-0.49152366673781417
192	0xbfbe225a366b608d	-0.11771167591666849
193	0xbfd02cf004a38fe3	-0.25274277165431
194	0xbf95d03706269f3a	-0.02130208945314325
195	0x3fd7b5065c1d453f	0.3704238795808869
196	0x3fc4cce9a22c3d04	0.16250343721956295
197	0x3fd2a3abde748b07	0.29123970722336917
198	0xbfa3ab610216c68b	-0.038416892533303125
199	0xbfda6a2c45c496ee	-0.4127302819564268
200	0x3fcf8144efebc6ad	0.2461324855317363
201	0xbfda32e04fa0b245	-0.4093552377333121
202	0x3fc33ca98c51b871	0.15028876639866298
203	0xbfd3d531adc9204a	-0.309887332642124
204	0xbfc90dfbba6028f8	-0.19573923683521577
205	0x3fd5487d01aad203	0.3325493351251511
206	0x3fa50f3dd0c05a8a	0.04113190816149366
207	0xbfd750d50b059e51	-0.36430860592233666
208	0x3fc53914d3eed5c2	0.16580448482788596
209	0xbfd585bd682acc52	-0.33628783390594663
210	0xbfc14ceb5d3bab50	-0.13515989353558178
211	0xbfdceac8e3a403d1	-0.4518301222852275
212	0x3f865b65be6cb3b1	0.010916514276311991
213	0xbfd3358e26b84855	-0.30014375478015626
214	0x3fb166cf13fa01ca	0.06797498929700577
215	0x3fc362a8d197403b	0.15144834741522736
216	0x3fdf23b69cfff808	0.48655476886767746
217	0xbfc67f77868859a0	-0.17576498097396343
218	0xbfca9fa0ff9ffe01	-0.2079964874428555
219	0xbfdc655548ea2768	-0.44368488426754604
220	0xbfda69172eefc1b8	-0.4126642187466376
221	0x3fd9bc1969ada4e9	0.4021056682600617
222	0x3f995d07d9dff4d6	0.024768946335815688
223	0xbfd5ef34ee902465	-0.3427250222890222
224	0x3fe0335f97768b03	0.5062711675894608
225	0xbfce7fd00168b000	-0.2382755286101883
226	0x3fb2de560c362be3	0.07370508001456204
227	0xbfa99efd740bfd70	-0.050041122833131335
228	0xbfd3ce091a5d07c4	-0.30945041250754124
229	0x3fdb0f35db6ba729	0.42280336787972544
230	0xbfc499adb640afab	-0.1609398975282351
231	0xbfde93a3dbca2812	-0.47776123489222855
232	0xbfda02d8d8c84b08	-0.4064237706199241
233	0x3fcf3f59dd656c65	0.24412082014427763
234	0xbfc3c6cb42bac257	-0.15450421102788667
235	0xbfdb1b72263a0170	-0.4235501645380486
236	0xbf953b74e0a29e18	-0.020734621248861357
237	0xbfb304eb6efaa979	-0.07429381808711878
238	0xbf9676134a52b599	-0.021934796725579273
239	0xbfd54b49a15003cc	-0.3327201915090512
240	0xbfc98f7a43e2455a	-0.19969108881609082
241	0x3fdd2480ef691478	0.455353006171499
242	0xbfd4ca4a01f74dcb	-0.32484674636836236
243	0xbfc655f6cba3eb9f	-0.17449841445326528
244	0x3fd7ea7392885cc7	0.37368478116827614
245	0xbfba3371436fa5cf	-0.10234744926824323
246	0x3f9b932d55e391a2	0.026928623549694948
247	0xbfc0677d13339280	-0.1281582206494427
248	0x3fc672ce314e227c	0.17537858397942674
249	0xbf7952c721f7a1d1	-0.006182458746004164
250	0x3fcabec585687e59	0.20894688619681537
251	0x3fcab1608d71ab0c	0.20853812128492455
252	0x3fbf4ff2ab443098	0.12231365853603149
253	0x3fd012a248b7e61e	0.2511373243465601
254	0x3fe046864de64ca4	0.5086089631535242
255	0xbfcc75adfb9e5c57	-0.22234129701675684

lstm.lstm.weight_hh_l0_reverse f8 [16, 4]
0	0xbfda93545a0e3b56	-0.41524227900020116
1	0xbfcaf092129d3f73	-0.21046663197420976
2	0x3fc68e5a07afc7a6	0.17621922850918031
3	0x3fd13e0868ca3ec5	0.2694111846294443
4	0xbfd9313dbf317abc	-0.39363044425219207
5	0xbfd64f3b26b53817	-0.3485858800894461
6	0xbfcdf85e29c014cb	-0.23414208448972426
7	0x3fdbfd5b78f07a02	0.43733870325550595
8	0x3fd403e681f0e902	0.31273806275898164
9	0xbfd7cb20c888b129	-0.3717729528750789
10	0xbf700037888df68b	-0.003906456878096552
11	0x3fabf4ba1a67a36b	0.054601493571516745
12	0x3fc645fa36f88233	0.1740105408107567
13	0xbfc60d32f87e75c3	-0.1722778046941312
14	0xbfb13d0523b64d3a	-0.0673373424709113
15	0x3fd9dbed291778b7	0.4040482426916116
16	0xbfb0b24245812df7	-0.0652200145424827
17	0x3f83cab2fd6c05ba	0.009663961752724205
18	0x3fc1492fb0261abc	0.135045968065432
19	0x3fd7151b963a99b8	0.3606633154944592
20	0x3f8113045f22892b	0.008337053445135986
21	0x3fdb251b5e256c80	0.42413982576335485
22	0x3fa4c2db9aa0247a	0.04054914724844934
23	0xbfce33697636e510	-0.23594396850766275
24	0xbfd174909fca89fb	-0.27273955921751253
25	0x3fbd65177cc5ad4c	0.11482378765292828
26	0xbf79b30458709177	-0.006274239515765215
27	0xbfcb33cc8e907cfa	-0.21251828156616864
28	0xbf525ab81d163142	-0.0011202619537896284
29	0xbfdd4318ffa40a36	-0.4572203155986786
30	0x3fd687eaa7454592	0.3520456918241389
31	0xbfd21fce64828bf9	-0.28319129767822876
32	0x3fd7f022fb72edd5	0.37403177791176506
33	0xbfdb3f4cdb4daf31	-0.42573853889801955
34	0xbfc5abbbbb8970ae	-0.1693033853251839
35	0xbfc6bc82f3ee990f	-0.17762791548484144
36	0x3fdaf29a1528cab9	0.4210572439798557
37	0x3fd40f768a6c7ea6	0.3134437896533008
38	0x3fd16c541d8e834d	0.2722368515624581
39	0x3fd2f85c2c25114b	0.2964086943723216
40	0x3fc0b59b93bb3716	0.13054222787325703
41	0xbfe0beabbe478da9	-0.5232752529522503
42	0x3fd99317da6ea6a3	0.3996028550269363
43	0xbfe0f3a054705553	-0.5297395371623373
44	0x3fc8a4e1feac0156	0.19253182349349157
45	0xbfd721823a824706	-0.3614202090621891
46	0xbfd002f70ae26882	-0.2501809698384322
47	0xbfdbed6ed3c50206	-0.436366755300725
48	0xbfe057e8699721fc	-0.5107309400855793
49	0x3fdb4705e520fd05	0.42620990157952604
50	0xbfd475f7207603bd	-0.3197000329019451
51	0x3fcd0a63c648e9a2	0.2268795698344777
52	0xbfd45f1432be42b7	-0.3183031554736248
53	0xbfd54139f9748d45	-0.33210610733859297
54	0xbfd5f6bc349ab564	-0.3431845201219714
55	0xbfde174f2cc78fc1	-0.47017268536569296
56	0x3fde5d4463c526f3	0.4744425749127991
57	0xbfc343b62d93a8f1	-0.15050389504842301
58	0xbfcc7ccfa4805487	-0.22255893261231938
59	0x3fdb136559b4c2bf	0.4230588317905521
60	0x3fd5689a2856d43c	0.33450941027996683
61	0xbfdc1d0f9e74a412	-0.43927374338324043
62	0xbfde09ffe9cd3e94	-0.46936033088875573
63	0xbfc8a84f750015c2	-0.19263642514139973

lstm.lstm.bias_ih_l0_reverse f8 [16]
0	0x3fdfdb3cc0178481	0.4977561832329869
1	0xbf91fbda474d4100	-0.017562304117121563
2	0xbfc7a47c79bf0133	-0.18470722145685556
3	0xbfd8f3096796c157	-0.38983378521063144
4	0x3fd0075a8bfa9602	0.25044883413133345
5	0x3fd0be5e7d0e4c55	0.2616192075012738
6	0x3fc05da5c1e18165	0.12785789458122135
7	0x3fd8c4ee1c25cb10	0.38701966046134917
8	0xbfd9c61ebfced7d8	-0.40271729212997576
9	0xbfd8ef3ab4910667	-0.38960139878699923
10	0x3fd824f04b2f42c1	0.3772545561051111
11	0xbf938de120aa490b	-0.01909591447708529
12	0xbfd53598a03fdc7c	-0.3313962521492113
13	0xbfb86aa0ed822ac8	-0.09537702368303791
14	0x3fb0d8e51c9ab0b1	0.0658095545611015
15	0xbfd686c5f468df69	-0.35197590702181586

lstm.lstm.bias_hh_l0_reverse f8 [16]
0	0x3fc2c0ff802f0901	0.1465148330590367
1	0x3fdd353f9b8b2bf4	0.45637502851303613
2	0xbfcfec9d79bf0134	-0.24940842098841076
3	0x3fd64e7698693ea9	0.34853901752374356
4	0xbfd216f9f4056a00	-0.28265236692610074
5	0x3fd6cc3c3d0e4c54	0.35621553385243954
6	0xbfad714ef879fa88	-0.057505100089646766
7	0x3fdf8de05c25cb10	0.4930344486121365
8	0xbfcf630b7f9dafb5	-0.24521011096237336
9	0xbfc259fbe9220cc7	-0.14337109454581862
10	0x3fc8840d965e8581	0.19152994005439086
11	0x3fdb77052df55b71	0.42913941848876563
12	0xbfd16e1b203fdc7c	-0.27234533452378407
13	0xbfc7c8a276c11562	-0.18581038282915602
14	0xbfd506def8d953cc	-0.3285443716206913
15	0x3f9c67d0b972096c	0.02773977405423393

lstm.lstm.weight_ih_l1 f8 [16, 8]
0	0xbfc10065076fd806	-0.1328245436013164
1	0xbfd720738fa8aa2e	-0.3613556769293237
2	0x3fa4fa8f508eccfa	0.04097411974307792
3	0xbfc3d13e7a9ceef1	-0.15482312190021433
4	0xbfd2b69f3fc38445	-0.2923963663761849
5	0xbfc81305be181eb7	-0.18808051855034133
6	0x3fd82ecf74bdad71	0.3778570785568354
7	0xbf8371c997e00184	-0.009494376132352718
8	0x3fda09bab429adee	0.40684383005165514
9	0x3fb546360d6aa229	0.08310258700897379
10	0x3fba09be497c19bc	0.10171117109357558
11	0x3fd20494ed1ad5db	0.28152964739578373
12	0x3fdcb08427086807	0.44827369510460396
13	0xbfdb58130ba56cbe	-0.4272506345493631
14	0xbfaed0984d321e52	-0.06018520300227394
15	0x3fc762495c6c5309	0.1826869679722665
16	0x3fc6d5345f3642d3	0.17838148736020418
17	0xbfd09cd6afe78918	-0.2595726697746996
18	0xbfd44867585ee02b	-0.31691917066518965
19	0xbfc96223a393b8cc	-0.1983074711528786
20	0x3fd542f907ffbf8e	0.33221269398836106
21	0xbfd6b5b6a9b0a004	-0.3548409134987198
22	0x3fc42b6c3024eed3	0.15757515288156884
23	0x3fd3b0a7a7bcc280	0.30765715962028395
24	0xbfc59b88036e7ea1	-0.16880893867072636
25	0x3fc2cdc87f27c88e	0.14690500458488426
26	0x3fd5f8ff4c028ee8	0.34332258627749335
27	0x3fd4c5d5f02f4e9d	0.3245749326281187
28	0xbfd5f5036b1e671d	-0.3430794282991075
29	0xbfd4794339574b72	-0.31990128135401286
30	0xbfd2740a69621871	-0.2883325604565306
31	0xbfd4bfc64c37312c	-0.3242049927037154
32	0xbfc9abb8720c9dc2	-0.2005529934769879
33	0x3fd33cf43026f5f7	0.30059532835352293
34	0x3fb3ebd664382cf7	0.07781734415782525
35	0xbfbd11861199542a	-0.11354864053403504
36	0x3fd0abc7f4424442	0.260484684499776
37	0xbfcca53e52e1010b	-0.22379282996008273
38	0x3fcde3d5c47759fb	0.23351547329976072
39	0x3fd051a645601437	0.25498348975117174
40	0xbfd6930b52c0298c	-0.3527248676406536
41	0xbfda30f82aeaac09	-0.40923885527689713
42	0xbfd948ac132b4b2f	-0.3950605570982359
43	0xbfb2387d9ea71805	-0.07117447970730957
44	0xbf8e74b84a919fc6	-0.014871063018475083
45	0x3fcc55f7cd856d27	0.2213735345384091
46	0x3fd44be3fe74d1d7	0.31713199471712755
47	0xbfc66328af2e1dc0	-0.1749010901805672
48	0x3fc499a308927c61	0.1609386245590683
49	0x3fcdc6f7cf99b4e0	0.2326345218347461
50	0xbfa9ff5e01246691	-0.050776422156741614
51	0x3fd477caba0093fa	0.31981151737483027
52	0x3fd077d9e6e5e3a0	0.2573151354659391
53	0x3fe1617b1cb0dc26	0.5431495247238487
54	0xbfcf36e2f36c07e6	-0.24386250387038827
55	0xbfd3b5024ea55502	-0.30792291336304356
56	0x3fc035a3698406b0	0.12663691188941106
57	0xbf93e0e58d966f99	-0.01941260029489875
58	0x3fd990be9464c208	0.39945950023232557
59	0xbfc2b99b2d269b87	-0.14628925041798999
60	0x3fd03ad0a16f4edf	0.2535897804748241
61	0xbfd76c7df62a78fe	-0.36599682845725556
62	0x3fd01347be2127da	0.251176772759775
63	0xbfd228868b19d890	-0.2837234838874645
64	0xbfd913ca55ac52a5	-0.39183290831105416
65	0x3fcfe30c4259039a	0.24911645164141022
66	0x3fc2e7e474a083ab	0.14770179457357577
67	0x3fc457f1926af944	0.1589338269167887
68	0xbfc311fc3fe06a41	-0.1489863693139615
69	0xbf8ad43b5098505d	-0.013100112340033993
70	0x3fd1661a78d1c63e	0.27185689734242036
71	0x3fd2f43b623acf9c	0.2961567363047324
72	0x3fd45e13b78ba8ed	0.3182420055806137
73	0xbfdcd351cd776c02	-0.4503979212292394
74	0x3fd9f43b3fcc7069	0.4055317042382343
75	0xbfd5d1940afb2eb4	-0.34091664383297915
76	0x3fcd1a7b01fa20d9	0.22737062069450678
77	0xbfd182509cbd4f80	-0.2735787897738575
78	0x3fb07025e9fb8f61	0.06421124422518922
79	0x3fc37317a40c2cf0	0.15194983968863296
80	0x3f923b744edf3803	0.01780492526432199
81	0xbfd319ea73b4464f	-0.2984567766116912
82	0xbf63916312ef26b5	-0.00238866186507355
83	0x3fd69a381d31d4fb	0.35316279269257195
84	0x3fdbee6c793cc5ba	0.4364272293051631
85	0x3fa5dbfbf548b321	0.042693971340076915
86	0x3fbf962f60224bf6	0.12338539216061392
87	0xbfc773b85c7c1684	-0.18321899906020545
88	0xbfb458575e760e93	-0.07947298103504812
89	0xbfd2835af76b4fb7	-0.2892672935679416
90	0x3f9a77033f8bc3c3	0.025844622376954406
91	0x3fc7db01f12bf0f9	0.18637108112296355
92	0x3fa02466578aa0fb	0.03152770823118264
93	0x3fd6718607300ad6	0.3506789274398846
94	0x3fae22df8dcedb03	0.05885981184058233
95	0xbfc4f117e599c694	-0.16360758505793582
96	0x3fd93fc764876c17	0.39451775376591186
97	0xbfd26ad715e7bbfb	-0.28777100695782537
98	0xbfb19e1f90bfea4b	-0.06881902011802159
99	0xbf9401121c37c178	-0.019535334560659007
100	0xbfb505cf694828a8	-0.08211990661962665
101	0x3fd5e2e0e21522f9	0.34197256163001516
102	0x3fc0eede8c151a2f	0.13228971328699532
103	0xbfd5a1b2b9be3a00	-0.3379942716500466
104	0xbf8e7928dbecdef4	-0.014879531108462164
105	0x3fa9926827e83089	0.04994512068887597
106	0x3fd481f190c040c7	0.3204311288436767
107	0xbfbc9157027a938b	-0.11159271059530178
108	0xbfd9a0cb7458f3d0	-0.4004391323285832
109	0x3f95e349c6c4d98f	0.021374848133939358
110	0x3fa76cd0995bc859	0.04575206634571378
111	0x3fd55a6af02f88f6	0.333643660122234
112	0xbfa3b0c2cc452630	-0.03845795386821427
113	0x3fc50e2918937c92	0.16449464511876905
114	0x3fac58c0b101b713	0.05536462937094035
115	0xbfb76057cbb88362	-0.09131382678652991
116	0x3fdde58d44c0d456	0.4671357318323478
117	0xbfcad7bbc8486bbc	-0.2097086646980112
118	0xbfce354b6ca6b43b	-0.2360014229319932
119	0x3f95a6fa2eff491a	0.02114478027198983
120	0x3fc93077f2a7acde	0.1967916426504876
121	0xbfc63cc8122f87fc	-0.17372990501377206
122	0x3fcced1cc0530a54	0.2259860934337491
123	0xbfdc7e4e269ba59c	-0.4452090622931679
124	0xbfd3371ac3b66c1d	-0.3002383147483572
125	0x3fd1001f80425125	0.26563251042650143
126	0x3fd9f8550062b42b	0.4057819846883059
127	0x3fd97273f1e0f819	0.3976106512162701

lstm.lstm.weight_hh_l1 f8 [16, 4]
0	0x3fb04963f21f9b56	0.06361984883515723
1	0x3fc6c201e6d82f6b	0.17779563686087427
2	0x3fdcfd4e796ade41	0.4529606042592356
3	0x3fbdc762f255cb3a	0.11632364670167031
4	0xbfc17b5a7076e0b1	-0.13657694331573603
5	0x3f8ebd80c7af4db0	0.015009885877509926
6	0x3fd8e59391c66973	0.3890122340759696
7	0x3fb82fd95a1aec47	0.09448011827309798
8	0xbfd175e034467431	-0.2728195677280523
9	0xbfc49418ead46da1	-0.16076957193659516
10	0xbfd7f61bdd2c4acd	-0.3743962917225588
11	0xbf758c217cc7775a	-0.005260592279652554
12	0xbfd7f5cfdbd62bf8	-0.37437817066592016
13	0x3fd2676a46b44328	0.2875619593115055
14	0x3fd80c903dba69dc	0.3757668116392361
15	0x3fbc13999b65fc37	0.10967407268434291
16	0xbfc9a7b06970342f	-0.2004299654803687
17	0xbfa5fc8374b4314e	-0.042942150112227226
18	0x3fd41cb90f1a6b11	0.31425310587808136
19	0x3fc9e435206d8203	0.20227684100520102
20	0xbfbcfc52b7d34323	-0.11322514522477127
21	0x3fd2e2f49541bfb5	0.29510225845205734
22	0xbfdeda145b7ed265	-0.48206051764581154
23	0xbfd6b1b288349f09	-0.35459578801463515
24	0x3f856775ba192dff	0.01045124029328459
25	0xbf754d680129c846	-0.005200773494481286
26	0x3fce18ad3f6260a0	0.2351280745977009
27	0x3fddc84594d951f8	0.4653486207583053
28	0xbfcec1a718e6b6ac	-0.2402848121250164
29	0xbfa0f1014a52ae23	-0.033088722536686065
30	0xbfdb947f7fa2c522	-0.43093860115466687
31	0xbfcf5d840de7a719	-0.2450413768668163
32	0x3fdbdb3b25542bbe	0.4352558006800641
33	0x3fd9d05eb8b6960b	0.40334289587403366
34	0x3fdbb47c0c8a9c5f	0.43289090370894273
35	0xbfdacc28d20de4f3	-0.418710904246452
36	0xbfc3cc9b6bf7b67a	-0.15468161365372507
37	0x3fd08857c28853cc	0.25832170483891725
38	0xbfcbb90dc9372e16	-0.2165848953721798
39	0xbfcb1594ba1c2581	-0.21159609877967614
40	0xbfc984a90740bef4	-0.19936097005983522
41	0x3fccb2b88de2fe97	0.22420412948666943
42	0x3fb3d87a315242fb	0.07752193168768066
43	0x3fcb1640c8afd7ab	0.21161660956539427
44	0x3fdec4dd23ba8f90	0.48076561440597576
45	0xbfb7fcfd3b68596f	-0.09370405865079133
46	0x3fcd4539ecca4c15	0.22867511808416965
47	0x3fc2e029f83ba80b	0.14746594067338523
48	0xbfbf75f4c3265c47	-0.12289361729050184
49	0x3fd35d0834e91ad2	0.3025532261566869
50	0x3fb546921e5673e4	0.08310807457605979
51	0x3fdb21144c811f8d	0.42389399977809533
52	0xbfaf9cbdfa698674	-0.06174272233762404
53	0xbfc33c8654b8cab8	-0.1502845681839824
54	0xbfd03c0bda27a50a	-0.2536649351519179
55	0x3fc007576c377331	0.12522404464734785
56	0xbfb30b5a12a7210f	-0.07439196544067193
57	0xbfc765a069a24a2b	-0.18278889806659157
58	0xbfc8427c986ff6b1	-0.18952901309233064
59	0x3fca469319d797ef	0.20527876626800842
60	0x3fcdf9297bfe34b1	0.23416632227273262
61	0x3fac36f3b83f7495	0.0551067507183031
62	0xbf9dee10125258b0	-0.02922844993425916
63	0x3faa87bffe102b9e	0.05181694008213998

lstm.lstm.bias_ih_l1 f8 [16]
0	0x3fc4a43e28f48ed5	0.16126229285975194
1	0xbfbd397f36337dad	-0.11415858338613445
2	0xbfc5af44b36da192	-0.16941126595635275
3	0xbfda80fad37903d3	-0.4141223015940884
4	0xbf9474630940a587	-0.019975230636338572
5	0x3fd82574ab07c4d0	0.37728611662084877
6	0x3fb000cf6b9324fb	0.06251236320817448
7	0x3fbb506571869b52	0.10669549962640915
8	0xbfc42de4a7b78e2b	-0.15765054883296278
9	0x3fc54f3a0a130e82	0.1664803075019457
10	0x3fcb5af7d6873f55	0.2137136266232981
11	0x3fd75d50f2b55f68	0.36507056905747115
12	0xbfddd3fadc28c087	-0.46606322765274694
13	0xbfbe5ae052c7e5d5	-0.11857416172997344
14	0x3fdd825341139b26	0.46107941966185917
15	0xbfd8253d7644ba2a	-0.3772729544606671

lstm.lstm.bias_hh_l1 f8 [16]
0	0x3fb236fc51e91dac	0.07115151405115822
1	0xbfb8c7eb36337da9	-0.09680051873464514
2	0x3fd87d46e6492f3c	0.38264629830222296
3	0x3fda0931ac86fc2d	0.4068111595951816
4	0x3fd920e4cf6bf5ac	0.39263267761256304
5	0xbfcf2b6929f07660	-0.24351229236428917
6	0x3fc2d8ef35c9927c	0.14724531294190857
7	0xbfa86ed71cf2c955	-0.04772064426778636
8	0x3fd23dd2ec2438e8	0.28502343235676486
9	0xbfde3a22faf678c2	-0.47229837902149197
10	0xbfdc444454bc6057	-0.44166668200478426
11	0x3fe10c84195aafb5	0.5327778334808416
12	0x3fbba8348f5cfde7	0.10803535938338592
13	0xbfd031a914b1f975	-0.2530310346700369
14	0x3fdc9329c1139b26	0.44648212294707645
15	0x3fdf617009bb45d3	0.49032212210030685

lstm.lstm.weight_ih_l1_reverse f8 [16, 8]
0	0xbfd41d539ace9781	-0.31428995244856855
1	0xbfd7574f2b3f0aaa	-0.36470393393771394
2	0xbf48552d3a228af8	-0.0007425757251165723
3	0xbfd07b9e9c2ea0c5	-0.2575451398102014
4	0xbfd7e35d0070d987	-0.3732521538071513
5	0x3fd1e5ed54b3e67a	0.2796586348700668
6	0xbfbd7e41b5d19aef	-0.11520777405676673
7	0xbfd6913e772394e0	-0.3526149905649856
8	0xbfb5ff3ab8300ac2	-0.08592574116486687
9	0xbfaa1cee26be8d0e	-0.05100197051003806
10	0x3fc78f18145268af	0.18405438415795092
11	0xbfe0408e76f91c31	-0.5078804324811071
12	0x3fd5bfd5106675e5	0.33983351327500905
13	0x3fcf448aedf455cb	0.2442792570006261
14	0x3fd6c6ab9a10266b	0.35587587399695647
15	0xbfbfe3073d439266	-0.12455792661382645
16	0x3fd493a446f973a5	0.321511334715803
17	0x3fd25177b89bd9ff	0.28622239139750144
18	0x3fa299c4d38b10fa	0.03632941324534218
19	0xbfdd57d768ec071c	-0.4584864163044686
20	0xbfd0cabb0644aab4	-0.26237369167453584
21	0x3fb2ebd30271364e	0.07391089257836223
22	0x3fc66d7c864e9395	0.1752162605090716
23	0x3fb4f693890a8759	0.08188745589953096
24	0x3fe07fe8298f54e9	0.5156136333195295
25	0xbfdccebe261d19a4	-0.4501185772136529
26	0xbfc6206ab9b305ee	-0.17286428515767177
27	0xbfdfb6135bd14f75	-0.49548801390232394
28	0x3fd4a2f8c7451311	0.322447008704601
29	0x3f30a3f16c0d03bf	0.0002539123925551743
30	0xbfb378e664e2772d	-0.0760635372448319
31	0x3fb9a508a6653fbd	0.10017446577444296
32	0xbfaf2b83a8be8463	-0.06087886271348777
33	0xbfd5d56771e5a13b	-0.34115015146973676
34	0x3fcb00d80b21d2df	0.2109632543903421
35	0x3fc7d6aadf928226	0.18623863140693792
36	0xbfd0de8bd9835e6b	-0.2635831474449108
37	0xbfb4cf1263a4e4cb	-0.08128466541974715
38	0xbfb889d806972faf	-0.09585333023932095
39	0xbfe09afe5aa1be7e	-0.5189201135780903
40	0xbfd146e06031e3e8	-0.2699509562876856
41	0x3fb42901a1ca3138	0.0787507076258337
42	0xbfdd3b45d6aa2dbf	-0.45674272502284546
43	0xbfcdb1b49dcfe7dd	-0.23198564248724454
44	0xbfcd0320d3a62872	-0.22665796598841187
45	0xbfdcbe281f1adfb2	-0.4491062453994302
46	0x3fd98a1bad8d0815	0.399054450496011
47	0x3fc8c5f45d53465d	0.1935410934152512
48	0xbfdb4af987f9dbc4	-0.42645109442622364
49	0xbfd898c0d198d775	-0.3843233153196402
50	0x3f883978ce3022b0	0.01182836894260339
51	0x3fc24c05f7aa2a48	0.14294504731181434
52	0xbfd62b68c6466e7b	-0.3463994919090749
53	0xbfbcff28065d1346	-0.11326837687836386
54	0x3fb424c0497b7427	0.07868577760696437
55	0x3fdb5f82a7c8bcf2	0.427704490520184
56	0xbfdc42f9db1f143f	-0.4415878906114052
57	0xbfd54e0db9a5587a	-0.33288901452522845
58	0x3fd4c5eda490d9d9	0.32458058424836406
59	0xbfc95bedd27d3895	-0.19811795022764458
60	0x3fa78949411a537c	0.0459692851992832
61	0x3fcf5b22f01230dc	0.24496876451701766
62	0x3f9d82ad774183ae	0.02881880798702568
63	0xbfd47685faa90781	-0.3197340915540892
64	0xbfd46ae5af747054	-0.31902448782216664
65	0x3fc8ca009f2dc944	0.19366462490467928
66	0x3fe11ce7d69de72f	0.5347785178885028
67	0x3fcf5713a950308e	0.24484487311599817
68	0x3fd766ed523e9e42	0.36565716773700185
69	0xbfcbe35c3a2b49e9	-0.21787598457611004
70	0x3fda9e8081b4ed65	0.4159241930644469
71	0xbfd41dcd16231d5c	-0.31431891595680894
72	0xbfbc242bef9bba1d	-0.10992693519413206
73	0xbfd0b15c514e2ff7	-0.26082523288709986
74	0x3fcce2bd0e2c1940	0.22566950981144807
75	0xbfc43f501fd5320b	-0.1581821589883393
76	0x3fd9421303076984	0.394657853086436
77	0x3fd405d55289df38	0.312856035808625
78	0xbfcbb017754a8caf	-0.21631139018163512
79	0x3fd0357e41d676fe	0.2532649653384026
80	0x3fc0360582a593b6	0.1266486061023479
81	0xbfa45e3ae6d28180	-0.03978141849188699
82	0x3fa6577ed00b973a	0.04363628663649739
83	0x3fa00dcfefd3892c	0.03135537912909778
84	0xbfc562724cc74c61	-0.16706684826803822
85	0xbf9014111a0c48ac	-0.01570154878124501
86	0xbfc649177815d1a6	-0.17410558093582756
87	0x3fc53cf8fef91b2c	0.165923237322397
88	0x3fcaefd889e06b93	0.21044451458223232
89	0xbfb6c9d33eb1f8d7	-0.08901710777897463
90	0x3fb1acc4be0e2137	0.0690424884797992
91	0xbfdab590024080f9	-0.41733169765394923
92	0xbf8681b501bf8d41	-0.010989584079601602
93	0xbfd6aa98063377bd	-0.3541622219616974
94	0xbfbe17f891af2830	-0.11755326802008947
95	0xbfa245c53ee26d57	-0.03568855660088371
96	0xbfd13178ab9b56dc	-0.2686444927070235
97	0xbfd6c5c891a9cbe2	-0.3558217451565594
98	0x3fd56b02745ac22d	0.33465634691950435
99	0xbfcf3f3c3b2de922	-0.24411728753677503
100	0xbfd035a001e2a862	-0.2532730120098049
101	0xbfe2b221637eb1f0	-0.5842444365749184
102	0x3fcb0961c9a7d034	0.21122381540738078
103	0xbfd77bd8a6d59581	-0.3669339780083974
104	0xbfd94114fc536190	-0.3945972885244595
105	0xbfdbb2dd47c70318	-0.432792015166386
106	0x3fd14ec167833d70	0.2704318533769401
107	0xbfbc6c6d97d370f3	-0.11102948147476237
108	0x3fe0bf33bf6e1409	0.5233401049487166
109	0xbfd6dac929b24225	-0.35710362502962517
110	0x3fcae17c929b93a6	0.2100063052995697
111	0x3fc95c646ec730ee	0.19813208970152324
112	0xbfad4af82ee32478	-0.05721259662966188
113	0xbfd9119629cda179	-0.3916983993754211
114	0xbfc7a3bf5eb6498f	-0.18468467831241894
115	0xbfcbd00045e25668	-0.21728518879233438
116	0x3fbf288b4919666a	0.12171240362786198
117	0x3faac081c088f096	0.05224996066360281
118	0x3fda76b48af11e17	0.4134951931814341
119	0xbfbcc7ef7236ca17	-0.11242577112606288
120	0x3fd50f5be3ffb658	0.32906243577494854
121	0xbfa726857159db38	-0.045215768896858355
122	0xbfd0d0175e2080d1	-0.26270088378988726
123	0x3fc5bd6b72504dec	0.1698431308910665
124	0xbfbca9d990f1f887	-0.11196670330716262
125	0xbfd42a20ac61c6be	-0.3150712665002223
126	0x3fb3b79ccbd02ecd	0.07702045417698429
127	0xbfdc4d7bb57ca791	-0.44222920153935613

lstm.lstm.weight_hh_l1_reverse f8 [16, 4]
0	0xbfd4c8d0f5d2fbb0	-0.32475685125603615
1	0xbfb031cdfc9406b6	-0.06325995842419271
2	0xbfd8003a19f69f81	-0.37501385245786173
3	0xbfd7f04a92d8c1bb	-0.3740412172365059
4	0xbfd833978b3b8ecc	-0.3781489238447022
5	0x3fd477906977b313	0.31979761409347524
6	0x3fc427496872b25a	0.15744893646241814
7	0x3fd324b57066549d	0.299115524068222
8	0xbfd6bfdc1cfaac91	-0.35546019392013145
9	0xbfd7f98a02686e55	-0.3746056579127289
10	0xbfd135bce8b29c2d	-0.268904902690738
11	0x3fd55f48f5867a92	0.3339407346447071
12	0xbfd4c1799e5f1f44	-0.3243087812993404
13	0x3fd242a183e7ed5a	0.2853168285507387
14	0xbfd1abcf3b0a85c3	-0.2761114193509366
15	0xbf74dd920e037331	-0.005094118620232278
16	0x3fb744ddec6615e8	0.09089457532362355
17	0xbfd043f0baf69191	-0.25414675005074466
18	0x3fd9030823bdc2a4	0.39081004610401693
19	0xbfbe47d7f1f64748	-0.11828374535823827
20	0xbfda582815cdeb6c	-0.41163065080006933
21	0x3fd0b48821489b5a	0.2610187840495449
22	0xbfbdb02a99f465fc	-0.11596933611544807
23	0xbfd9388fea02d497	-0.394077280546591
24	0x3fd96ce17055eff0	0.3972705456760641
25	0xbfc36a5b1ce00d63	-0.1516832247726639
26	0x3fd30b533ebb3189	0.29756623388382103
27	0x3fcdf093642e203a	0.2339042891655952
28	0xbfbaf2ff81fed4ab	-0.10527035640446296
29	0x3fd64a2c945cf5db	0.3482772301539094
30	0xbfa433bdbdb6dd03	-0.03945725384567746
31	0x3f99abbc81f665af	0.025069184715538814
32	0xbfd36b38959e715d	-0.30341925250265495
33	0xbfcfbd3c43ea939b	-0.24796250644899662
34	0x3fdbfd0e8c3ce34e	0.4373203629980268
35	0x3fdb3b994d644e07	0.4255126243380975
36	0xbfd604f25e28faa7	-0.34405192561454573
37	0xbfcc07d7f8bcfac0	-0.21898936887187936
38	0xbfd88ecd55cd1d60	-0.38371594790483776
39	0x3fd62671e5ea31ed	0.3460964913618046
40	0x3fca32dd078fc61c	0.20467722768039287
41	0x3fbc601519b4cb77	0.11084110143273827
42	0x3fc3c0a770cffd5c	0.1543168354837502
43	0x3fa8c9ebcf9c9401	0.04841553601571747
44	0xbfda140ee1478248	-0.4074742507928346
45	0xbfd919d14add217a	-0.3922007781116218
46	0x3fc0870e005c95ae	0.12912154214533927
47	0x3fbb020fad240ba0	0.10550020196028109
48	0xbfd2b9762065a024	-0.29256966747061797
49	0x3f816f752f7ac9c6	0.008513370048011459
50	0x3fd027a5f45c15d4	0.2524199377370142
51	0xbfd70fab1828cbb4	-0.3603313194209321
52	0xbfca859f80f399ac	-0.20720285221541468
53	0x3fd0cf1a3bce5bb0	0.26264053192556513
54	0xbfd6278958814676	-0.34616311686577406
55	0xbfd7844fde6ca9a9	-0.3674506828416733
56	0xbfdf080bf6fd5620	-0.484866133881356
57	0xbfd96037e32a4c38	-0.39649769958595327
58	0xbfd6ee89fd13768c	-0.35830926622825454
59	0x3fdcc2bdfa4cb112	0.44938611453359656
60	0xbfd9c824a38c0f20	-0.4028407666339593
61	0x3fad2f4b72a7cec9	0.05700145506480465
62	0xbf96c95f697f5cf8	-0.022252550901467466
63	0x3fd85d0c24b7f12a	0.3806791647509892

lstm.lstm.bias_ih_l1_reverse f8 [16]
0	0x3fd80eeb447b4ded	0.3759105843321027
1	0x3fc34ad80532f421	0.15072155240878352
2	0xbf9ada08f0ed2864	-0.026222362236957855
3	0x3fd3845f7f0cee29	0.30495440871502183
4	0xbf9bb8fe872578de	-0.027072884558372638
5	0x3fddd2a5d3b4934c	0.4659819190440444
6	0x3fdd706aa971d23e	0.4599863676769792
7	0xbfdbf55715b9d8a2	-0.4368493759315105
8	0x3fd0600b912c2e6c	0.2558621328068742
9	0xbfb98d4ca8cd0340	-0.09981230851282152
10	0x3fd57270bce71643	0.33510988662269287
11	0xbfbb6812b5639f5a	-0.10705677917905856
12	0x3fa3bacda305ef72	0.03853457083729851
13	0x3fdc16280c994218	0.43885232191408496
14	0xbfb1ebf7c71f681d	-0.07000683413880933
15	0xbfe0e2a6aed64db5	-0.5276673712527812

lstm.lstm.bias_hh_l1_reverse f8 [16]
0	0xbfd13068fb84b213	-0.2685797172769366
1	0x3fdcf79e02997a0c	0.45261335615023834
2	0xbfc41e2f1e1da509	-0.15717114420412084
3	0x3fb09dc0fc33b89a	0.06490713269497164
4	0x3fd5fb70d78da874	0.3434717278493118
5	0x3fc5ae702769268d	0.1693859283862377
6	0xbfdae1d0d68e2dc2	-0.42003270104097734
7	0x3fab1a8d52313b1f	0.052936950953713195
8	0xbfd614332ed3d192	-0.3449829060839643
9	0xbfdaa9a9ea3340d0	-0.4166054522620586
10	0x3fc7037879ce2c7f	0.17979341456916484
11	0x3fdd572812a71824	0.4584446127086059
12	0xbfd24d058b9f4211	-0.28595102915736087
13	0x3fcb147599328434	0.21156187038744323
14	0x3fbe91e538e097e3	0.11941368712049853
15	0xbfa38cf0ed64daf4	-0.038184670428042994
